#loc = loc("/root/autodl-tmp/HuangJieCode/Big-Yellow-J.github.io/code/Python/RL-TRL/~/autodl-tmp/tmp-sore/torchinductor_root/xt/cxtj6wqcm3p7fy2drmbfv6jmtabrgftfb7p3lqlkjcjfvgun7csq.py":18:0)
#loc27 = loc("in_ptr0"(#loc))
#loc28 = loc("out_ptr0"(#loc))
#loc29 = loc("xnumel"(#loc))
module {
  tt.func public @triton_poi_fused__to_copy_add_arange_bitwise_and_constant_pad_nd_index_le_scalar_tensor_view_where_8(%in_ptr0: !tt.ptr<i64> {tt.divisibility = 16 : i32} loc("in_ptr0"(#loc)), %out_ptr0: !tt.ptr<bf16> {tt.divisibility = 16 : i32} loc("out_ptr0"(#loc)), %xnumel: i32 {tt.divisibility = 16 : i32} loc("xnumel"(#loc))) attributes {noinline = false} {
    %cst = arith.constant dense<0> : tensor<1024xi64> loc(#loc1)
    %cst_0 = arith.constant dense<1280> : tensor<1024xi32> loc(#loc2)
    %tmp14 = arith.constant dense<0xFF800000> : tensor<1024xf32> loc(#loc30)
    %cst_1 = arith.constant dense<0.000000e+00> : tensor<1024xf32> loc(#loc1)
    %cst_2 = arith.constant dense<1218> : tensor<1024xi32> loc(#loc4)
    %cst_3 = arith.constant dense<true> : tensor<1024xi1> loc(#loc1)
    %tmp2 = arith.constant dense<1218> : tensor<1024xi64> loc(#loc31)
    %cst_4 = arith.constant dense<1224> : tensor<1024xi32> loc(#loc1)
    %xmask = arith.constant dense<1490832> : tensor<1024xi32> loc(#loc32)
    %c1024_i32 = arith.constant 1024 : i32 loc(#loc1)
    %xoffset = tt.get_program_id x : i32 loc(#loc33)
    %xoffset_5 = arith.muli %xoffset, %c1024_i32 : i32 loc(#loc34)
    %xindex = tt.make_range {end = 1024 : i32, start = 0 : i32} : tensor<1024xi32> loc(#loc35)
    %xindex_6 = tt.splat %xoffset_5 : i32 -> tensor<1024xi32> loc(#loc36)
    %xindex_7 = arith.addi %xindex_6, %xindex : tensor<1024xi32> loc(#loc36)
    %xmask_8 = arith.cmpi slt, %xindex_7, %xmask : tensor<1024xi32> loc(#loc32)
    %x0 = arith.remsi %xindex_7, %cst_4 : tensor<1024xi32> loc(#loc37)
    %x1 = arith.divsi %xindex_7, %cst_4 : tensor<1024xi32> loc(#loc38)
    %tmp2_9 = arith.extsi %x0 : tensor<1024xi32> to tensor<1024xi64> loc(#loc31)
    %tmp2_10 = arith.cmpi slt, %tmp2_9, %tmp2 : tensor<1024xi64> loc(#loc31)
    %tmp5 = arith.cmpi sle, %x0, %x1 : tensor<1024xi32> loc(#loc39)
    %0 = arith.cmpi slt, %x0, %cst_2 : tensor<1024xi32> loc(#loc4)
    %1 = arith.andi %tmp2_10, %xmask_8 : tensor<1024xi1> loc(#loc14)
    %2 = arith.xori %1, %cst_3 : tensor<1024xi1> loc(#loc15)
    %3 = arith.ori %0, %2 : tensor<1024xi1> loc(#loc16)
    tt.assert %3, "index out of bounds: x0 < 1218" : tensor<1024xi1> loc(#loc17)
    %tmp9 = tt.splat %in_ptr0 : !tt.ptr<i64> -> tensor<1024x!tt.ptr<i64>> loc(#loc40)
    %tmp9_11 = tt.addptr %tmp9, %x0 : tensor<1024x!tt.ptr<i64>>, tensor<1024xi32> loc(#loc40)
    %tmp9_12 = tt.load %tmp9_11, %1, %cst evictionPolicy = evict_last : tensor<1024x!tt.ptr<i64>> loc(#loc41)
    %tmp10 = arith.cmpi ne, %tmp9_12, %cst : tensor<1024xi64> loc(#loc42)
    %tmp11 = arith.andi %tmp5, %tmp10 : tensor<1024xi1> loc(#loc43)
    %tmp14_13 = arith.select %tmp11, %cst_1, %tmp14 : tensor<1024xi1>, tensor<1024xf32> loc(#loc30)
    %tmp16 = arith.select %tmp2_10, %tmp14_13, %cst_1 : tensor<1024xi1>, tensor<1024xf32> loc(#loc44)
    %4 = arith.muli %x1, %cst_0 : tensor<1024xi32> loc(#loc2)
    %5 = arith.addi %x0, %4 : tensor<1024xi32> loc(#loc23)
    %6 = tt.splat %out_ptr0 : !tt.ptr<bf16> -> tensor<1024x!tt.ptr<bf16>> loc(#loc24)
    %7 = tt.addptr %6, %5 : tensor<1024x!tt.ptr<bf16>>, tensor<1024xi32> loc(#loc24)
    %8 = arith.truncf %tmp16 : tensor<1024xf32> to tensor<1024xbf16> loc(#loc25)
    tt.store %7, %8, %xmask_8 : tensor<1024x!tt.ptr<bf16>> loc(#loc25)
    tt.return loc(#loc26)
  } loc(#loc)
} loc(#loc)
#loc1 = loc(unknown)
#loc2 = loc("/root/autodl-tmp/HuangJieCode/Big-Yellow-J.github.io/code/Python/RL-TRL/~/autodl-tmp/tmp-sore/torchinductor_root/xt/cxtj6wqcm3p7fy2drmbfv6jmtabrgftfb7p3lqlkjcjfvgun7csq.py":42:35)
#loc3 = loc("/root/autodl-tmp/HuangJieCode/Big-Yellow-J.github.io/code/Python/RL-TRL/~/autodl-tmp/tmp-sore/torchinductor_root/xt/cxtj6wqcm3p7fy2drmbfv6jmtabrgftfb7p3lqlkjcjfvgun7csq.py":39:35)
#loc4 = loc("/root/autodl-tmp/HuangJieCode/Big-Yellow-J.github.io/code/Python/RL-TRL/~/autodl-tmp/tmp-sore/torchinductor_root/xt/cxtj6wqcm3p7fy2drmbfv6jmtabrgftfb7p3lqlkjcjfvgun7csq.py":33:27)
#loc5 = loc("/root/autodl-tmp/HuangJieCode/Big-Yellow-J.github.io/code/Python/RL-TRL/~/autodl-tmp/tmp-sore/torchinductor_root/xt/cxtj6wqcm3p7fy2drmbfv6jmtabrgftfb7p3lqlkjcjfvgun7csq.py":27:18)
#loc6 = loc("/root/autodl-tmp/HuangJieCode/Big-Yellow-J.github.io/code/Python/RL-TRL/~/autodl-tmp/tmp-sore/torchinductor_root/xt/cxtj6wqcm3p7fy2drmbfv6jmtabrgftfb7p3lqlkjcjfvgun7csq.py":22:21)
#loc7 = loc("/root/autodl-tmp/HuangJieCode/Big-Yellow-J.github.io/code/Python/RL-TRL/~/autodl-tmp/tmp-sore/torchinductor_root/xt/cxtj6wqcm3p7fy2drmbfv6jmtabrgftfb7p3lqlkjcjfvgun7csq.py":20:28)
#loc8 = loc("/root/autodl-tmp/HuangJieCode/Big-Yellow-J.github.io/code/Python/RL-TRL/~/autodl-tmp/tmp-sore/torchinductor_root/xt/cxtj6wqcm3p7fy2drmbfv6jmtabrgftfb7p3lqlkjcjfvgun7csq.py":20:33)
#loc9 = loc("/root/autodl-tmp/HuangJieCode/Big-Yellow-J.github.io/code/Python/RL-TRL/~/autodl-tmp/tmp-sore/torchinductor_root/xt/cxtj6wqcm3p7fy2drmbfv6jmtabrgftfb7p3lqlkjcjfvgun7csq.py":21:36)
#loc10 = loc("/root/autodl-tmp/HuangJieCode/Big-Yellow-J.github.io/code/Python/RL-TRL/~/autodl-tmp/tmp-sore/torchinductor_root/xt/cxtj6wqcm3p7fy2drmbfv6jmtabrgftfb7p3lqlkjcjfvgun7csq.py":21:23)
#loc11 = loc("/root/autodl-tmp/HuangJieCode/Big-Yellow-J.github.io/code/Python/RL-TRL/~/autodl-tmp/tmp-sore/torchinductor_root/xt/cxtj6wqcm3p7fy2drmbfv6jmtabrgftfb7p3lqlkjcjfvgun7csq.py":23:19)
#loc12 = loc("/root/autodl-tmp/HuangJieCode/Big-Yellow-J.github.io/code/Python/RL-TRL/~/autodl-tmp/tmp-sore/torchinductor_root/xt/cxtj6wqcm3p7fy2drmbfv6jmtabrgftfb7p3lqlkjcjfvgun7csq.py":24:19)
#loc13 = loc("/root/autodl-tmp/HuangJieCode/Big-Yellow-J.github.io/code/Python/RL-TRL/~/autodl-tmp/tmp-sore/torchinductor_root/xt/cxtj6wqcm3p7fy2drmbfv6jmtabrgftfb7p3lqlkjcjfvgun7csq.py":30:19)
#loc14 = loc("/root/autodl-tmp/HuangJieCode/Big-Yellow-J.github.io/code/Python/RL-TRL/~/autodl-tmp/tmp-sore/torchinductor_root/xt/cxtj6wqcm3p7fy2drmbfv6jmtabrgftfb7p3lqlkjcjfvgun7csq.py":33:44)
#loc15 = loc("/root/autodl-tmp/HuangJieCode/Big-Yellow-J.github.io/code/Python/RL-TRL/~/autodl-tmp/tmp-sore/torchinductor_root/xt/cxtj6wqcm3p7fy2drmbfv6jmtabrgftfb7p3lqlkjcjfvgun7csq.py":33:37)
#loc16 = loc("/root/autodl-tmp/HuangJieCode/Big-Yellow-J.github.io/code/Python/RL-TRL/~/autodl-tmp/tmp-sore/torchinductor_root/xt/cxtj6wqcm3p7fy2drmbfv6jmtabrgftfb7p3lqlkjcjfvgun7csq.py":33:35)
#loc17 = loc("/root/autodl-tmp/HuangJieCode/Big-Yellow-J.github.io/code/Python/RL-TRL/~/autodl-tmp/tmp-sore/torchinductor_root/xt/cxtj6wqcm3p7fy2drmbfv6jmtabrgftfb7p3lqlkjcjfvgun7csq.py":33:52)
#loc18 = loc("/root/autodl-tmp/HuangJieCode/Big-Yellow-J.github.io/code/Python/RL-TRL/~/autodl-tmp/tmp-sore/torchinductor_root/xt/cxtj6wqcm3p7fy2drmbfv6jmtabrgftfb7p3lqlkjcjfvgun7csq.py":34:30)
#loc19 = loc("/root/autodl-tmp/HuangJieCode/Big-Yellow-J.github.io/code/Python/RL-TRL/~/autodl-tmp/tmp-sore/torchinductor_root/xt/cxtj6wqcm3p7fy2drmbfv6jmtabrgftfb7p3lqlkjcjfvgun7csq.py":34:35)
#loc20 = loc("/root/autodl-tmp/HuangJieCode/Big-Yellow-J.github.io/code/Python/RL-TRL/~/autodl-tmp/tmp-sore/torchinductor_root/xt/cxtj6wqcm3p7fy2drmbfv6jmtabrgftfb7p3lqlkjcjfvgun7csq.py":35:21)
#loc21 = loc("/root/autodl-tmp/HuangJieCode/Big-Yellow-J.github.io/code/Python/RL-TRL/~/autodl-tmp/tmp-sore/torchinductor_root/xt/cxtj6wqcm3p7fy2drmbfv6jmtabrgftfb7p3lqlkjcjfvgun7csq.py":36:19)
#loc22 = loc("/root/autodl-tmp/HuangJieCode/Big-Yellow-J.github.io/code/Python/RL-TRL/~/autodl-tmp/tmp-sore/torchinductor_root/xt/cxtj6wqcm3p7fy2drmbfv6jmtabrgftfb7p3lqlkjcjfvgun7csq.py":41:34)
#loc23 = loc("/root/autodl-tmp/HuangJieCode/Big-Yellow-J.github.io/code/Python/RL-TRL/~/autodl-tmp/tmp-sore/torchinductor_root/xt/cxtj6wqcm3p7fy2drmbfv6jmtabrgftfb7p3lqlkjcjfvgun7csq.py":42:30)
#loc24 = loc("/root/autodl-tmp/HuangJieCode/Big-Yellow-J.github.io/code/Python/RL-TRL/~/autodl-tmp/tmp-sore/torchinductor_root/xt/cxtj6wqcm3p7fy2drmbfv6jmtabrgftfb7p3lqlkjcjfvgun7csq.py":42:25)
#loc25 = loc("/root/autodl-tmp/HuangJieCode/Big-Yellow-J.github.io/code/Python/RL-TRL/~/autodl-tmp/tmp-sore/torchinductor_root/xt/cxtj6wqcm3p7fy2drmbfv6jmtabrgftfb7p3lqlkjcjfvgun7csq.py":42:47)
#loc26 = loc("/root/autodl-tmp/HuangJieCode/Big-Yellow-J.github.io/code/Python/RL-TRL/~/autodl-tmp/tmp-sore/torchinductor_root/xt/cxtj6wqcm3p7fy2drmbfv6jmtabrgftfb7p3lqlkjcjfvgun7csq.py":42:4)
#loc30 = loc("tmp14"(#loc3))
#loc31 = loc("tmp2"(#loc5))
#loc32 = loc("xmask"(#loc6))
#loc33 = loc("xoffset"(#loc7))
#loc34 = loc("xoffset"(#loc8))
#loc35 = loc("xindex"(#loc9))
#loc36 = loc("xindex"(#loc10))
#loc37 = loc("x0"(#loc11))
#loc38 = loc("x1"(#loc12))
#loc39 = loc("tmp5"(#loc13))
#loc40 = loc("tmp9"(#loc18))
#loc41 = loc("tmp9"(#loc19))
#loc42 = loc("tmp10"(#loc20))
#loc43 = loc("tmp11"(#loc21))
#loc44 = loc("tmp16"(#loc22))
