#loc = loc("/tmp/torchinductor_root/le/clex26fdkcuctedhjm3zk2nlgq6lbe5ebbe64hppmlnn3mao4di6.py":22:0)
#loc123 = loc("in_ptr0"(#loc))
#loc124 = loc("in_ptr1"(#loc))
#loc125 = loc("in_ptr2"(#loc))
#loc126 = loc("out_ptr0"(#loc))
#loc127 = loc("xnumel"(#loc))
module {
  tt.func public @triton_(%in_ptr0: !tt.ptr<bf16> {tt.divisibility = 16 : i32} loc("in_ptr0"(#loc)), %in_ptr1: !tt.ptr<i64> {tt.divisibility = 16 : i32} loc("in_ptr1"(#loc)), %in_ptr2: !tt.ptr<bf16> {tt.divisibility = 16 : i32} loc("in_ptr2"(#loc)), %out_ptr0: !tt.ptr<bf16> {tt.divisibility = 16 : i32} loc("out_ptr0"(#loc)), %xnumel: i32 {tt.divisibility = 16 : i32} loc("xnumel"(#loc))) attributes {noinline = false} {
    %xoffset = tt.get_program_id x : i32 loc(#loc128)
    %xoffset_0 = arith.constant 1024 : i32 loc(#loc129)
    %xoffset_1 = arith.constant 1024 : i32 loc(#loc129)
    %xoffset_2 = arith.muli %xoffset, %xoffset_1 : i32 loc(#loc129)
    %xindex = tt.make_range {end = 1024 : i32, start = 0 : i32} : tensor<1024xi32> loc(#loc130)
    %xindex_3 = tt.splat %xoffset_2 : i32 -> tensor<1024xi32> loc(#loc131)
    %xindex_4 = arith.addi %xindex_3, %xindex : tensor<1024xi32> loc(#loc131)
    %xmask = tt.splat %xnumel : i32 -> tensor<1024xi32> loc(#loc132)
    %xmask_5 = arith.cmpi slt, %xindex_4, %xmask : tensor<1024xi32> loc(#loc132)
    %x0 = arith.constant 64 : i32 loc(#loc133)
    %x0_6 = arith.constant 64 : i32 loc(#loc133)
    %x0_7 = arith.constant dense<64> : tensor<1024xi32> loc(#loc133)
    %x0_8 = arith.remsi %xindex_4, %x0_7 : tensor<1024xi32> loc(#loc133)
    %x1 = arith.constant 64 : i32 loc(#loc134)
    %x1_9 = arith.constant 64 : i32 loc(#loc134)
    %x1_10 = arith.constant dense<64> : tensor<1024xi32> loc(#loc134)
    %x1_11 = arith.divsi %xindex_4, %x1_10 : tensor<1024xi32> loc(#loc134)
    %x1_12 = arith.constant 14 : i32 loc(#loc135)
    %x1_13 = arith.constant 14 : i32 loc(#loc135)
    %x1_14 = arith.constant dense<14> : tensor<1024xi32> loc(#loc135)
    %x1_15 = arith.remsi %x1_11, %x1_14 : tensor<1024xi32> loc(#loc135)
    %x2 = arith.constant 896 : i32 loc(#loc136)
    %x2_16 = arith.constant 896 : i32 loc(#loc136)
    %x2_17 = arith.constant dense<896> : tensor<1024xi32> loc(#loc136)
    %x2_18 = arith.divsi %xindex_4, %x2_17 : tensor<1024xi32> loc(#loc136)
    %tmp1 = arith.constant 0 : i64 loc(#loc137)
    %tmp1_19 = arith.constant dense<0> : tensor<1xi64> loc(#loc137)
    %tmp2 = arith.extsi %x0_8 : tensor<1024xi32> to tensor<1024xi64> loc(#loc138)
    %tmp2_20 = arith.constant dense<0> : tensor<1024xi64> loc(#loc138)
    %tmp2_21 = arith.cmpi sge, %tmp2, %tmp2_20 : tensor<1024xi64> loc(#loc138)
    %tmp3 = arith.constant 32 : i64 loc(#loc139)
    %tmp3_22 = arith.constant dense<32> : tensor<1xi64> loc(#loc139)
    %tmp4 = arith.extsi %x0_8 : tensor<1024xi32> to tensor<1024xi64> loc(#loc140)
    %tmp4_23 = arith.constant dense<32> : tensor<1024xi64> loc(#loc140)
    %tmp4_24 = arith.cmpi slt, %tmp4, %tmp4_23 : tensor<1024xi64> loc(#loc140)
    %tmp5 = arith.constant 64 : i32 loc(#loc141)
    %tmp5_25 = arith.constant 64 : i32 loc(#loc141)
    %tmp5_26 = arith.constant dense<64> : tensor<1024xi32> loc(#loc141)
    %tmp5_27 = arith.muli %tmp5_26, %x1_15 : tensor<1024xi32> loc(#loc141)
    %tmp5_28 = arith.constant 1152 : i32 loc(#loc142)
    %tmp5_29 = arith.constant 1152 : i32 loc(#loc142)
    %tmp5_30 = arith.constant dense<1152> : tensor<1024xi32> loc(#loc142)
    %tmp5_31 = arith.muli %tmp5_30, %x2_18 : tensor<1024xi32> loc(#loc142)
    %tmp5_32 = arith.addi %tmp5_27, %tmp5_31 : tensor<1024xi32> loc(#loc143)
    %tmp5_33 = arith.addi %tmp5_32, %x0_8 : tensor<1024xi32> loc(#loc144)
    %tmp5_34 = tt.splat %in_ptr0 : !tt.ptr<bf16> -> tensor<1024x!tt.ptr<bf16>> loc(#loc145)
    %tmp5_35 = tt.addptr %tmp5_34, %tmp5_33 : tensor<1024x!tt.ptr<bf16>>, tensor<1024xi32> loc(#loc145)
    %tmp5_36 = arith.andi %tmp4_24, %xmask_5 : tensor<1024xi1> loc(#loc146)
    %tmp5_37 = arith.constant 0.000000e+00 : f32 loc(#loc147)
    %tmp5_38 = arith.constant dense<0.000000e+00> : tensor<1024xf32> loc(#loc147)
    %tmp5_39 = arith.truncf %tmp5_38 : tensor<1024xf32> to tensor<1024xbf16> loc(#loc147)
    %tmp5_40 = tt.load %tmp5_35, %tmp5_36, %tmp5_39 evictionPolicy = evict_last : tensor<1024x!tt.ptr<bf16>> loc(#loc147)
    %tmp5_41 = arith.extf %tmp5_40 : tensor<1024xbf16> to tensor<1024xf32> loc(#loc148)
    %tmp6 = tt.splat %in_ptr1 : !tt.ptr<i64> -> tensor<1024x!tt.ptr<i64>> loc(#loc149)
    %tmp6_42 = tt.addptr %tmp6, %x2_18 : tensor<1024x!tt.ptr<i64>>, tensor<1024xi32> loc(#loc149)
    %tmp6_43 = arith.andi %tmp4_24, %xmask_5 : tensor<1024xi1> loc(#loc150)
    %tmp6_44 = arith.constant 0.000000e+00 : f32 loc(#loc151)
    %tmp6_45 = arith.constant dense<0.000000e+00> : tensor<1024xf32> loc(#loc151)
    %tmp6_46 = arith.fptosi %tmp6_45 : tensor<1024xf32> to tensor<1024xi64> loc(#loc151)
    %tmp6_47 = tt.load %tmp6_42, %tmp6_43, %tmp6_46 evictionPolicy = evict_last : tensor<1024x!tt.ptr<i64>> loc(#loc151)
    %tmp7 = arith.constant 32768 : i32 loc(#loc152)
    %tmp7_48 = arith.constant dense<32768> : tensor<1024xi32> loc(#loc152)
    %tmp8 = arith.extsi %tmp7_48 : tensor<1024xi32> to tensor<1024xi64> loc(#loc153)
    %tmp8_49 = arith.addi %tmp6_47, %tmp8 : tensor<1024xi64> loc(#loc153)
    %tmp9 = arith.constant 0 : i32 loc(#loc154)
    %tmp9_50 = arith.extsi %tmp9 : i32 to i64 loc(#loc154)
    %tmp9_51 = tt.splat %tmp9_50 : i64 -> tensor<1024xi64> loc(#loc154)
    %tmp9_52 = arith.cmpi slt, %tmp6_47, %tmp9_51 : tensor<1024xi64> loc(#loc154)
    %tmp10 = arith.select %tmp9_52, %tmp8_49, %tmp6_47 : tensor<1024xi1>, tensor<1024xi64> loc(#loc155)
    %c0_i32 = arith.constant 0 : i32 loc(#loc29)
    %0 = arith.extsi %c0_i32 : i32 to i64 loc(#loc29)
    %1 = tt.splat %0 : i64 -> tensor<1024xi64> loc(#loc29)
    %2 = arith.cmpi sle, %1, %tmp10 : tensor<1024xi64> loc(#loc29)
    %c32768_i32 = arith.constant 32768 : i32 loc(#loc30)
    %3 = arith.extsi %c32768_i32 : i32 to i64 loc(#loc30)
    %4 = tt.splat %3 : i64 -> tensor<1024xi64> loc(#loc30)
    %5 = arith.cmpi slt, %tmp10, %4 : tensor<1024xi64> loc(#loc30)
    %6 = arith.andi %2, %5 : tensor<1024xi1> loc(#loc31)
    %7 = arith.andi %tmp4_24, %xmask_5 : tensor<1024xi1> loc(#loc32)
    %true = arith.constant true loc(#loc33)
    %cst = arith.constant dense<true> : tensor<1024xi1> loc(#loc33)
    %8 = arith.xori %7, %cst : tensor<1024xi1> loc(#loc33)
    %9 = arith.ori %6, %8 : tensor<1024xi1> loc(#loc34)
    tt.assert %9, "index out of bounds: 0 <= tl.broadcast_to(tmp10, [XBLOCK]) < 32768" : tensor<1024xi1> loc(#loc35)
    %tmp12 = arith.constant 64 : i32 loc(#loc156)
    %tmp12_53 = arith.constant 64 : i64 loc(#loc156)
    %tmp12_54 = arith.constant dense<64> : tensor<1024xi64> loc(#loc156)
    %tmp12_55 = arith.muli %tmp12_54, %tmp10 : tensor<1024xi64> loc(#loc156)
    %tmp12_56 = arith.extsi %x0_8 : tensor<1024xi32> to tensor<1024xi64> loc(#loc157)
    %tmp12_57 = arith.addi %tmp12_55, %tmp12_56 : tensor<1024xi64> loc(#loc157)
    %tmp12_58 = tt.splat %in_ptr2 : !tt.ptr<bf16> -> tensor<1024x!tt.ptr<bf16>> loc(#loc158)
    %tmp12_59 = tt.addptr %tmp12_58, %tmp12_57 : tensor<1024x!tt.ptr<bf16>>, tensor<1024xi64> loc(#loc158)
    %tmp12_60 = arith.andi %tmp4_24, %xmask_5 : tensor<1024xi1> loc(#loc159)
    %tmp12_61 = arith.constant 0.000000e+00 : f32 loc(#loc160)
    %tmp12_62 = arith.constant dense<0.000000e+00> : tensor<1024xf32> loc(#loc160)
    %tmp12_63 = arith.truncf %tmp12_62 : tensor<1024xf32> to tensor<1024xbf16> loc(#loc160)
    %tmp12_64 = tt.load %tmp12_59, %tmp12_60, %tmp12_63 evictionPolicy = evict_last : tensor<1024x!tt.ptr<bf16>> loc(#loc160)
    %tmp12_65 = arith.extf %tmp12_64 : tensor<1024xbf16> to tensor<1024xf32> loc(#loc161)
    %tmp13 = arith.mulf %tmp5_41, %tmp12_65 : tensor<1024xf32> loc(#loc162)
    %tmp14 = arith.constant 64 : i32 loc(#loc163)
    %tmp14_66 = arith.constant 64 : i32 loc(#loc163)
    %tmp14_67 = arith.constant dense<64> : tensor<1024xi32> loc(#loc163)
    %tmp14_68 = arith.muli %tmp14_67, %x1_15 : tensor<1024xi32> loc(#loc163)
    %tmp14_69 = arith.constant 32 : i32 loc(#loc164)
    %tmp14_70 = arith.constant 32 : i32 loc(#loc164)
    %tmp14_71 = arith.constant dense<32> : tensor<1024xi32> loc(#loc164)
    %tmp14_72 = arith.addi %tmp14_71, %tmp14_68 : tensor<1024xi32> loc(#loc164)
    %tmp14_73 = arith.constant 1152 : i32 loc(#loc165)
    %tmp14_74 = arith.constant 1152 : i32 loc(#loc165)
    %tmp14_75 = arith.constant dense<1152> : tensor<1024xi32> loc(#loc165)
    %tmp14_76 = arith.muli %tmp14_75, %x2_18 : tensor<1024xi32> loc(#loc165)
    %tmp14_77 = arith.addi %tmp14_72, %tmp14_76 : tensor<1024xi32> loc(#loc166)
    %tmp14_78 = arith.addi %tmp14_77, %x0_8 : tensor<1024xi32> loc(#loc167)
    %tmp14_79 = tt.splat %in_ptr0 : !tt.ptr<bf16> -> tensor<1024x!tt.ptr<bf16>> loc(#loc168)
    %tmp14_80 = tt.addptr %tmp14_79, %tmp14_78 : tensor<1024x!tt.ptr<bf16>>, tensor<1024xi32> loc(#loc168)
    %tmp14_81 = arith.andi %tmp4_24, %xmask_5 : tensor<1024xi1> loc(#loc169)
    %tmp14_82 = arith.constant 0.000000e+00 : f32 loc(#loc170)
    %tmp14_83 = arith.constant dense<0.000000e+00> : tensor<1024xf32> loc(#loc170)
    %tmp14_84 = arith.truncf %tmp14_83 : tensor<1024xf32> to tensor<1024xbf16> loc(#loc170)
    %tmp14_85 = tt.load %tmp14_80, %tmp14_81, %tmp14_84 evictionPolicy = evict_last : tensor<1024x!tt.ptr<bf16>> loc(#loc170)
    %tmp14_86 = arith.extf %tmp14_85 : tensor<1024xbf16> to tensor<1024xf32> loc(#loc171)
    %tmp15 = arith.constant 64 : i32 loc(#loc172)
    %tmp15_87 = arith.constant 64 : i64 loc(#loc172)
    %tmp15_88 = arith.constant dense<64> : tensor<1024xi64> loc(#loc172)
    %tmp15_89 = arith.muli %tmp15_88, %tmp10 : tensor<1024xi64> loc(#loc172)
    %tmp15_90 = arith.constant 32 : i32 loc(#loc173)
    %tmp15_91 = arith.constant 32 : i64 loc(#loc173)
    %tmp15_92 = arith.constant dense<32> : tensor<1024xi64> loc(#loc173)
    %tmp15_93 = arith.addi %tmp15_92, %tmp15_89 : tensor<1024xi64> loc(#loc173)
    %tmp15_94 = arith.extsi %x0_8 : tensor<1024xi32> to tensor<1024xi64> loc(#loc174)
    %tmp15_95 = arith.addi %tmp15_93, %tmp15_94 : tensor<1024xi64> loc(#loc174)
    %tmp15_96 = tt.splat %in_ptr2 : !tt.ptr<bf16> -> tensor<1024x!tt.ptr<bf16>> loc(#loc175)
    %tmp15_97 = tt.addptr %tmp15_96, %tmp15_95 : tensor<1024x!tt.ptr<bf16>>, tensor<1024xi64> loc(#loc175)
    %tmp15_98 = arith.andi %tmp4_24, %xmask_5 : tensor<1024xi1> loc(#loc176)
    %tmp15_99 = arith.constant 0.000000e+00 : f32 loc(#loc177)
    %tmp15_100 = arith.constant dense<0.000000e+00> : tensor<1024xf32> loc(#loc177)
    %tmp15_101 = arith.truncf %tmp15_100 : tensor<1024xf32> to tensor<1024xbf16> loc(#loc177)
    %tmp15_102 = tt.load %tmp15_97, %tmp15_98, %tmp15_101 evictionPolicy = evict_last : tensor<1024x!tt.ptr<bf16>> loc(#loc177)
    %tmp15_103 = arith.extf %tmp15_102 : tensor<1024xbf16> to tensor<1024xf32> loc(#loc178)
    %tmp16 = arith.mulf %tmp14_86, %tmp15_103 : tensor<1024xf32> loc(#loc179)
    %tmp17 = arith.subf %tmp13, %tmp16 : tensor<1024xf32> loc(#loc180)
    %tmp18 = arith.constant 0.000000e+00 : f32 loc(#loc181)
    %tmp18_104 = arith.constant dense<0.000000e+00> : tensor<1024xf32> loc(#loc181)
    %tmp19 = arith.select %tmp4_24, %tmp17, %tmp18_104 : tensor<1024xi1>, tensor<1024xf32> loc(#loc182)
    %tmp20 = arith.extsi %x0_8 : tensor<1024xi32> to tensor<1024xi64> loc(#loc183)
    %tmp20_105 = arith.constant dense<32> : tensor<1024xi64> loc(#loc183)
    %tmp20_106 = arith.cmpi sge, %tmp20, %tmp20_105 : tensor<1024xi64> loc(#loc183)
    %tmp21 = arith.constant 64 : i64 loc(#loc184)
    %tmp21_107 = arith.constant dense<64> : tensor<1xi64> loc(#loc184)
    %tmp22 = arith.extsi %x0_8 : tensor<1024xi32> to tensor<1024xi64> loc(#loc185)
    %tmp22_108 = arith.constant dense<64> : tensor<1024xi64> loc(#loc185)
    %tmp22_109 = arith.cmpi slt, %tmp22, %tmp22_108 : tensor<1024xi64> loc(#loc185)
    %tmp23 = arith.constant 64 : i32 loc(#loc186)
    %tmp23_110 = arith.constant 64 : i32 loc(#loc186)
    %tmp23_111 = arith.constant dense<64> : tensor<1024xi32> loc(#loc186)
    %tmp23_112 = arith.muli %tmp23_111, %x1_15 : tensor<1024xi32> loc(#loc186)
    %tmp23_113 = arith.constant 32 : i32 loc(#loc187)
    %tmp23_114 = arith.constant 32 : i32 loc(#loc187)
    %tmp23_115 = arith.constant dense<32> : tensor<1024xi32> loc(#loc187)
    %tmp23_116 = arith.addi %tmp23_115, %tmp23_112 : tensor<1024xi32> loc(#loc187)
    %tmp23_117 = arith.constant 1152 : i32 loc(#loc188)
    %tmp23_118 = arith.constant 1152 : i32 loc(#loc188)
    %tmp23_119 = arith.constant dense<1152> : tensor<1024xi32> loc(#loc188)
    %tmp23_120 = arith.muli %tmp23_119, %x2_18 : tensor<1024xi32> loc(#loc188)
    %tmp23_121 = arith.addi %tmp23_116, %tmp23_120 : tensor<1024xi32> loc(#loc189)
    %tmp23_122 = arith.constant -32 : i32 loc(#loc190)
    %tmp23_123 = arith.constant -32 : i32 loc(#loc190)
    %tmp23_124 = arith.constant dense<-32> : tensor<1024xi32> loc(#loc190)
    %tmp23_125 = arith.addi %tmp23_124, %x0_8 : tensor<1024xi32> loc(#loc190)
    %tmp23_126 = arith.addi %tmp23_121, %tmp23_125 : tensor<1024xi32> loc(#loc191)
    %tmp23_127 = tt.splat %in_ptr0 : !tt.ptr<bf16> -> tensor<1024x!tt.ptr<bf16>> loc(#loc192)
    %tmp23_128 = tt.addptr %tmp23_127, %tmp23_126 : tensor<1024x!tt.ptr<bf16>>, tensor<1024xi32> loc(#loc192)
    %tmp23_129 = arith.andi %tmp20_106, %xmask_5 : tensor<1024xi1> loc(#loc193)
    %tmp23_130 = arith.constant 0.000000e+00 : f32 loc(#loc194)
    %tmp23_131 = arith.constant dense<0.000000e+00> : tensor<1024xf32> loc(#loc194)
    %tmp23_132 = arith.truncf %tmp23_131 : tensor<1024xf32> to tensor<1024xbf16> loc(#loc194)
    %tmp23_133 = tt.load %tmp23_128, %tmp23_129, %tmp23_132 evictionPolicy = evict_last : tensor<1024x!tt.ptr<bf16>> loc(#loc194)
    %tmp23_134 = arith.extf %tmp23_133 : tensor<1024xbf16> to tensor<1024xf32> loc(#loc195)
    %tmp24 = tt.splat %in_ptr1 : !tt.ptr<i64> -> tensor<1024x!tt.ptr<i64>> loc(#loc196)
    %tmp24_135 = tt.addptr %tmp24, %x2_18 : tensor<1024x!tt.ptr<i64>>, tensor<1024xi32> loc(#loc196)
    %tmp24_136 = arith.andi %tmp20_106, %xmask_5 : tensor<1024xi1> loc(#loc197)
    %tmp24_137 = arith.constant 0.000000e+00 : f32 loc(#loc198)
    %tmp24_138 = arith.constant dense<0.000000e+00> : tensor<1024xf32> loc(#loc198)
    %tmp24_139 = arith.fptosi %tmp24_138 : tensor<1024xf32> to tensor<1024xi64> loc(#loc198)
    %tmp24_140 = tt.load %tmp24_135, %tmp24_136, %tmp24_139 evictionPolicy = evict_last : tensor<1024x!tt.ptr<i64>> loc(#loc198)
    %tmp25 = arith.constant 32768 : i32 loc(#loc199)
    %tmp25_141 = arith.constant dense<32768> : tensor<1024xi32> loc(#loc199)
    %tmp26 = arith.extsi %tmp25_141 : tensor<1024xi32> to tensor<1024xi64> loc(#loc200)
    %tmp26_142 = arith.addi %tmp24_140, %tmp26 : tensor<1024xi64> loc(#loc200)
    %tmp27 = arith.constant 0 : i32 loc(#loc201)
    %tmp27_143 = arith.extsi %tmp27 : i32 to i64 loc(#loc201)
    %tmp27_144 = tt.splat %tmp27_143 : i64 -> tensor<1024xi64> loc(#loc201)
    %tmp27_145 = arith.cmpi slt, %tmp24_140, %tmp27_144 : tensor<1024xi64> loc(#loc201)
    %tmp28 = arith.select %tmp27_145, %tmp26_142, %tmp24_140 : tensor<1024xi1>, tensor<1024xi64> loc(#loc202)
    %c0_i32_146 = arith.constant 0 : i32 loc(#loc83)
    %10 = arith.extsi %c0_i32_146 : i32 to i64 loc(#loc83)
    %11 = tt.splat %10 : i64 -> tensor<1024xi64> loc(#loc83)
    %12 = arith.cmpi sle, %11, %tmp28 : tensor<1024xi64> loc(#loc83)
    %c32768_i32_147 = arith.constant 32768 : i32 loc(#loc84)
    %13 = arith.extsi %c32768_i32_147 : i32 to i64 loc(#loc84)
    %14 = tt.splat %13 : i64 -> tensor<1024xi64> loc(#loc84)
    %15 = arith.cmpi slt, %tmp28, %14 : tensor<1024xi64> loc(#loc84)
    %16 = arith.andi %12, %15 : tensor<1024xi1> loc(#loc85)
    %17 = arith.andi %tmp20_106, %xmask_5 : tensor<1024xi1> loc(#loc86)
    %true_148 = arith.constant true loc(#loc87)
    %cst_149 = arith.constant dense<true> : tensor<1024xi1> loc(#loc87)
    %18 = arith.xori %17, %cst_149 : tensor<1024xi1> loc(#loc87)
    %19 = arith.ori %16, %18 : tensor<1024xi1> loc(#loc88)
    tt.assert %19, "index out of bounds: 0 <= tl.broadcast_to(tmp28, [XBLOCK]) < 32768" : tensor<1024xi1> loc(#loc89)
    %tmp30 = arith.constant 64 : i32 loc(#loc203)
    %tmp30_150 = arith.constant 64 : i64 loc(#loc203)
    %tmp30_151 = arith.constant dense<64> : tensor<1024xi64> loc(#loc203)
    %tmp30_152 = arith.muli %tmp30_151, %tmp28 : tensor<1024xi64> loc(#loc203)
    %tmp30_153 = arith.constant -32 : i32 loc(#loc204)
    %tmp30_154 = arith.constant -32 : i32 loc(#loc204)
    %tmp30_155 = arith.constant dense<-32> : tensor<1024xi32> loc(#loc204)
    %tmp30_156 = arith.addi %tmp30_155, %x0_8 : tensor<1024xi32> loc(#loc204)
    %tmp30_157 = arith.extsi %tmp30_156 : tensor<1024xi32> to tensor<1024xi64> loc(#loc205)
    %tmp30_158 = arith.addi %tmp30_152, %tmp30_157 : tensor<1024xi64> loc(#loc205)
    %tmp30_159 = tt.splat %in_ptr2 : !tt.ptr<bf16> -> tensor<1024x!tt.ptr<bf16>> loc(#loc206)
    %tmp30_160 = tt.addptr %tmp30_159, %tmp30_158 : tensor<1024x!tt.ptr<bf16>>, tensor<1024xi64> loc(#loc206)
    %tmp30_161 = arith.andi %tmp20_106, %xmask_5 : tensor<1024xi1> loc(#loc207)
    %tmp30_162 = arith.constant 0.000000e+00 : f32 loc(#loc208)
    %tmp30_163 = arith.constant dense<0.000000e+00> : tensor<1024xf32> loc(#loc208)
    %tmp30_164 = arith.truncf %tmp30_163 : tensor<1024xf32> to tensor<1024xbf16> loc(#loc208)
    %tmp30_165 = tt.load %tmp30_160, %tmp30_161, %tmp30_164 evictionPolicy = evict_last : tensor<1024x!tt.ptr<bf16>> loc(#loc208)
    %tmp30_166 = arith.extf %tmp30_165 : tensor<1024xbf16> to tensor<1024xf32> loc(#loc209)
    %tmp31 = arith.mulf %tmp23_134, %tmp30_166 : tensor<1024xf32> loc(#loc210)
    %tmp32 = arith.constant 64 : i32 loc(#loc211)
    %tmp32_167 = arith.constant 64 : i32 loc(#loc211)
    %tmp32_168 = arith.constant dense<64> : tensor<1024xi32> loc(#loc211)
    %tmp32_169 = arith.muli %tmp32_168, %x1_15 : tensor<1024xi32> loc(#loc211)
    %tmp32_170 = arith.constant 1152 : i32 loc(#loc212)
    %tmp32_171 = arith.constant 1152 : i32 loc(#loc212)
    %tmp32_172 = arith.constant dense<1152> : tensor<1024xi32> loc(#loc212)
    %tmp32_173 = arith.muli %tmp32_172, %x2_18 : tensor<1024xi32> loc(#loc212)
    %tmp32_174 = arith.addi %tmp32_169, %tmp32_173 : tensor<1024xi32> loc(#loc213)
    %tmp32_175 = arith.constant -32 : i32 loc(#loc214)
    %tmp32_176 = arith.constant -32 : i32 loc(#loc214)
    %tmp32_177 = arith.constant dense<-32> : tensor<1024xi32> loc(#loc214)
    %tmp32_178 = arith.addi %tmp32_177, %x0_8 : tensor<1024xi32> loc(#loc214)
    %tmp32_179 = arith.addi %tmp32_174, %tmp32_178 : tensor<1024xi32> loc(#loc215)
    %tmp32_180 = tt.splat %in_ptr0 : !tt.ptr<bf16> -> tensor<1024x!tt.ptr<bf16>> loc(#loc216)
    %tmp32_181 = tt.addptr %tmp32_180, %tmp32_179 : tensor<1024x!tt.ptr<bf16>>, tensor<1024xi32> loc(#loc216)
    %tmp32_182 = arith.andi %tmp20_106, %xmask_5 : tensor<1024xi1> loc(#loc217)
    %tmp32_183 = arith.constant 0.000000e+00 : f32 loc(#loc218)
    %tmp32_184 = arith.constant dense<0.000000e+00> : tensor<1024xf32> loc(#loc218)
    %tmp32_185 = arith.truncf %tmp32_184 : tensor<1024xf32> to tensor<1024xbf16> loc(#loc218)
    %tmp32_186 = tt.load %tmp32_181, %tmp32_182, %tmp32_185 evictionPolicy = evict_last : tensor<1024x!tt.ptr<bf16>> loc(#loc218)
    %tmp32_187 = arith.extf %tmp32_186 : tensor<1024xbf16> to tensor<1024xf32> loc(#loc219)
    %tmp33 = arith.constant 64 : i32 loc(#loc220)
    %tmp33_188 = arith.constant 64 : i64 loc(#loc220)
    %tmp33_189 = arith.constant dense<64> : tensor<1024xi64> loc(#loc220)
    %tmp33_190 = arith.muli %tmp33_189, %tmp28 : tensor<1024xi64> loc(#loc220)
    %tmp33_191 = arith.constant 32 : i32 loc(#loc221)
    %tmp33_192 = arith.constant 32 : i64 loc(#loc221)
    %tmp33_193 = arith.constant dense<32> : tensor<1024xi64> loc(#loc221)
    %tmp33_194 = arith.addi %tmp33_193, %tmp33_190 : tensor<1024xi64> loc(#loc221)
    %tmp33_195 = arith.constant -32 : i32 loc(#loc222)
    %tmp33_196 = arith.constant -32 : i32 loc(#loc222)
    %tmp33_197 = arith.constant dense<-32> : tensor<1024xi32> loc(#loc222)
    %tmp33_198 = arith.addi %tmp33_197, %x0_8 : tensor<1024xi32> loc(#loc222)
    %tmp33_199 = arith.extsi %tmp33_198 : tensor<1024xi32> to tensor<1024xi64> loc(#loc223)
    %tmp33_200 = arith.addi %tmp33_194, %tmp33_199 : tensor<1024xi64> loc(#loc223)
    %tmp33_201 = tt.splat %in_ptr2 : !tt.ptr<bf16> -> tensor<1024x!tt.ptr<bf16>> loc(#loc224)
    %tmp33_202 = tt.addptr %tmp33_201, %tmp33_200 : tensor<1024x!tt.ptr<bf16>>, tensor<1024xi64> loc(#loc224)
    %tmp33_203 = arith.andi %tmp20_106, %xmask_5 : tensor<1024xi1> loc(#loc225)
    %tmp33_204 = arith.constant 0.000000e+00 : f32 loc(#loc226)
    %tmp33_205 = arith.constant dense<0.000000e+00> : tensor<1024xf32> loc(#loc226)
    %tmp33_206 = arith.truncf %tmp33_205 : tensor<1024xf32> to tensor<1024xbf16> loc(#loc226)
    %tmp33_207 = tt.load %tmp33_202, %tmp33_203, %tmp33_206 evictionPolicy = evict_last : tensor<1024x!tt.ptr<bf16>> loc(#loc226)
    %tmp33_208 = arith.extf %tmp33_207 : tensor<1024xbf16> to tensor<1024xf32> loc(#loc227)
    %tmp34 = arith.mulf %tmp32_187, %tmp33_208 : tensor<1024xf32> loc(#loc228)
    %tmp35 = arith.addf %tmp31, %tmp34 : tensor<1024xf32> loc(#loc229)
    %tmp36 = arith.constant 0.000000e+00 : f32 loc(#loc230)
    %tmp36_209 = arith.constant dense<0.000000e+00> : tensor<1024xf32> loc(#loc230)
    %tmp37 = arith.select %tmp20_106, %tmp35, %tmp36_209 : tensor<1024xi1>, tensor<1024xf32> loc(#loc231)
    %tmp38 = arith.select %tmp4_24, %tmp19, %tmp37 : tensor<1024xi1>, tensor<1024xf32> loc(#loc232)
    %20 = tt.splat %out_ptr0 : !tt.ptr<bf16> -> tensor<1024x!tt.ptr<bf16>> loc(#loc120)
    %21 = tt.addptr %20, %xindex_4 : tensor<1024x!tt.ptr<bf16>>, tensor<1024xi32> loc(#loc120)
    %22 = arith.truncf %tmp38 : tensor<1024xf32> to tensor<1024xbf16> loc(#loc121)
    tt.store %21, %22, %xmask_5 : tensor<1024x!tt.ptr<bf16>> loc(#loc121)
    tt.return loc(#loc122)
  } loc(#loc)
} loc(#loc)
#loc1 = loc("/tmp/torchinductor_root/le/clex26fdkcuctedhjm3zk2nlgq6lbe5ebbe64hppmlnn3mao4di6.py":23:28)
#loc2 = loc("/tmp/torchinductor_root/le/clex26fdkcuctedhjm3zk2nlgq6lbe5ebbe64hppmlnn3mao4di6.py":23:33)
#loc3 = loc("/tmp/torchinductor_root/le/clex26fdkcuctedhjm3zk2nlgq6lbe5ebbe64hppmlnn3mao4di6.py":24:36)
#loc4 = loc("/tmp/torchinductor_root/le/clex26fdkcuctedhjm3zk2nlgq6lbe5ebbe64hppmlnn3mao4di6.py":24:23)
#loc5 = loc("/tmp/torchinductor_root/le/clex26fdkcuctedhjm3zk2nlgq6lbe5ebbe64hppmlnn3mao4di6.py":25:21)
#loc6 = loc("/tmp/torchinductor_root/le/clex26fdkcuctedhjm3zk2nlgq6lbe5ebbe64hppmlnn3mao4di6.py":26:19)
#loc7 = loc("/tmp/torchinductor_root/le/clex26fdkcuctedhjm3zk2nlgq6lbe5ebbe64hppmlnn3mao4di6.py":27:21)
#loc8 = loc("/tmp/torchinductor_root/le/clex26fdkcuctedhjm3zk2nlgq6lbe5ebbe64hppmlnn3mao4di6.py":27:27)
#loc9 = loc("/tmp/torchinductor_root/le/clex26fdkcuctedhjm3zk2nlgq6lbe5ebbe64hppmlnn3mao4di6.py":28:19)
#loc10 = loc("/tmp/torchinductor_root/le/clex26fdkcuctedhjm3zk2nlgq6lbe5ebbe64hppmlnn3mao4di6.py":31:27)
#loc11 = loc("/tmp/torchinductor_root/le/clex26fdkcuctedhjm3zk2nlgq6lbe5ebbe64hppmlnn3mao4di6.py":32:19)
#loc12 = loc("/tmp/torchinductor_root/le/clex26fdkcuctedhjm3zk2nlgq6lbe5ebbe64hppmlnn3mao4di6.py":33:28)
#loc13 = loc("/tmp/torchinductor_root/le/clex26fdkcuctedhjm3zk2nlgq6lbe5ebbe64hppmlnn3mao4di6.py":34:18)
#loc14 = loc("/tmp/torchinductor_root/le/clex26fdkcuctedhjm3zk2nlgq6lbe5ebbe64hppmlnn3mao4di6.py":35:33)
#loc15 = loc("/tmp/torchinductor_root/le/clex26fdkcuctedhjm3zk2nlgq6lbe5ebbe64hppmlnn3mao4di6.py":35:43)
#loc16 = loc("/tmp/torchinductor_root/le/clex26fdkcuctedhjm3zk2nlgq6lbe5ebbe64hppmlnn3mao4di6.py":35:38)
#loc17 = loc("/tmp/torchinductor_root/le/clex26fdkcuctedhjm3zk2nlgq6lbe5ebbe64hppmlnn3mao4di6.py":35:49)
#loc18 = loc("/tmp/torchinductor_root/le/clex26fdkcuctedhjm3zk2nlgq6lbe5ebbe64hppmlnn3mao4di6.py":35:30)
#loc19 = loc("/tmp/torchinductor_root/le/clex26fdkcuctedhjm3zk2nlgq6lbe5ebbe64hppmlnn3mao4di6.py":35:62)
#loc20 = loc("/tmp/torchinductor_root/le/clex26fdkcuctedhjm3zk2nlgq6lbe5ebbe64hppmlnn3mao4di6.py":35:55)
#loc21 = loc("/tmp/torchinductor_root/le/clex26fdkcuctedhjm3zk2nlgq6lbe5ebbe64hppmlnn3mao4di6.py":35:113)
#loc22 = loc("/tmp/torchinductor_root/le/clex26fdkcuctedhjm3zk2nlgq6lbe5ebbe64hppmlnn3mao4di6.py":36:30)
#loc23 = loc("/tmp/torchinductor_root/le/clex26fdkcuctedhjm3zk2nlgq6lbe5ebbe64hppmlnn3mao4di6.py":36:42)
#loc24 = loc("/tmp/torchinductor_root/le/clex26fdkcuctedhjm3zk2nlgq6lbe5ebbe64hppmlnn3mao4di6.py":36:35)
#loc25 = loc("/tmp/torchinductor_root/le/clex26fdkcuctedhjm3zk2nlgq6lbe5ebbe64hppmlnn3mao4di6.py":37:36)
#loc26 = loc("/tmp/torchinductor_root/le/clex26fdkcuctedhjm3zk2nlgq6lbe5ebbe64hppmlnn3mao4di6.py":38:18)
#loc27 = loc("/tmp/torchinductor_root/le/clex26fdkcuctedhjm3zk2nlgq6lbe5ebbe64hppmlnn3mao4di6.py":39:18)
#loc28 = loc("/tmp/torchinductor_root/le/clex26fdkcuctedhjm3zk2nlgq6lbe5ebbe64hppmlnn3mao4di6.py":40:33)
#loc29 = loc("/tmp/torchinductor_root/le/clex26fdkcuctedhjm3zk2nlgq6lbe5ebbe64hppmlnn3mao4di6.py":41:28)
#loc30 = loc("/tmp/torchinductor_root/le/clex26fdkcuctedhjm3zk2nlgq6lbe5ebbe64hppmlnn3mao4di6.py":41:100)
#loc31 = loc("/tmp/torchinductor_root/le/clex26fdkcuctedhjm3zk2nlgq6lbe5ebbe64hppmlnn3mao4di6.py":41:65)
#loc32 = loc("/tmp/torchinductor_root/le/clex26fdkcuctedhjm3zk2nlgq6lbe5ebbe64hppmlnn3mao4di6.py":41:119)
#loc33 = loc("/tmp/torchinductor_root/le/clex26fdkcuctedhjm3zk2nlgq6lbe5ebbe64hppmlnn3mao4di6.py":41:112)
#loc34 = loc("/tmp/torchinductor_root/le/clex26fdkcuctedhjm3zk2nlgq6lbe5ebbe64hppmlnn3mao4di6.py":41:110)
#loc35 = loc("/tmp/torchinductor_root/le/clex26fdkcuctedhjm3zk2nlgq6lbe5ebbe64hppmlnn3mao4di6.py":41:127)
#loc36 = loc("/tmp/torchinductor_root/le/clex26fdkcuctedhjm3zk2nlgq6lbe5ebbe64hppmlnn3mao4di6.py":42:34)
#loc37 = loc("/tmp/torchinductor_root/le/clex26fdkcuctedhjm3zk2nlgq6lbe5ebbe64hppmlnn3mao4di6.py":42:43)
#loc38 = loc("/tmp/torchinductor_root/le/clex26fdkcuctedhjm3zk2nlgq6lbe5ebbe64hppmlnn3mao4di6.py":42:31)
#loc39 = loc("/tmp/torchinductor_root/le/clex26fdkcuctedhjm3zk2nlgq6lbe5ebbe64hppmlnn3mao4di6.py":42:56)
#loc40 = loc("/tmp/torchinductor_root/le/clex26fdkcuctedhjm3zk2nlgq6lbe5ebbe64hppmlnn3mao4di6.py":42:49)
#loc41 = loc("/tmp/torchinductor_root/le/clex26fdkcuctedhjm3zk2nlgq6lbe5ebbe64hppmlnn3mao4di6.py":42:107)
#loc42 = loc("/tmp/torchinductor_root/le/clex26fdkcuctedhjm3zk2nlgq6lbe5ebbe64hppmlnn3mao4di6.py":43:19)
#loc43 = loc("/tmp/torchinductor_root/le/clex26fdkcuctedhjm3zk2nlgq6lbe5ebbe64hppmlnn3mao4di6.py":44:39)
#loc44 = loc("/tmp/torchinductor_root/le/clex26fdkcuctedhjm3zk2nlgq6lbe5ebbe64hppmlnn3mao4di6.py":44:36)
#loc45 = loc("/tmp/torchinductor_root/le/clex26fdkcuctedhjm3zk2nlgq6lbe5ebbe64hppmlnn3mao4di6.py":44:49)
#loc46 = loc("/tmp/torchinductor_root/le/clex26fdkcuctedhjm3zk2nlgq6lbe5ebbe64hppmlnn3mao4di6.py":44:44)
#loc47 = loc("/tmp/torchinductor_root/le/clex26fdkcuctedhjm3zk2nlgq6lbe5ebbe64hppmlnn3mao4di6.py":44:55)
#loc48 = loc("/tmp/torchinductor_root/le/clex26fdkcuctedhjm3zk2nlgq6lbe5ebbe64hppmlnn3mao4di6.py":44:31)
#loc49 = loc("/tmp/torchinductor_root/le/clex26fdkcuctedhjm3zk2nlgq6lbe5ebbe64hppmlnn3mao4di6.py":44:68)
#loc50 = loc("/tmp/torchinductor_root/le/clex26fdkcuctedhjm3zk2nlgq6lbe5ebbe64hppmlnn3mao4di6.py":44:61)
#loc51 = loc("/tmp/torchinductor_root/le/clex26fdkcuctedhjm3zk2nlgq6lbe5ebbe64hppmlnn3mao4di6.py":44:119)
#loc52 = loc("/tmp/torchinductor_root/le/clex26fdkcuctedhjm3zk2nlgq6lbe5ebbe64hppmlnn3mao4di6.py":45:39)
#loc53 = loc("/tmp/torchinductor_root/le/clex26fdkcuctedhjm3zk2nlgq6lbe5ebbe64hppmlnn3mao4di6.py":45:36)
#loc54 = loc("/tmp/torchinductor_root/le/clex26fdkcuctedhjm3zk2nlgq6lbe5ebbe64hppmlnn3mao4di6.py":45:48)
#loc55 = loc("/tmp/torchinductor_root/le/clex26fdkcuctedhjm3zk2nlgq6lbe5ebbe64hppmlnn3mao4di6.py":45:31)
#loc56 = loc("/tmp/torchinductor_root/le/clex26fdkcuctedhjm3zk2nlgq6lbe5ebbe64hppmlnn3mao4di6.py":45:61)
#loc57 = loc("/tmp/torchinductor_root/le/clex26fdkcuctedhjm3zk2nlgq6lbe5ebbe64hppmlnn3mao4di6.py":45:54)
#loc58 = loc("/tmp/torchinductor_root/le/clex26fdkcuctedhjm3zk2nlgq6lbe5ebbe64hppmlnn3mao4di6.py":45:112)
#loc59 = loc("/tmp/torchinductor_root/le/clex26fdkcuctedhjm3zk2nlgq6lbe5ebbe64hppmlnn3mao4di6.py":46:20)
#loc60 = loc("/tmp/torchinductor_root/le/clex26fdkcuctedhjm3zk2nlgq6lbe5ebbe64hppmlnn3mao4di6.py":47:20)
#loc61 = loc("/tmp/torchinductor_root/le/clex26fdkcuctedhjm3zk2nlgq6lbe5ebbe64hppmlnn3mao4di6.py":48:38)
#loc62 = loc("/tmp/torchinductor_root/le/clex26fdkcuctedhjm3zk2nlgq6lbe5ebbe64hppmlnn3mao4di6.py":49:34)
#loc63 = loc("/tmp/torchinductor_root/le/clex26fdkcuctedhjm3zk2nlgq6lbe5ebbe64hppmlnn3mao4di6.py":50:20)
#loc64 = loc("/tmp/torchinductor_root/le/clex26fdkcuctedhjm3zk2nlgq6lbe5ebbe64hppmlnn3mao4di6.py":51:29)
#loc65 = loc("/tmp/torchinductor_root/le/clex26fdkcuctedhjm3zk2nlgq6lbe5ebbe64hppmlnn3mao4di6.py":52:19)
#loc66 = loc("/tmp/torchinductor_root/le/clex26fdkcuctedhjm3zk2nlgq6lbe5ebbe64hppmlnn3mao4di6.py":53:39)
#loc67 = loc("/tmp/torchinductor_root/le/clex26fdkcuctedhjm3zk2nlgq6lbe5ebbe64hppmlnn3mao4di6.py":53:36)
#loc68 = loc("/tmp/torchinductor_root/le/clex26fdkcuctedhjm3zk2nlgq6lbe5ebbe64hppmlnn3mao4di6.py":53:49)
#loc69 = loc("/tmp/torchinductor_root/le/clex26fdkcuctedhjm3zk2nlgq6lbe5ebbe64hppmlnn3mao4di6.py":53:44)
#loc70 = loc("/tmp/torchinductor_root/le/clex26fdkcuctedhjm3zk2nlgq6lbe5ebbe64hppmlnn3mao4di6.py":53:63)
#loc71 = loc("/tmp/torchinductor_root/le/clex26fdkcuctedhjm3zk2nlgq6lbe5ebbe64hppmlnn3mao4di6.py":53:55)
#loc72 = loc("/tmp/torchinductor_root/le/clex26fdkcuctedhjm3zk2nlgq6lbe5ebbe64hppmlnn3mao4di6.py":53:31)
#loc73 = loc("/tmp/torchinductor_root/le/clex26fdkcuctedhjm3zk2nlgq6lbe5ebbe64hppmlnn3mao4di6.py":53:77)
#loc74 = loc("/tmp/torchinductor_root/le/clex26fdkcuctedhjm3zk2nlgq6lbe5ebbe64hppmlnn3mao4di6.py":53:69)
#loc75 = loc("/tmp/torchinductor_root/le/clex26fdkcuctedhjm3zk2nlgq6lbe5ebbe64hppmlnn3mao4di6.py":53:128)
#loc76 = loc("/tmp/torchinductor_root/le/clex26fdkcuctedhjm3zk2nlgq6lbe5ebbe64hppmlnn3mao4di6.py":54:31)
#loc77 = loc("/tmp/torchinductor_root/le/clex26fdkcuctedhjm3zk2nlgq6lbe5ebbe64hppmlnn3mao4di6.py":54:44)
#loc78 = loc("/tmp/torchinductor_root/le/clex26fdkcuctedhjm3zk2nlgq6lbe5ebbe64hppmlnn3mao4di6.py":54:36)
#loc79 = loc("/tmp/torchinductor_root/le/clex26fdkcuctedhjm3zk2nlgq6lbe5ebbe64hppmlnn3mao4di6.py":55:37)
#loc80 = loc("/tmp/torchinductor_root/le/clex26fdkcuctedhjm3zk2nlgq6lbe5ebbe64hppmlnn3mao4di6.py":56:20)
#loc81 = loc("/tmp/torchinductor_root/le/clex26fdkcuctedhjm3zk2nlgq6lbe5ebbe64hppmlnn3mao4di6.py":57:20)
#loc82 = loc("/tmp/torchinductor_root/le/clex26fdkcuctedhjm3zk2nlgq6lbe5ebbe64hppmlnn3mao4di6.py":58:35)
#loc83 = loc("/tmp/torchinductor_root/le/clex26fdkcuctedhjm3zk2nlgq6lbe5ebbe64hppmlnn3mao4di6.py":59:28)
#loc84 = loc("/tmp/torchinductor_root/le/clex26fdkcuctedhjm3zk2nlgq6lbe5ebbe64hppmlnn3mao4di6.py":59:100)
#loc85 = loc("/tmp/torchinductor_root/le/clex26fdkcuctedhjm3zk2nlgq6lbe5ebbe64hppmlnn3mao4di6.py":59:65)
#loc86 = loc("/tmp/torchinductor_root/le/clex26fdkcuctedhjm3zk2nlgq6lbe5ebbe64hppmlnn3mao4di6.py":59:120)
#loc87 = loc("/tmp/torchinductor_root/le/clex26fdkcuctedhjm3zk2nlgq6lbe5ebbe64hppmlnn3mao4di6.py":59:112)
#loc88 = loc("/tmp/torchinductor_root/le/clex26fdkcuctedhjm3zk2nlgq6lbe5ebbe64hppmlnn3mao4di6.py":59:110)
#loc89 = loc("/tmp/torchinductor_root/le/clex26fdkcuctedhjm3zk2nlgq6lbe5ebbe64hppmlnn3mao4di6.py":59:128)
#loc90 = loc("/tmp/torchinductor_root/le/clex26fdkcuctedhjm3zk2nlgq6lbe5ebbe64hppmlnn3mao4di6.py":60:34)
#loc91 = loc("/tmp/torchinductor_root/le/clex26fdkcuctedhjm3zk2nlgq6lbe5ebbe64hppmlnn3mao4di6.py":60:51)
#loc92 = loc("/tmp/torchinductor_root/le/clex26fdkcuctedhjm3zk2nlgq6lbe5ebbe64hppmlnn3mao4di6.py":60:43)
#loc93 = loc("/tmp/torchinductor_root/le/clex26fdkcuctedhjm3zk2nlgq6lbe5ebbe64hppmlnn3mao4di6.py":60:31)
#loc94 = loc("/tmp/torchinductor_root/le/clex26fdkcuctedhjm3zk2nlgq6lbe5ebbe64hppmlnn3mao4di6.py":60:65)
#loc95 = loc("/tmp/torchinductor_root/le/clex26fdkcuctedhjm3zk2nlgq6lbe5ebbe64hppmlnn3mao4di6.py":60:57)
#loc96 = loc("/tmp/torchinductor_root/le/clex26fdkcuctedhjm3zk2nlgq6lbe5ebbe64hppmlnn3mao4di6.py":60:116)
#loc97 = loc("/tmp/torchinductor_root/le/clex26fdkcuctedhjm3zk2nlgq6lbe5ebbe64hppmlnn3mao4di6.py":61:20)
#loc98 = loc("/tmp/torchinductor_root/le/clex26fdkcuctedhjm3zk2nlgq6lbe5ebbe64hppmlnn3mao4di6.py":62:34)
#loc99 = loc("/tmp/torchinductor_root/le/clex26fdkcuctedhjm3zk2nlgq6lbe5ebbe64hppmlnn3mao4di6.py":62:44)
#loc100 = loc("/tmp/torchinductor_root/le/clex26fdkcuctedhjm3zk2nlgq6lbe5ebbe64hppmlnn3mao4di6.py":62:39)
#loc101 = loc("/tmp/torchinductor_root/le/clex26fdkcuctedhjm3zk2nlgq6lbe5ebbe64hppmlnn3mao4di6.py":62:58)
#loc102 = loc("/tmp/torchinductor_root/le/clex26fdkcuctedhjm3zk2nlgq6lbe5ebbe64hppmlnn3mao4di6.py":62:50)
#loc103 = loc("/tmp/torchinductor_root/le/clex26fdkcuctedhjm3zk2nlgq6lbe5ebbe64hppmlnn3mao4di6.py":62:31)
#loc104 = loc("/tmp/torchinductor_root/le/clex26fdkcuctedhjm3zk2nlgq6lbe5ebbe64hppmlnn3mao4di6.py":62:72)
#loc105 = loc("/tmp/torchinductor_root/le/clex26fdkcuctedhjm3zk2nlgq6lbe5ebbe64hppmlnn3mao4di6.py":62:64)
#loc106 = loc("/tmp/torchinductor_root/le/clex26fdkcuctedhjm3zk2nlgq6lbe5ebbe64hppmlnn3mao4di6.py":62:123)
#loc107 = loc("/tmp/torchinductor_root/le/clex26fdkcuctedhjm3zk2nlgq6lbe5ebbe64hppmlnn3mao4di6.py":63:39)
#loc108 = loc("/tmp/torchinductor_root/le/clex26fdkcuctedhjm3zk2nlgq6lbe5ebbe64hppmlnn3mao4di6.py":63:36)
#loc109 = loc("/tmp/torchinductor_root/le/clex26fdkcuctedhjm3zk2nlgq6lbe5ebbe64hppmlnn3mao4di6.py":63:56)
#loc110 = loc("/tmp/torchinductor_root/le/clex26fdkcuctedhjm3zk2nlgq6lbe5ebbe64hppmlnn3mao4di6.py":63:48)
#loc111 = loc("/tmp/torchinductor_root/le/clex26fdkcuctedhjm3zk2nlgq6lbe5ebbe64hppmlnn3mao4di6.py":63:31)
#loc112 = loc("/tmp/torchinductor_root/le/clex26fdkcuctedhjm3zk2nlgq6lbe5ebbe64hppmlnn3mao4di6.py":63:70)
#loc113 = loc("/tmp/torchinductor_root/le/clex26fdkcuctedhjm3zk2nlgq6lbe5ebbe64hppmlnn3mao4di6.py":63:62)
#loc114 = loc("/tmp/torchinductor_root/le/clex26fdkcuctedhjm3zk2nlgq6lbe5ebbe64hppmlnn3mao4di6.py":63:121)
#loc115 = loc("/tmp/torchinductor_root/le/clex26fdkcuctedhjm3zk2nlgq6lbe5ebbe64hppmlnn3mao4di6.py":64:20)
#loc116 = loc("/tmp/torchinductor_root/le/clex26fdkcuctedhjm3zk2nlgq6lbe5ebbe64hppmlnn3mao4di6.py":65:20)
#loc117 = loc("/tmp/torchinductor_root/le/clex26fdkcuctedhjm3zk2nlgq6lbe5ebbe64hppmlnn3mao4di6.py":66:38)
#loc118 = loc("/tmp/torchinductor_root/le/clex26fdkcuctedhjm3zk2nlgq6lbe5ebbe64hppmlnn3mao4di6.py":67:35)
#loc119 = loc("/tmp/torchinductor_root/le/clex26fdkcuctedhjm3zk2nlgq6lbe5ebbe64hppmlnn3mao4di6.py":68:34)
#loc120 = loc("/tmp/torchinductor_root/le/clex26fdkcuctedhjm3zk2nlgq6lbe5ebbe64hppmlnn3mao4di6.py":69:25)
#loc121 = loc("/tmp/torchinductor_root/le/clex26fdkcuctedhjm3zk2nlgq6lbe5ebbe64hppmlnn3mao4di6.py":69:37)
#loc122 = loc("/tmp/torchinductor_root/le/clex26fdkcuctedhjm3zk2nlgq6lbe5ebbe64hppmlnn3mao4di6.py":69:4)
#loc128 = loc("xoffset"(#loc1))
#loc129 = loc("xoffset"(#loc2))
#loc130 = loc("xindex"(#loc3))
#loc131 = loc("xindex"(#loc4))
#loc132 = loc("xmask"(#loc5))
#loc133 = loc("x0"(#loc6))
#loc134 = loc("x1"(#loc7))
#loc135 = loc("x1"(#loc8))
#loc136 = loc("x2"(#loc9))
#loc137 = loc("tmp1"(#loc10))
#loc138 = loc("tmp2"(#loc11))
#loc139 = loc("tmp3"(#loc12))
#loc140 = loc("tmp4"(#loc13))
#loc141 = loc("tmp5"(#loc14))
#loc142 = loc("tmp5"(#loc15))
#loc143 = loc("tmp5"(#loc16))
#loc144 = loc("tmp5"(#loc17))
#loc145 = loc("tmp5"(#loc18))
#loc146 = loc("tmp5"(#loc19))
#loc147 = loc("tmp5"(#loc20))
#loc148 = loc("tmp5"(#loc21))
#loc149 = loc("tmp6"(#loc22))
#loc150 = loc("tmp6"(#loc23))
#loc151 = loc("tmp6"(#loc24))
#loc152 = loc("tmp7"(#loc25))
#loc153 = loc("tmp8"(#loc26))
#loc154 = loc("tmp9"(#loc27))
#loc155 = loc("tmp10"(#loc28))
#loc156 = loc("tmp12"(#loc36))
#loc157 = loc("tmp12"(#loc37))
#loc158 = loc("tmp12"(#loc38))
#loc159 = loc("tmp12"(#loc39))
#loc160 = loc("tmp12"(#loc40))
#loc161 = loc("tmp12"(#loc41))
#loc162 = loc("tmp13"(#loc42))
#loc163 = loc("tmp14"(#loc43))
#loc164 = loc("tmp14"(#loc44))
#loc165 = loc("tmp14"(#loc45))
#loc166 = loc("tmp14"(#loc46))
#loc167 = loc("tmp14"(#loc47))
#loc168 = loc("tmp14"(#loc48))
#loc169 = loc("tmp14"(#loc49))
#loc170 = loc("tmp14"(#loc50))
#loc171 = loc("tmp14"(#loc51))
#loc172 = loc("tmp15"(#loc52))
#loc173 = loc("tmp15"(#loc53))
#loc174 = loc("tmp15"(#loc54))
#loc175 = loc("tmp15"(#loc55))
#loc176 = loc("tmp15"(#loc56))
#loc177 = loc("tmp15"(#loc57))
#loc178 = loc("tmp15"(#loc58))
#loc179 = loc("tmp16"(#loc59))
#loc180 = loc("tmp17"(#loc60))
#loc181 = loc("tmp18"(#loc61))
#loc182 = loc("tmp19"(#loc62))
#loc183 = loc("tmp20"(#loc63))
#loc184 = loc("tmp21"(#loc64))
#loc185 = loc("tmp22"(#loc65))
#loc186 = loc("tmp23"(#loc66))
#loc187 = loc("tmp23"(#loc67))
#loc188 = loc("tmp23"(#loc68))
#loc189 = loc("tmp23"(#loc69))
#loc190 = loc("tmp23"(#loc70))
#loc191 = loc("tmp23"(#loc71))
#loc192 = loc("tmp23"(#loc72))
#loc193 = loc("tmp23"(#loc73))
#loc194 = loc("tmp23"(#loc74))
#loc195 = loc("tmp23"(#loc75))
#loc196 = loc("tmp24"(#loc76))
#loc197 = loc("tmp24"(#loc77))
#loc198 = loc("tmp24"(#loc78))
#loc199 = loc("tmp25"(#loc79))
#loc200 = loc("tmp26"(#loc80))
#loc201 = loc("tmp27"(#loc81))
#loc202 = loc("tmp28"(#loc82))
#loc203 = loc("tmp30"(#loc90))
#loc204 = loc("tmp30"(#loc91))
#loc205 = loc("tmp30"(#loc92))
#loc206 = loc("tmp30"(#loc93))
#loc207 = loc("tmp30"(#loc94))
#loc208 = loc("tmp30"(#loc95))
#loc209 = loc("tmp30"(#loc96))
#loc210 = loc("tmp31"(#loc97))
#loc211 = loc("tmp32"(#loc98))
#loc212 = loc("tmp32"(#loc99))
#loc213 = loc("tmp32"(#loc100))
#loc214 = loc("tmp32"(#loc101))
#loc215 = loc("tmp32"(#loc102))
#loc216 = loc("tmp32"(#loc103))
#loc217 = loc("tmp32"(#loc104))
#loc218 = loc("tmp32"(#loc105))
#loc219 = loc("tmp32"(#loc106))
#loc220 = loc("tmp33"(#loc107))
#loc221 = loc("tmp33"(#loc108))
#loc222 = loc("tmp33"(#loc109))
#loc223 = loc("tmp33"(#loc110))
#loc224 = loc("tmp33"(#loc111))
#loc225 = loc("tmp33"(#loc112))
#loc226 = loc("tmp33"(#loc113))
#loc227 = loc("tmp33"(#loc114))
#loc228 = loc("tmp34"(#loc115))
#loc229 = loc("tmp35"(#loc116))
#loc230 = loc("tmp36"(#loc117))
#loc231 = loc("tmp37"(#loc118))
#loc232 = loc("tmp38"(#loc119))
