#loc = loc("/tmp/torchinductor_root/h4/ch46e6u6iqxr32wyygbmhw6mjamu2o4v3idys2oj3mjxnucyjbdj.py":20:0)
#loc255 = loc("/root/autodl-tmp/env/klein9BAPI/lib/python3.10/site-packages/triton/language/standard.py":34:0)
#loc260 = loc("in_ptr0"(#loc))
#loc261 = loc("in_ptr1"(#loc))
#loc262 = loc("in_ptr2"(#loc))
#loc263 = loc("out_ptr0"(#loc))
#loc264 = loc("out_ptr1"(#loc))
#loc265 = loc("xnumel_0"(#loc))
#loc266 = loc("xnumel_1"(#loc))
#loc484 = loc("x"(#loc255))
module {
  tt.func public @triton_(%in_ptr0: !tt.ptr<bf16> {tt.divisibility = 16 : i32} loc("in_ptr0"(#loc)), %in_ptr1: !tt.ptr<i64> {tt.divisibility = 16 : i32} loc("in_ptr1"(#loc)), %in_ptr2: !tt.ptr<bf16> {tt.divisibility = 16 : i32} loc("in_ptr2"(#loc)), %out_ptr0: !tt.ptr<bf16> {tt.divisibility = 16 : i32} loc("out_ptr0"(#loc)), %out_ptr1: !tt.ptr<bf16> {tt.divisibility = 16 : i32} loc("out_ptr1"(#loc)), %xnumel_0: i32 {tt.divisibility = 16 : i32} loc("xnumel_0"(#loc)), %xnumel_1: i32 {tt.divisibility = 16 : i32} loc("xnumel_1"(#loc))) attributes {noinline = false} {
    %pid = tt.get_program_id x : i32 loc(#loc267)
    %num_xblocks_0 = tt.call @"triton.language.standard.cdiv__i32__(1,)cconstexpr_1024_"(%xnumel_0) : (i32) -> i32 loc(#loc268)
    %num_xblocks_1 = tt.call @"triton.language.standard.cdiv__i32__(1,)cconstexpr_1024_"(%xnumel_1) : (i32) -> i32 loc(#loc269)
    %num_xblocks_1_0 = arith.addi %num_xblocks_0, %num_xblocks_1 : i32 loc(#loc270)
    %0 = arith.cmpi slt, %pid, %num_xblocks_0 : i32 loc(#loc5)
    scf.if %0 {
      %r0_numel = arith.constant 1 : i32 loc(#loc271)
      %xoffset = arith.constant 1024 : i32 loc(#loc272)
      %xoffset_1 = arith.constant 1024 : i32 loc(#loc272)
      %xoffset_2 = arith.muli %pid, %xoffset_1 : i32 loc(#loc272)
      %xindex = tt.make_range {end = 1024 : i32, start = 0 : i32} : tensor<1024xi32> loc(#loc273)
      %xindex_3 = tt.splat %xoffset_2 : i32 -> tensor<1024xi32> loc(#loc274)
      %xindex_4 = arith.addi %xindex_3, %xindex : tensor<1024xi32> loc(#loc274)
      %xmask = tt.splat %xnumel_0 : i32 -> tensor<1024xi32> loc(#loc275)
      %xmask_5 = arith.cmpi slt, %xindex_4, %xmask : tensor<1024xi32> loc(#loc275)
      %x0 = arith.constant 64 : i32 loc(#loc276)
      %x0_6 = arith.constant 64 : i32 loc(#loc276)
      %x0_7 = arith.constant dense<64> : tensor<1024xi32> loc(#loc276)
      %x0_8 = arith.remsi %xindex_4, %x0_7 : tensor<1024xi32> loc(#loc276)
      %x1 = arith.constant 64 : i32 loc(#loc277)
      %x1_9 = arith.constant 64 : i32 loc(#loc277)
      %x1_10 = arith.constant dense<64> : tensor<1024xi32> loc(#loc277)
      %x1_11 = arith.divsi %xindex_4, %x1_10 : tensor<1024xi32> loc(#loc277)
      %x1_12 = arith.constant 2 : i32 loc(#loc278)
      %x1_13 = arith.constant 2 : i32 loc(#loc278)
      %x1_14 = arith.constant dense<2> : tensor<1024xi32> loc(#loc278)
      %x1_15 = arith.remsi %x1_11, %x1_14 : tensor<1024xi32> loc(#loc278)
      %x2 = arith.constant 128 : i32 loc(#loc279)
      %x2_16 = arith.constant 128 : i32 loc(#loc279)
      %x2_17 = arith.constant dense<128> : tensor<1024xi32> loc(#loc279)
      %x2_18 = arith.divsi %xindex_4, %x2_17 : tensor<1024xi32> loc(#loc279)
      %tmp1 = arith.constant 0 : i64 loc(#loc280)
      %tmp1_19 = arith.constant dense<0> : tensor<1xi64> loc(#loc280)
      %tmp2 = arith.extsi %x0_8 : tensor<1024xi32> to tensor<1024xi64> loc(#loc281)
      %tmp2_20 = arith.constant dense<0> : tensor<1024xi64> loc(#loc281)
      %tmp2_21 = arith.cmpi sge, %tmp2, %tmp2_20 : tensor<1024xi64> loc(#loc281)
      %tmp3 = arith.constant 32 : i64 loc(#loc282)
      %tmp3_22 = arith.constant dense<32> : tensor<1xi64> loc(#loc282)
      %tmp4 = arith.extsi %x0_8 : tensor<1024xi32> to tensor<1024xi64> loc(#loc283)
      %tmp4_23 = arith.constant dense<32> : tensor<1024xi64> loc(#loc283)
      %tmp4_24 = arith.cmpi slt, %tmp4, %tmp4_23 : tensor<1024xi64> loc(#loc283)
      %tmp5 = arith.constant 64 : i32 loc(#loc284)
      %tmp5_25 = arith.constant 64 : i32 loc(#loc284)
      %tmp5_26 = arith.constant dense<64> : tensor<1024xi32> loc(#loc284)
      %tmp5_27 = arith.muli %tmp5_26, %x1_15 : tensor<1024xi32> loc(#loc284)
      %tmp5_28 = arith.constant 896 : i32 loc(#loc285)
      %tmp5_29 = arith.constant 896 : i32 loc(#loc285)
      %tmp5_30 = arith.constant dense<896> : tensor<1024xi32> loc(#loc285)
      %tmp5_31 = arith.addi %tmp5_30, %tmp5_27 : tensor<1024xi32> loc(#loc285)
      %tmp5_32 = arith.constant 1152 : i32 loc(#loc286)
      %tmp5_33 = arith.constant 1152 : i32 loc(#loc286)
      %tmp5_34 = arith.constant dense<1152> : tensor<1024xi32> loc(#loc286)
      %tmp5_35 = arith.muli %tmp5_34, %x2_18 : tensor<1024xi32> loc(#loc286)
      %tmp5_36 = arith.addi %tmp5_31, %tmp5_35 : tensor<1024xi32> loc(#loc287)
      %tmp5_37 = arith.addi %tmp5_36, %x0_8 : tensor<1024xi32> loc(#loc288)
      %tmp5_38 = tt.splat %in_ptr0 : !tt.ptr<bf16> -> tensor<1024x!tt.ptr<bf16>> loc(#loc289)
      %tmp5_39 = tt.addptr %tmp5_38, %tmp5_37 : tensor<1024x!tt.ptr<bf16>>, tensor<1024xi32> loc(#loc289)
      %tmp5_40 = arith.andi %tmp4_24, %xmask_5 : tensor<1024xi1> loc(#loc290)
      %tmp5_41 = arith.constant 0.000000e+00 : f32 loc(#loc291)
      %tmp5_42 = arith.constant dense<0.000000e+00> : tensor<1024xf32> loc(#loc291)
      %tmp5_43 = arith.truncf %tmp5_42 : tensor<1024xf32> to tensor<1024xbf16> loc(#loc291)
      %tmp5_44 = tt.load %tmp5_39, %tmp5_40, %tmp5_43 evictionPolicy = evict_last : tensor<1024x!tt.ptr<bf16>> loc(#loc291)
      %tmp5_45 = arith.extf %tmp5_44 : tensor<1024xbf16> to tensor<1024xf32> loc(#loc292)
      %tmp6 = tt.splat %in_ptr1 : !tt.ptr<i64> -> tensor<1024x!tt.ptr<i64>> loc(#loc293)
      %tmp6_46 = tt.addptr %tmp6, %x2_18 : tensor<1024x!tt.ptr<i64>>, tensor<1024xi32> loc(#loc293)
      %tmp6_47 = arith.andi %tmp4_24, %xmask_5 : tensor<1024xi1> loc(#loc294)
      %tmp6_48 = arith.constant 0.000000e+00 : f32 loc(#loc295)
      %tmp6_49 = arith.constant dense<0.000000e+00> : tensor<1024xf32> loc(#loc295)
      %tmp6_50 = arith.fptosi %tmp6_49 : tensor<1024xf32> to tensor<1024xi64> loc(#loc295)
      %tmp6_51 = tt.load %tmp6_46, %tmp6_47, %tmp6_50 evictionPolicy = evict_last : tensor<1024x!tt.ptr<i64>> loc(#loc295)
      %tmp7 = arith.constant 32768 : i32 loc(#loc296)
      %tmp7_52 = arith.constant dense<32768> : tensor<1024xi32> loc(#loc296)
      %tmp8 = arith.extsi %tmp7_52 : tensor<1024xi32> to tensor<1024xi64> loc(#loc297)
      %tmp8_53 = arith.addi %tmp6_51, %tmp8 : tensor<1024xi64> loc(#loc297)
      %tmp9 = arith.constant 0 : i32 loc(#loc298)
      %tmp9_54 = arith.extsi %tmp9 : i32 to i64 loc(#loc298)
      %tmp9_55 = tt.splat %tmp9_54 : i64 -> tensor<1024xi64> loc(#loc298)
      %tmp9_56 = arith.cmpi slt, %tmp6_51, %tmp9_55 : tensor<1024xi64> loc(#loc298)
      %tmp10 = arith.select %tmp9_56, %tmp8_53, %tmp6_51 : tensor<1024xi1>, tensor<1024xi64> loc(#loc299)
      %c0_i32 = arith.constant 0 : i32 loc(#loc36)
      %1 = arith.extsi %c0_i32 : i32 to i64 loc(#loc36)
      %2 = tt.splat %1 : i64 -> tensor<1024xi64> loc(#loc36)
      %3 = arith.cmpi sle, %2, %tmp10 : tensor<1024xi64> loc(#loc36)
      %c32768_i32 = arith.constant 32768 : i32 loc(#loc37)
      %4 = arith.extsi %c32768_i32 : i32 to i64 loc(#loc37)
      %5 = tt.splat %4 : i64 -> tensor<1024xi64> loc(#loc37)
      %6 = arith.cmpi slt, %tmp10, %5 : tensor<1024xi64> loc(#loc37)
      %7 = arith.andi %3, %6 : tensor<1024xi1> loc(#loc38)
      %8 = arith.andi %tmp4_24, %xmask_5 : tensor<1024xi1> loc(#loc39)
      %true = arith.constant true loc(#loc40)
      %cst = arith.constant dense<true> : tensor<1024xi1> loc(#loc40)
      %9 = arith.xori %8, %cst : tensor<1024xi1> loc(#loc40)
      %10 = arith.ori %7, %9 : tensor<1024xi1> loc(#loc41)
      tt.assert %10, "index out of bounds: 0 <= tl.broadcast_to(tmp10, [XBLOCK]) < 32768" : tensor<1024xi1> loc(#loc42)
      %tmp12 = arith.constant 64 : i32 loc(#loc300)
      %tmp12_57 = arith.constant 64 : i64 loc(#loc300)
      %tmp12_58 = arith.constant dense<64> : tensor<1024xi64> loc(#loc300)
      %tmp12_59 = arith.muli %tmp12_58, %tmp10 : tensor<1024xi64> loc(#loc300)
      %tmp12_60 = arith.extsi %x0_8 : tensor<1024xi32> to tensor<1024xi64> loc(#loc301)
      %tmp12_61 = arith.addi %tmp12_59, %tmp12_60 : tensor<1024xi64> loc(#loc301)
      %tmp12_62 = tt.splat %in_ptr2 : !tt.ptr<bf16> -> tensor<1024x!tt.ptr<bf16>> loc(#loc302)
      %tmp12_63 = tt.addptr %tmp12_62, %tmp12_61 : tensor<1024x!tt.ptr<bf16>>, tensor<1024xi64> loc(#loc302)
      %tmp12_64 = arith.andi %tmp4_24, %xmask_5 : tensor<1024xi1> loc(#loc303)
      %tmp12_65 = arith.constant 0.000000e+00 : f32 loc(#loc304)
      %tmp12_66 = arith.constant dense<0.000000e+00> : tensor<1024xf32> loc(#loc304)
      %tmp12_67 = arith.truncf %tmp12_66 : tensor<1024xf32> to tensor<1024xbf16> loc(#loc304)
      %tmp12_68 = tt.load %tmp12_63, %tmp12_64, %tmp12_67 evictionPolicy = evict_last : tensor<1024x!tt.ptr<bf16>> loc(#loc304)
      %tmp12_69 = arith.extf %tmp12_68 : tensor<1024xbf16> to tensor<1024xf32> loc(#loc305)
      %tmp13 = arith.mulf %tmp5_45, %tmp12_69 : tensor<1024xf32> loc(#loc306)
      %tmp14 = arith.constant 64 : i32 loc(#loc307)
      %tmp14_70 = arith.constant 64 : i32 loc(#loc307)
      %tmp14_71 = arith.constant dense<64> : tensor<1024xi32> loc(#loc307)
      %tmp14_72 = arith.muli %tmp14_71, %x1_15 : tensor<1024xi32> loc(#loc307)
      %tmp14_73 = arith.constant 928 : i32 loc(#loc308)
      %tmp14_74 = arith.constant 928 : i32 loc(#loc308)
      %tmp14_75 = arith.constant dense<928> : tensor<1024xi32> loc(#loc308)
      %tmp14_76 = arith.addi %tmp14_75, %tmp14_72 : tensor<1024xi32> loc(#loc308)
      %tmp14_77 = arith.constant 1152 : i32 loc(#loc309)
      %tmp14_78 = arith.constant 1152 : i32 loc(#loc309)
      %tmp14_79 = arith.constant dense<1152> : tensor<1024xi32> loc(#loc309)
      %tmp14_80 = arith.muli %tmp14_79, %x2_18 : tensor<1024xi32> loc(#loc309)
      %tmp14_81 = arith.addi %tmp14_76, %tmp14_80 : tensor<1024xi32> loc(#loc310)
      %tmp14_82 = arith.addi %tmp14_81, %x0_8 : tensor<1024xi32> loc(#loc311)
      %tmp14_83 = tt.splat %in_ptr0 : !tt.ptr<bf16> -> tensor<1024x!tt.ptr<bf16>> loc(#loc312)
      %tmp14_84 = tt.addptr %tmp14_83, %tmp14_82 : tensor<1024x!tt.ptr<bf16>>, tensor<1024xi32> loc(#loc312)
      %tmp14_85 = arith.andi %tmp4_24, %xmask_5 : tensor<1024xi1> loc(#loc313)
      %tmp14_86 = arith.constant 0.000000e+00 : f32 loc(#loc314)
      %tmp14_87 = arith.constant dense<0.000000e+00> : tensor<1024xf32> loc(#loc314)
      %tmp14_88 = arith.truncf %tmp14_87 : tensor<1024xf32> to tensor<1024xbf16> loc(#loc314)
      %tmp14_89 = tt.load %tmp14_84, %tmp14_85, %tmp14_88 evictionPolicy = evict_last : tensor<1024x!tt.ptr<bf16>> loc(#loc314)
      %tmp14_90 = arith.extf %tmp14_89 : tensor<1024xbf16> to tensor<1024xf32> loc(#loc315)
      %tmp15 = arith.constant 64 : i32 loc(#loc316)
      %tmp15_91 = arith.constant 64 : i64 loc(#loc316)
      %tmp15_92 = arith.constant dense<64> : tensor<1024xi64> loc(#loc316)
      %tmp15_93 = arith.muli %tmp15_92, %tmp10 : tensor<1024xi64> loc(#loc316)
      %tmp15_94 = arith.constant 32 : i32 loc(#loc317)
      %tmp15_95 = arith.constant 32 : i64 loc(#loc317)
      %tmp15_96 = arith.constant dense<32> : tensor<1024xi64> loc(#loc317)
      %tmp15_97 = arith.addi %tmp15_96, %tmp15_93 : tensor<1024xi64> loc(#loc317)
      %tmp15_98 = arith.extsi %x0_8 : tensor<1024xi32> to tensor<1024xi64> loc(#loc318)
      %tmp15_99 = arith.addi %tmp15_97, %tmp15_98 : tensor<1024xi64> loc(#loc318)
      %tmp15_100 = tt.splat %in_ptr2 : !tt.ptr<bf16> -> tensor<1024x!tt.ptr<bf16>> loc(#loc319)
      %tmp15_101 = tt.addptr %tmp15_100, %tmp15_99 : tensor<1024x!tt.ptr<bf16>>, tensor<1024xi64> loc(#loc319)
      %tmp15_102 = arith.andi %tmp4_24, %xmask_5 : tensor<1024xi1> loc(#loc320)
      %tmp15_103 = arith.constant 0.000000e+00 : f32 loc(#loc321)
      %tmp15_104 = arith.constant dense<0.000000e+00> : tensor<1024xf32> loc(#loc321)
      %tmp15_105 = arith.truncf %tmp15_104 : tensor<1024xf32> to tensor<1024xbf16> loc(#loc321)
      %tmp15_106 = tt.load %tmp15_101, %tmp15_102, %tmp15_105 evictionPolicy = evict_last : tensor<1024x!tt.ptr<bf16>> loc(#loc321)
      %tmp15_107 = arith.extf %tmp15_106 : tensor<1024xbf16> to tensor<1024xf32> loc(#loc322)
      %tmp16 = arith.mulf %tmp14_90, %tmp15_107 : tensor<1024xf32> loc(#loc323)
      %tmp17 = arith.subf %tmp13, %tmp16 : tensor<1024xf32> loc(#loc324)
      %tmp18 = arith.constant 0.000000e+00 : f32 loc(#loc325)
      %tmp18_108 = arith.constant dense<0.000000e+00> : tensor<1024xf32> loc(#loc325)
      %tmp19 = arith.select %tmp4_24, %tmp17, %tmp18_108 : tensor<1024xi1>, tensor<1024xf32> loc(#loc326)
      %tmp20 = arith.extsi %x0_8 : tensor<1024xi32> to tensor<1024xi64> loc(#loc327)
      %tmp20_109 = arith.constant dense<32> : tensor<1024xi64> loc(#loc327)
      %tmp20_110 = arith.cmpi sge, %tmp20, %tmp20_109 : tensor<1024xi64> loc(#loc327)
      %tmp21 = arith.constant 64 : i64 loc(#loc328)
      %tmp21_111 = arith.constant dense<64> : tensor<1xi64> loc(#loc328)
      %tmp22 = arith.extsi %x0_8 : tensor<1024xi32> to tensor<1024xi64> loc(#loc329)
      %tmp22_112 = arith.constant dense<64> : tensor<1024xi64> loc(#loc329)
      %tmp22_113 = arith.cmpi slt, %tmp22, %tmp22_112 : tensor<1024xi64> loc(#loc329)
      %tmp23 = arith.constant 64 : i32 loc(#loc330)
      %tmp23_114 = arith.constant 64 : i32 loc(#loc330)
      %tmp23_115 = arith.constant dense<64> : tensor<1024xi32> loc(#loc330)
      %tmp23_116 = arith.muli %tmp23_115, %x1_15 : tensor<1024xi32> loc(#loc330)
      %tmp23_117 = arith.constant 928 : i32 loc(#loc331)
      %tmp23_118 = arith.constant 928 : i32 loc(#loc331)
      %tmp23_119 = arith.constant dense<928> : tensor<1024xi32> loc(#loc331)
      %tmp23_120 = arith.addi %tmp23_119, %tmp23_116 : tensor<1024xi32> loc(#loc331)
      %tmp23_121 = arith.constant 1152 : i32 loc(#loc332)
      %tmp23_122 = arith.constant 1152 : i32 loc(#loc332)
      %tmp23_123 = arith.constant dense<1152> : tensor<1024xi32> loc(#loc332)
      %tmp23_124 = arith.muli %tmp23_123, %x2_18 : tensor<1024xi32> loc(#loc332)
      %tmp23_125 = arith.addi %tmp23_120, %tmp23_124 : tensor<1024xi32> loc(#loc333)
      %tmp23_126 = arith.constant -32 : i32 loc(#loc334)
      %tmp23_127 = arith.constant -32 : i32 loc(#loc334)
      %tmp23_128 = arith.constant dense<-32> : tensor<1024xi32> loc(#loc334)
      %tmp23_129 = arith.addi %tmp23_128, %x0_8 : tensor<1024xi32> loc(#loc334)
      %tmp23_130 = arith.addi %tmp23_125, %tmp23_129 : tensor<1024xi32> loc(#loc335)
      %tmp23_131 = tt.splat %in_ptr0 : !tt.ptr<bf16> -> tensor<1024x!tt.ptr<bf16>> loc(#loc336)
      %tmp23_132 = tt.addptr %tmp23_131, %tmp23_130 : tensor<1024x!tt.ptr<bf16>>, tensor<1024xi32> loc(#loc336)
      %tmp23_133 = arith.andi %tmp20_110, %xmask_5 : tensor<1024xi1> loc(#loc337)
      %tmp23_134 = arith.constant 0.000000e+00 : f32 loc(#loc338)
      %tmp23_135 = arith.constant dense<0.000000e+00> : tensor<1024xf32> loc(#loc338)
      %tmp23_136 = arith.truncf %tmp23_135 : tensor<1024xf32> to tensor<1024xbf16> loc(#loc338)
      %tmp23_137 = tt.load %tmp23_132, %tmp23_133, %tmp23_136 evictionPolicy = evict_last : tensor<1024x!tt.ptr<bf16>> loc(#loc338)
      %tmp23_138 = arith.extf %tmp23_137 : tensor<1024xbf16> to tensor<1024xf32> loc(#loc339)
      %tmp24 = tt.splat %in_ptr1 : !tt.ptr<i64> -> tensor<1024x!tt.ptr<i64>> loc(#loc340)
      %tmp24_139 = tt.addptr %tmp24, %x2_18 : tensor<1024x!tt.ptr<i64>>, tensor<1024xi32> loc(#loc340)
      %tmp24_140 = arith.andi %tmp20_110, %xmask_5 : tensor<1024xi1> loc(#loc341)
      %tmp24_141 = arith.constant 0.000000e+00 : f32 loc(#loc342)
      %tmp24_142 = arith.constant dense<0.000000e+00> : tensor<1024xf32> loc(#loc342)
      %tmp24_143 = arith.fptosi %tmp24_142 : tensor<1024xf32> to tensor<1024xi64> loc(#loc342)
      %tmp24_144 = tt.load %tmp24_139, %tmp24_140, %tmp24_143 evictionPolicy = evict_last : tensor<1024x!tt.ptr<i64>> loc(#loc342)
      %tmp25 = arith.constant 32768 : i32 loc(#loc343)
      %tmp25_145 = arith.constant dense<32768> : tensor<1024xi32> loc(#loc343)
      %tmp26 = arith.extsi %tmp25_145 : tensor<1024xi32> to tensor<1024xi64> loc(#loc344)
      %tmp26_146 = arith.addi %tmp24_144, %tmp26 : tensor<1024xi64> loc(#loc344)
      %tmp27 = arith.constant 0 : i32 loc(#loc345)
      %tmp27_147 = arith.extsi %tmp27 : i32 to i64 loc(#loc345)
      %tmp27_148 = tt.splat %tmp27_147 : i64 -> tensor<1024xi64> loc(#loc345)
      %tmp27_149 = arith.cmpi slt, %tmp24_144, %tmp27_148 : tensor<1024xi64> loc(#loc345)
      %tmp28 = arith.select %tmp27_149, %tmp26_146, %tmp24_144 : tensor<1024xi1>, tensor<1024xi64> loc(#loc346)
      %c0_i32_150 = arith.constant 0 : i32 loc(#loc90)
      %11 = arith.extsi %c0_i32_150 : i32 to i64 loc(#loc90)
      %12 = tt.splat %11 : i64 -> tensor<1024xi64> loc(#loc90)
      %13 = arith.cmpi sle, %12, %tmp28 : tensor<1024xi64> loc(#loc90)
      %c32768_i32_151 = arith.constant 32768 : i32 loc(#loc91)
      %14 = arith.extsi %c32768_i32_151 : i32 to i64 loc(#loc91)
      %15 = tt.splat %14 : i64 -> tensor<1024xi64> loc(#loc91)
      %16 = arith.cmpi slt, %tmp28, %15 : tensor<1024xi64> loc(#loc91)
      %17 = arith.andi %13, %16 : tensor<1024xi1> loc(#loc92)
      %18 = arith.andi %tmp20_110, %xmask_5 : tensor<1024xi1> loc(#loc93)
      %true_152 = arith.constant true loc(#loc94)
      %cst_153 = arith.constant dense<true> : tensor<1024xi1> loc(#loc94)
      %19 = arith.xori %18, %cst_153 : tensor<1024xi1> loc(#loc94)
      %20 = arith.ori %17, %19 : tensor<1024xi1> loc(#loc95)
      tt.assert %20, "index out of bounds: 0 <= tl.broadcast_to(tmp28, [XBLOCK]) < 32768" : tensor<1024xi1> loc(#loc96)
      %tmp30 = arith.constant 64 : i32 loc(#loc347)
      %tmp30_154 = arith.constant 64 : i64 loc(#loc347)
      %tmp30_155 = arith.constant dense<64> : tensor<1024xi64> loc(#loc347)
      %tmp30_156 = arith.muli %tmp30_155, %tmp28 : tensor<1024xi64> loc(#loc347)
      %tmp30_157 = arith.constant -32 : i32 loc(#loc348)
      %tmp30_158 = arith.constant -32 : i32 loc(#loc348)
      %tmp30_159 = arith.constant dense<-32> : tensor<1024xi32> loc(#loc348)
      %tmp30_160 = arith.addi %tmp30_159, %x0_8 : tensor<1024xi32> loc(#loc348)
      %tmp30_161 = arith.extsi %tmp30_160 : tensor<1024xi32> to tensor<1024xi64> loc(#loc349)
      %tmp30_162 = arith.addi %tmp30_156, %tmp30_161 : tensor<1024xi64> loc(#loc349)
      %tmp30_163 = tt.splat %in_ptr2 : !tt.ptr<bf16> -> tensor<1024x!tt.ptr<bf16>> loc(#loc350)
      %tmp30_164 = tt.addptr %tmp30_163, %tmp30_162 : tensor<1024x!tt.ptr<bf16>>, tensor<1024xi64> loc(#loc350)
      %tmp30_165 = arith.andi %tmp20_110, %xmask_5 : tensor<1024xi1> loc(#loc351)
      %tmp30_166 = arith.constant 0.000000e+00 : f32 loc(#loc352)
      %tmp30_167 = arith.constant dense<0.000000e+00> : tensor<1024xf32> loc(#loc352)
      %tmp30_168 = arith.truncf %tmp30_167 : tensor<1024xf32> to tensor<1024xbf16> loc(#loc352)
      %tmp30_169 = tt.load %tmp30_164, %tmp30_165, %tmp30_168 evictionPolicy = evict_last : tensor<1024x!tt.ptr<bf16>> loc(#loc352)
      %tmp30_170 = arith.extf %tmp30_169 : tensor<1024xbf16> to tensor<1024xf32> loc(#loc353)
      %tmp31 = arith.mulf %tmp23_138, %tmp30_170 : tensor<1024xf32> loc(#loc354)
      %tmp32 = arith.constant 64 : i32 loc(#loc355)
      %tmp32_171 = arith.constant 64 : i32 loc(#loc355)
      %tmp32_172 = arith.constant dense<64> : tensor<1024xi32> loc(#loc355)
      %tmp32_173 = arith.muli %tmp32_172, %x1_15 : tensor<1024xi32> loc(#loc355)
      %tmp32_174 = arith.constant 896 : i32 loc(#loc356)
      %tmp32_175 = arith.constant 896 : i32 loc(#loc356)
      %tmp32_176 = arith.constant dense<896> : tensor<1024xi32> loc(#loc356)
      %tmp32_177 = arith.addi %tmp32_176, %tmp32_173 : tensor<1024xi32> loc(#loc356)
      %tmp32_178 = arith.constant 1152 : i32 loc(#loc357)
      %tmp32_179 = arith.constant 1152 : i32 loc(#loc357)
      %tmp32_180 = arith.constant dense<1152> : tensor<1024xi32> loc(#loc357)
      %tmp32_181 = arith.muli %tmp32_180, %x2_18 : tensor<1024xi32> loc(#loc357)
      %tmp32_182 = arith.addi %tmp32_177, %tmp32_181 : tensor<1024xi32> loc(#loc358)
      %tmp32_183 = arith.constant -32 : i32 loc(#loc359)
      %tmp32_184 = arith.constant -32 : i32 loc(#loc359)
      %tmp32_185 = arith.constant dense<-32> : tensor<1024xi32> loc(#loc359)
      %tmp32_186 = arith.addi %tmp32_185, %x0_8 : tensor<1024xi32> loc(#loc359)
      %tmp32_187 = arith.addi %tmp32_182, %tmp32_186 : tensor<1024xi32> loc(#loc360)
      %tmp32_188 = tt.splat %in_ptr0 : !tt.ptr<bf16> -> tensor<1024x!tt.ptr<bf16>> loc(#loc361)
      %tmp32_189 = tt.addptr %tmp32_188, %tmp32_187 : tensor<1024x!tt.ptr<bf16>>, tensor<1024xi32> loc(#loc361)
      %tmp32_190 = arith.andi %tmp20_110, %xmask_5 : tensor<1024xi1> loc(#loc362)
      %tmp32_191 = arith.constant 0.000000e+00 : f32 loc(#loc363)
      %tmp32_192 = arith.constant dense<0.000000e+00> : tensor<1024xf32> loc(#loc363)
      %tmp32_193 = arith.truncf %tmp32_192 : tensor<1024xf32> to tensor<1024xbf16> loc(#loc363)
      %tmp32_194 = tt.load %tmp32_189, %tmp32_190, %tmp32_193 evictionPolicy = evict_last : tensor<1024x!tt.ptr<bf16>> loc(#loc363)
      %tmp32_195 = arith.extf %tmp32_194 : tensor<1024xbf16> to tensor<1024xf32> loc(#loc364)
      %tmp33 = arith.constant 64 : i32 loc(#loc365)
      %tmp33_196 = arith.constant 64 : i64 loc(#loc365)
      %tmp33_197 = arith.constant dense<64> : tensor<1024xi64> loc(#loc365)
      %tmp33_198 = arith.muli %tmp33_197, %tmp28 : tensor<1024xi64> loc(#loc365)
      %tmp33_199 = arith.constant 32 : i32 loc(#loc366)
      %tmp33_200 = arith.constant 32 : i64 loc(#loc366)
      %tmp33_201 = arith.constant dense<32> : tensor<1024xi64> loc(#loc366)
      %tmp33_202 = arith.addi %tmp33_201, %tmp33_198 : tensor<1024xi64> loc(#loc366)
      %tmp33_203 = arith.constant -32 : i32 loc(#loc367)
      %tmp33_204 = arith.constant -32 : i32 loc(#loc367)
      %tmp33_205 = arith.constant dense<-32> : tensor<1024xi32> loc(#loc367)
      %tmp33_206 = arith.addi %tmp33_205, %x0_8 : tensor<1024xi32> loc(#loc367)
      %tmp33_207 = arith.extsi %tmp33_206 : tensor<1024xi32> to tensor<1024xi64> loc(#loc368)
      %tmp33_208 = arith.addi %tmp33_202, %tmp33_207 : tensor<1024xi64> loc(#loc368)
      %tmp33_209 = tt.splat %in_ptr2 : !tt.ptr<bf16> -> tensor<1024x!tt.ptr<bf16>> loc(#loc369)
      %tmp33_210 = tt.addptr %tmp33_209, %tmp33_208 : tensor<1024x!tt.ptr<bf16>>, tensor<1024xi64> loc(#loc369)
      %tmp33_211 = arith.andi %tmp20_110, %xmask_5 : tensor<1024xi1> loc(#loc370)
      %tmp33_212 = arith.constant 0.000000e+00 : f32 loc(#loc371)
      %tmp33_213 = arith.constant dense<0.000000e+00> : tensor<1024xf32> loc(#loc371)
      %tmp33_214 = arith.truncf %tmp33_213 : tensor<1024xf32> to tensor<1024xbf16> loc(#loc371)
      %tmp33_215 = tt.load %tmp33_210, %tmp33_211, %tmp33_214 evictionPolicy = evict_last : tensor<1024x!tt.ptr<bf16>> loc(#loc371)
      %tmp33_216 = arith.extf %tmp33_215 : tensor<1024xbf16> to tensor<1024xf32> loc(#loc372)
      %tmp34 = arith.mulf %tmp32_195, %tmp33_216 : tensor<1024xf32> loc(#loc373)
      %tmp35 = arith.addf %tmp31, %tmp34 : tensor<1024xf32> loc(#loc374)
      %tmp36 = arith.constant 0.000000e+00 : f32 loc(#loc375)
      %tmp36_217 = arith.constant dense<0.000000e+00> : tensor<1024xf32> loc(#loc375)
      %tmp37 = arith.select %tmp20_110, %tmp35, %tmp36_217 : tensor<1024xi1>, tensor<1024xf32> loc(#loc376)
      %tmp38 = arith.select %tmp4_24, %tmp19, %tmp37 : tensor<1024xi1>, tensor<1024xf32> loc(#loc377)
      %21 = tt.splat %out_ptr0 : !tt.ptr<bf16> -> tensor<1024x!tt.ptr<bf16>> loc(#loc128)
      %22 = tt.addptr %21, %xindex_4 : tensor<1024x!tt.ptr<bf16>>, tensor<1024xi32> loc(#loc128)
      %23 = arith.truncf %tmp38 : tensor<1024xf32> to tensor<1024xbf16> loc(#loc129)
      tt.store %22, %23, %xmask_5 : tensor<1024x!tt.ptr<bf16>> loc(#loc129)
    } else {
      %1 = arith.cmpi slt, %pid, %num_xblocks_1_0 : i32 loc(#loc130)
      scf.if %1 {
        %pid_offset = arith.subi %pid, %num_xblocks_0 : i32 loc(#loc378)
        %r0_numel = arith.constant 1 : i32 loc(#loc379)
        %xoffset = arith.constant 1024 : i32 loc(#loc380)
        %xoffset_1 = arith.constant 1024 : i32 loc(#loc380)
        %xoffset_2 = arith.muli %pid_offset, %xoffset_1 : i32 loc(#loc380)
        %xindex = tt.make_range {end = 1024 : i32, start = 0 : i32} : tensor<1024xi32> loc(#loc381)
        %xindex_3 = tt.splat %xoffset_2 : i32 -> tensor<1024xi32> loc(#loc382)
        %xindex_4 = arith.addi %xindex_3, %xindex : tensor<1024xi32> loc(#loc382)
        %xmask = tt.splat %xnumel_1 : i32 -> tensor<1024xi32> loc(#loc383)
        %xmask_5 = arith.cmpi slt, %xindex_4, %xmask : tensor<1024xi32> loc(#loc383)
        %x5 = arith.constant 64 : i32 loc(#loc384)
        %x5_6 = arith.constant 64 : i32 loc(#loc384)
        %x5_7 = arith.constant dense<64> : tensor<1024xi32> loc(#loc384)
        %x5_8 = arith.remsi %xindex_4, %x5_7 : tensor<1024xi32> loc(#loc384)
        %x6 = arith.constant 64 : i32 loc(#loc385)
        %x6_9 = arith.constant 64 : i32 loc(#loc385)
        %x6_10 = arith.constant dense<64> : tensor<1024xi32> loc(#loc385)
        %x6_11 = arith.divsi %xindex_4, %x6_10 : tensor<1024xi32> loc(#loc385)
        %x6_12 = arith.constant 14 : i32 loc(#loc386)
        %x6_13 = arith.constant 14 : i32 loc(#loc386)
        %x6_14 = arith.constant dense<14> : tensor<1024xi32> loc(#loc386)
        %x6_15 = arith.remsi %x6_11, %x6_14 : tensor<1024xi32> loc(#loc386)
        %x7 = arith.constant 896 : i32 loc(#loc387)
        %x7_16 = arith.constant 896 : i32 loc(#loc387)
        %x7_17 = arith.constant dense<896> : tensor<1024xi32> loc(#loc387)
        %x7_18 = arith.divsi %xindex_4, %x7_17 : tensor<1024xi32> loc(#loc387)
        %tmp40 = arith.constant 0 : i64 loc(#loc388)
        %tmp40_19 = arith.constant dense<0> : tensor<1xi64> loc(#loc388)
        %tmp41 = arith.extsi %x5_8 : tensor<1024xi32> to tensor<1024xi64> loc(#loc389)
        %tmp41_20 = arith.constant dense<0> : tensor<1024xi64> loc(#loc389)
        %tmp41_21 = arith.cmpi sge, %tmp41, %tmp41_20 : tensor<1024xi64> loc(#loc389)
        %tmp42 = arith.constant 32 : i64 loc(#loc390)
        %tmp42_22 = arith.constant dense<32> : tensor<1xi64> loc(#loc390)
        %tmp43 = arith.extsi %x5_8 : tensor<1024xi32> to tensor<1024xi64> loc(#loc391)
        %tmp43_23 = arith.constant dense<32> : tensor<1024xi64> loc(#loc391)
        %tmp43_24 = arith.cmpi slt, %tmp43, %tmp43_23 : tensor<1024xi64> loc(#loc391)
        %tmp44 = arith.constant 64 : i32 loc(#loc392)
        %tmp44_25 = arith.constant 64 : i32 loc(#loc392)
        %tmp44_26 = arith.constant dense<64> : tensor<1024xi32> loc(#loc392)
        %tmp44_27 = arith.muli %tmp44_26, %x6_15 : tensor<1024xi32> loc(#loc392)
        %tmp44_28 = arith.constant 1152 : i32 loc(#loc393)
        %tmp44_29 = arith.constant 1152 : i32 loc(#loc393)
        %tmp44_30 = arith.constant dense<1152> : tensor<1024xi32> loc(#loc393)
        %tmp44_31 = arith.muli %tmp44_30, %x7_18 : tensor<1024xi32> loc(#loc393)
        %tmp44_32 = arith.addi %tmp44_27, %tmp44_31 : tensor<1024xi32> loc(#loc394)
        %tmp44_33 = arith.addi %tmp44_32, %x5_8 : tensor<1024xi32> loc(#loc395)
        %tmp44_34 = tt.splat %in_ptr0 : !tt.ptr<bf16> -> tensor<1024x!tt.ptr<bf16>> loc(#loc396)
        %tmp44_35 = tt.addptr %tmp44_34, %tmp44_33 : tensor<1024x!tt.ptr<bf16>>, tensor<1024xi32> loc(#loc396)
        %tmp44_36 = arith.andi %tmp43_24, %xmask_5 : tensor<1024xi1> loc(#loc397)
        %tmp44_37 = arith.constant 0.000000e+00 : f32 loc(#loc398)
        %tmp44_38 = arith.constant dense<0.000000e+00> : tensor<1024xf32> loc(#loc398)
        %tmp44_39 = arith.truncf %tmp44_38 : tensor<1024xf32> to tensor<1024xbf16> loc(#loc398)
        %tmp44_40 = tt.load %tmp44_35, %tmp44_36, %tmp44_39 evictionPolicy = evict_last : tensor<1024x!tt.ptr<bf16>> loc(#loc398)
        %tmp44_41 = arith.extf %tmp44_40 : tensor<1024xbf16> to tensor<1024xf32> loc(#loc399)
        %tmp45 = tt.splat %in_ptr1 : !tt.ptr<i64> -> tensor<1024x!tt.ptr<i64>> loc(#loc400)
        %tmp45_42 = tt.addptr %tmp45, %x7_18 : tensor<1024x!tt.ptr<i64>>, tensor<1024xi32> loc(#loc400)
        %tmp45_43 = arith.andi %tmp43_24, %xmask_5 : tensor<1024xi1> loc(#loc401)
        %tmp45_44 = arith.constant 0.000000e+00 : f32 loc(#loc402)
        %tmp45_45 = arith.constant dense<0.000000e+00> : tensor<1024xf32> loc(#loc402)
        %tmp45_46 = arith.fptosi %tmp45_45 : tensor<1024xf32> to tensor<1024xi64> loc(#loc402)
        %tmp45_47 = tt.load %tmp45_42, %tmp45_43, %tmp45_46 evictionPolicy = evict_last : tensor<1024x!tt.ptr<i64>> loc(#loc402)
        %tmp46 = arith.constant 32768 : i32 loc(#loc403)
        %tmp46_48 = arith.constant dense<32768> : tensor<1024xi32> loc(#loc403)
        %tmp47 = arith.extsi %tmp46_48 : tensor<1024xi32> to tensor<1024xi64> loc(#loc404)
        %tmp47_49 = arith.addi %tmp45_47, %tmp47 : tensor<1024xi64> loc(#loc404)
        %tmp48 = arith.constant 0 : i32 loc(#loc405)
        %tmp48_50 = arith.extsi %tmp48 : i32 to i64 loc(#loc405)
        %tmp48_51 = tt.splat %tmp48_50 : i64 -> tensor<1024xi64> loc(#loc405)
        %tmp48_52 = arith.cmpi slt, %tmp45_47, %tmp48_51 : tensor<1024xi64> loc(#loc405)
        %tmp49 = arith.select %tmp48_52, %tmp47_49, %tmp45_47 : tensor<1024xi1>, tensor<1024xi64> loc(#loc406)
        %c0_i32 = arith.constant 0 : i32 loc(#loc161)
        %2 = arith.extsi %c0_i32 : i32 to i64 loc(#loc161)
        %3 = tt.splat %2 : i64 -> tensor<1024xi64> loc(#loc161)
        %4 = arith.cmpi sle, %3, %tmp49 : tensor<1024xi64> loc(#loc161)
        %c32768_i32 = arith.constant 32768 : i32 loc(#loc162)
        %5 = arith.extsi %c32768_i32 : i32 to i64 loc(#loc162)
        %6 = tt.splat %5 : i64 -> tensor<1024xi64> loc(#loc162)
        %7 = arith.cmpi slt, %tmp49, %6 : tensor<1024xi64> loc(#loc162)
        %8 = arith.andi %4, %7 : tensor<1024xi1> loc(#loc163)
        %9 = arith.andi %tmp43_24, %xmask_5 : tensor<1024xi1> loc(#loc164)
        %true = arith.constant true loc(#loc165)
        %cst = arith.constant dense<true> : tensor<1024xi1> loc(#loc165)
        %10 = arith.xori %9, %cst : tensor<1024xi1> loc(#loc165)
        %11 = arith.ori %8, %10 : tensor<1024xi1> loc(#loc166)
        tt.assert %11, "index out of bounds: 0 <= tl.broadcast_to(tmp49, [XBLOCK]) < 32768" : tensor<1024xi1> loc(#loc167)
        %tmp51 = arith.constant 64 : i32 loc(#loc407)
        %tmp51_53 = arith.constant 64 : i64 loc(#loc407)
        %tmp51_54 = arith.constant dense<64> : tensor<1024xi64> loc(#loc407)
        %tmp51_55 = arith.muli %tmp51_54, %tmp49 : tensor<1024xi64> loc(#loc407)
        %tmp51_56 = arith.extsi %x5_8 : tensor<1024xi32> to tensor<1024xi64> loc(#loc408)
        %tmp51_57 = arith.addi %tmp51_55, %tmp51_56 : tensor<1024xi64> loc(#loc408)
        %tmp51_58 = tt.splat %in_ptr2 : !tt.ptr<bf16> -> tensor<1024x!tt.ptr<bf16>> loc(#loc409)
        %tmp51_59 = tt.addptr %tmp51_58, %tmp51_57 : tensor<1024x!tt.ptr<bf16>>, tensor<1024xi64> loc(#loc409)
        %tmp51_60 = arith.andi %tmp43_24, %xmask_5 : tensor<1024xi1> loc(#loc410)
        %tmp51_61 = arith.constant 0.000000e+00 : f32 loc(#loc411)
        %tmp51_62 = arith.constant dense<0.000000e+00> : tensor<1024xf32> loc(#loc411)
        %tmp51_63 = arith.truncf %tmp51_62 : tensor<1024xf32> to tensor<1024xbf16> loc(#loc411)
        %tmp51_64 = tt.load %tmp51_59, %tmp51_60, %tmp51_63 evictionPolicy = evict_last : tensor<1024x!tt.ptr<bf16>> loc(#loc411)
        %tmp51_65 = arith.extf %tmp51_64 : tensor<1024xbf16> to tensor<1024xf32> loc(#loc412)
        %tmp52 = arith.mulf %tmp44_41, %tmp51_65 : tensor<1024xf32> loc(#loc413)
        %tmp53 = arith.constant 64 : i32 loc(#loc414)
        %tmp53_66 = arith.constant 64 : i32 loc(#loc414)
        %tmp53_67 = arith.constant dense<64> : tensor<1024xi32> loc(#loc414)
        %tmp53_68 = arith.muli %tmp53_67, %x6_15 : tensor<1024xi32> loc(#loc414)
        %tmp53_69 = arith.constant 32 : i32 loc(#loc415)
        %tmp53_70 = arith.constant 32 : i32 loc(#loc415)
        %tmp53_71 = arith.constant dense<32> : tensor<1024xi32> loc(#loc415)
        %tmp53_72 = arith.addi %tmp53_71, %tmp53_68 : tensor<1024xi32> loc(#loc415)
        %tmp53_73 = arith.constant 1152 : i32 loc(#loc416)
        %tmp53_74 = arith.constant 1152 : i32 loc(#loc416)
        %tmp53_75 = arith.constant dense<1152> : tensor<1024xi32> loc(#loc416)
        %tmp53_76 = arith.muli %tmp53_75, %x7_18 : tensor<1024xi32> loc(#loc416)
        %tmp53_77 = arith.addi %tmp53_72, %tmp53_76 : tensor<1024xi32> loc(#loc417)
        %tmp53_78 = arith.addi %tmp53_77, %x5_8 : tensor<1024xi32> loc(#loc418)
        %tmp53_79 = tt.splat %in_ptr0 : !tt.ptr<bf16> -> tensor<1024x!tt.ptr<bf16>> loc(#loc419)
        %tmp53_80 = tt.addptr %tmp53_79, %tmp53_78 : tensor<1024x!tt.ptr<bf16>>, tensor<1024xi32> loc(#loc419)
        %tmp53_81 = arith.andi %tmp43_24, %xmask_5 : tensor<1024xi1> loc(#loc420)
        %tmp53_82 = arith.constant 0.000000e+00 : f32 loc(#loc421)
        %tmp53_83 = arith.constant dense<0.000000e+00> : tensor<1024xf32> loc(#loc421)
        %tmp53_84 = arith.truncf %tmp53_83 : tensor<1024xf32> to tensor<1024xbf16> loc(#loc421)
        %tmp53_85 = tt.load %tmp53_80, %tmp53_81, %tmp53_84 evictionPolicy = evict_last : tensor<1024x!tt.ptr<bf16>> loc(#loc421)
        %tmp53_86 = arith.extf %tmp53_85 : tensor<1024xbf16> to tensor<1024xf32> loc(#loc422)
        %tmp54 = arith.constant 64 : i32 loc(#loc423)
        %tmp54_87 = arith.constant 64 : i64 loc(#loc423)
        %tmp54_88 = arith.constant dense<64> : tensor<1024xi64> loc(#loc423)
        %tmp54_89 = arith.muli %tmp54_88, %tmp49 : tensor<1024xi64> loc(#loc423)
        %tmp54_90 = arith.constant 32 : i32 loc(#loc424)
        %tmp54_91 = arith.constant 32 : i64 loc(#loc424)
        %tmp54_92 = arith.constant dense<32> : tensor<1024xi64> loc(#loc424)
        %tmp54_93 = arith.addi %tmp54_92, %tmp54_89 : tensor<1024xi64> loc(#loc424)
        %tmp54_94 = arith.extsi %x5_8 : tensor<1024xi32> to tensor<1024xi64> loc(#loc425)
        %tmp54_95 = arith.addi %tmp54_93, %tmp54_94 : tensor<1024xi64> loc(#loc425)
        %tmp54_96 = tt.splat %in_ptr2 : !tt.ptr<bf16> -> tensor<1024x!tt.ptr<bf16>> loc(#loc426)
        %tmp54_97 = tt.addptr %tmp54_96, %tmp54_95 : tensor<1024x!tt.ptr<bf16>>, tensor<1024xi64> loc(#loc426)
        %tmp54_98 = arith.andi %tmp43_24, %xmask_5 : tensor<1024xi1> loc(#loc427)
        %tmp54_99 = arith.constant 0.000000e+00 : f32 loc(#loc428)
        %tmp54_100 = arith.constant dense<0.000000e+00> : tensor<1024xf32> loc(#loc428)
        %tmp54_101 = arith.truncf %tmp54_100 : tensor<1024xf32> to tensor<1024xbf16> loc(#loc428)
        %tmp54_102 = tt.load %tmp54_97, %tmp54_98, %tmp54_101 evictionPolicy = evict_last : tensor<1024x!tt.ptr<bf16>> loc(#loc428)
        %tmp54_103 = arith.extf %tmp54_102 : tensor<1024xbf16> to tensor<1024xf32> loc(#loc429)
        %tmp55 = arith.mulf %tmp53_86, %tmp54_103 : tensor<1024xf32> loc(#loc430)
        %tmp56 = arith.subf %tmp52, %tmp55 : tensor<1024xf32> loc(#loc431)
        %tmp57 = arith.constant 0.000000e+00 : f32 loc(#loc432)
        %tmp57_104 = arith.constant dense<0.000000e+00> : tensor<1024xf32> loc(#loc432)
        %tmp58 = arith.select %tmp43_24, %tmp56, %tmp57_104 : tensor<1024xi1>, tensor<1024xf32> loc(#loc433)
        %tmp59 = arith.extsi %x5_8 : tensor<1024xi32> to tensor<1024xi64> loc(#loc434)
        %tmp59_105 = arith.constant dense<32> : tensor<1024xi64> loc(#loc434)
        %tmp59_106 = arith.cmpi sge, %tmp59, %tmp59_105 : tensor<1024xi64> loc(#loc434)
        %tmp60 = arith.constant 64 : i64 loc(#loc435)
        %tmp60_107 = arith.constant dense<64> : tensor<1xi64> loc(#loc435)
        %tmp61 = arith.extsi %x5_8 : tensor<1024xi32> to tensor<1024xi64> loc(#loc436)
        %tmp61_108 = arith.constant dense<64> : tensor<1024xi64> loc(#loc436)
        %tmp61_109 = arith.cmpi slt, %tmp61, %tmp61_108 : tensor<1024xi64> loc(#loc436)
        %tmp62 = arith.constant 64 : i32 loc(#loc437)
        %tmp62_110 = arith.constant 64 : i32 loc(#loc437)
        %tmp62_111 = arith.constant dense<64> : tensor<1024xi32> loc(#loc437)
        %tmp62_112 = arith.muli %tmp62_111, %x6_15 : tensor<1024xi32> loc(#loc437)
        %tmp62_113 = arith.constant 32 : i32 loc(#loc438)
        %tmp62_114 = arith.constant 32 : i32 loc(#loc438)
        %tmp62_115 = arith.constant dense<32> : tensor<1024xi32> loc(#loc438)
        %tmp62_116 = arith.addi %tmp62_115, %tmp62_112 : tensor<1024xi32> loc(#loc438)
        %tmp62_117 = arith.constant 1152 : i32 loc(#loc439)
        %tmp62_118 = arith.constant 1152 : i32 loc(#loc439)
        %tmp62_119 = arith.constant dense<1152> : tensor<1024xi32> loc(#loc439)
        %tmp62_120 = arith.muli %tmp62_119, %x7_18 : tensor<1024xi32> loc(#loc439)
        %tmp62_121 = arith.addi %tmp62_116, %tmp62_120 : tensor<1024xi32> loc(#loc440)
        %tmp62_122 = arith.constant -32 : i32 loc(#loc441)
        %tmp62_123 = arith.constant -32 : i32 loc(#loc441)
        %tmp62_124 = arith.constant dense<-32> : tensor<1024xi32> loc(#loc441)
        %tmp62_125 = arith.addi %tmp62_124, %x5_8 : tensor<1024xi32> loc(#loc441)
        %tmp62_126 = arith.addi %tmp62_121, %tmp62_125 : tensor<1024xi32> loc(#loc442)
        %tmp62_127 = tt.splat %in_ptr0 : !tt.ptr<bf16> -> tensor<1024x!tt.ptr<bf16>> loc(#loc443)
        %tmp62_128 = tt.addptr %tmp62_127, %tmp62_126 : tensor<1024x!tt.ptr<bf16>>, tensor<1024xi32> loc(#loc443)
        %tmp62_129 = arith.andi %tmp59_106, %xmask_5 : tensor<1024xi1> loc(#loc444)
        %tmp62_130 = arith.constant 0.000000e+00 : f32 loc(#loc445)
        %tmp62_131 = arith.constant dense<0.000000e+00> : tensor<1024xf32> loc(#loc445)
        %tmp62_132 = arith.truncf %tmp62_131 : tensor<1024xf32> to tensor<1024xbf16> loc(#loc445)
        %tmp62_133 = tt.load %tmp62_128, %tmp62_129, %tmp62_132 evictionPolicy = evict_last : tensor<1024x!tt.ptr<bf16>> loc(#loc445)
        %tmp62_134 = arith.extf %tmp62_133 : tensor<1024xbf16> to tensor<1024xf32> loc(#loc446)
        %tmp63 = tt.splat %in_ptr1 : !tt.ptr<i64> -> tensor<1024x!tt.ptr<i64>> loc(#loc447)
        %tmp63_135 = tt.addptr %tmp63, %x7_18 : tensor<1024x!tt.ptr<i64>>, tensor<1024xi32> loc(#loc447)
        %tmp63_136 = arith.andi %tmp59_106, %xmask_5 : tensor<1024xi1> loc(#loc448)
        %tmp63_137 = arith.constant 0.000000e+00 : f32 loc(#loc449)
        %tmp63_138 = arith.constant dense<0.000000e+00> : tensor<1024xf32> loc(#loc449)
        %tmp63_139 = arith.fptosi %tmp63_138 : tensor<1024xf32> to tensor<1024xi64> loc(#loc449)
        %tmp63_140 = tt.load %tmp63_135, %tmp63_136, %tmp63_139 evictionPolicy = evict_last : tensor<1024x!tt.ptr<i64>> loc(#loc449)
        %tmp64 = arith.constant 32768 : i32 loc(#loc450)
        %tmp64_141 = arith.constant dense<32768> : tensor<1024xi32> loc(#loc450)
        %tmp65 = arith.extsi %tmp64_141 : tensor<1024xi32> to tensor<1024xi64> loc(#loc451)
        %tmp65_142 = arith.addi %tmp63_140, %tmp65 : tensor<1024xi64> loc(#loc451)
        %tmp66 = arith.constant 0 : i32 loc(#loc452)
        %tmp66_143 = arith.extsi %tmp66 : i32 to i64 loc(#loc452)
        %tmp66_144 = tt.splat %tmp66_143 : i64 -> tensor<1024xi64> loc(#loc452)
        %tmp66_145 = arith.cmpi slt, %tmp63_140, %tmp66_144 : tensor<1024xi64> loc(#loc452)
        %tmp67 = arith.select %tmp66_145, %tmp65_142, %tmp63_140 : tensor<1024xi1>, tensor<1024xi64> loc(#loc453)
        %c0_i32_146 = arith.constant 0 : i32 loc(#loc215)
        %12 = arith.extsi %c0_i32_146 : i32 to i64 loc(#loc215)
        %13 = tt.splat %12 : i64 -> tensor<1024xi64> loc(#loc215)
        %14 = arith.cmpi sle, %13, %tmp67 : tensor<1024xi64> loc(#loc215)
        %c32768_i32_147 = arith.constant 32768 : i32 loc(#loc216)
        %15 = arith.extsi %c32768_i32_147 : i32 to i64 loc(#loc216)
        %16 = tt.splat %15 : i64 -> tensor<1024xi64> loc(#loc216)
        %17 = arith.cmpi slt, %tmp67, %16 : tensor<1024xi64> loc(#loc216)
        %18 = arith.andi %14, %17 : tensor<1024xi1> loc(#loc217)
        %19 = arith.andi %tmp59_106, %xmask_5 : tensor<1024xi1> loc(#loc218)
        %true_148 = arith.constant true loc(#loc219)
        %cst_149 = arith.constant dense<true> : tensor<1024xi1> loc(#loc219)
        %20 = arith.xori %19, %cst_149 : tensor<1024xi1> loc(#loc219)
        %21 = arith.ori %18, %20 : tensor<1024xi1> loc(#loc220)
        tt.assert %21, "index out of bounds: 0 <= tl.broadcast_to(tmp67, [XBLOCK]) < 32768" : tensor<1024xi1> loc(#loc221)
        %tmp69 = arith.constant 64 : i32 loc(#loc454)
        %tmp69_150 = arith.constant 64 : i64 loc(#loc454)
        %tmp69_151 = arith.constant dense<64> : tensor<1024xi64> loc(#loc454)
        %tmp69_152 = arith.muli %tmp69_151, %tmp67 : tensor<1024xi64> loc(#loc454)
        %tmp69_153 = arith.constant -32 : i32 loc(#loc455)
        %tmp69_154 = arith.constant -32 : i32 loc(#loc455)
        %tmp69_155 = arith.constant dense<-32> : tensor<1024xi32> loc(#loc455)
        %tmp69_156 = arith.addi %tmp69_155, %x5_8 : tensor<1024xi32> loc(#loc455)
        %tmp69_157 = arith.extsi %tmp69_156 : tensor<1024xi32> to tensor<1024xi64> loc(#loc456)
        %tmp69_158 = arith.addi %tmp69_152, %tmp69_157 : tensor<1024xi64> loc(#loc456)
        %tmp69_159 = tt.splat %in_ptr2 : !tt.ptr<bf16> -> tensor<1024x!tt.ptr<bf16>> loc(#loc457)
        %tmp69_160 = tt.addptr %tmp69_159, %tmp69_158 : tensor<1024x!tt.ptr<bf16>>, tensor<1024xi64> loc(#loc457)
        %tmp69_161 = arith.andi %tmp59_106, %xmask_5 : tensor<1024xi1> loc(#loc458)
        %tmp69_162 = arith.constant 0.000000e+00 : f32 loc(#loc459)
        %tmp69_163 = arith.constant dense<0.000000e+00> : tensor<1024xf32> loc(#loc459)
        %tmp69_164 = arith.truncf %tmp69_163 : tensor<1024xf32> to tensor<1024xbf16> loc(#loc459)
        %tmp69_165 = tt.load %tmp69_160, %tmp69_161, %tmp69_164 evictionPolicy = evict_last : tensor<1024x!tt.ptr<bf16>> loc(#loc459)
        %tmp69_166 = arith.extf %tmp69_165 : tensor<1024xbf16> to tensor<1024xf32> loc(#loc460)
        %tmp70 = arith.mulf %tmp62_134, %tmp69_166 : tensor<1024xf32> loc(#loc461)
        %tmp71 = arith.constant 64 : i32 loc(#loc462)
        %tmp71_167 = arith.constant 64 : i32 loc(#loc462)
        %tmp71_168 = arith.constant dense<64> : tensor<1024xi32> loc(#loc462)
        %tmp71_169 = arith.muli %tmp71_168, %x6_15 : tensor<1024xi32> loc(#loc462)
        %tmp71_170 = arith.constant 1152 : i32 loc(#loc463)
        %tmp71_171 = arith.constant 1152 : i32 loc(#loc463)
        %tmp71_172 = arith.constant dense<1152> : tensor<1024xi32> loc(#loc463)
        %tmp71_173 = arith.muli %tmp71_172, %x7_18 : tensor<1024xi32> loc(#loc463)
        %tmp71_174 = arith.addi %tmp71_169, %tmp71_173 : tensor<1024xi32> loc(#loc464)
        %tmp71_175 = arith.constant -32 : i32 loc(#loc465)
        %tmp71_176 = arith.constant -32 : i32 loc(#loc465)
        %tmp71_177 = arith.constant dense<-32> : tensor<1024xi32> loc(#loc465)
        %tmp71_178 = arith.addi %tmp71_177, %x5_8 : tensor<1024xi32> loc(#loc465)
        %tmp71_179 = arith.addi %tmp71_174, %tmp71_178 : tensor<1024xi32> loc(#loc466)
        %tmp71_180 = tt.splat %in_ptr0 : !tt.ptr<bf16> -> tensor<1024x!tt.ptr<bf16>> loc(#loc467)
        %tmp71_181 = tt.addptr %tmp71_180, %tmp71_179 : tensor<1024x!tt.ptr<bf16>>, tensor<1024xi32> loc(#loc467)
        %tmp71_182 = arith.andi %tmp59_106, %xmask_5 : tensor<1024xi1> loc(#loc468)
        %tmp71_183 = arith.constant 0.000000e+00 : f32 loc(#loc469)
        %tmp71_184 = arith.constant dense<0.000000e+00> : tensor<1024xf32> loc(#loc469)
        %tmp71_185 = arith.truncf %tmp71_184 : tensor<1024xf32> to tensor<1024xbf16> loc(#loc469)
        %tmp71_186 = tt.load %tmp71_181, %tmp71_182, %tmp71_185 evictionPolicy = evict_last : tensor<1024x!tt.ptr<bf16>> loc(#loc469)
        %tmp71_187 = arith.extf %tmp71_186 : tensor<1024xbf16> to tensor<1024xf32> loc(#loc470)
        %tmp72 = arith.constant 64 : i32 loc(#loc471)
        %tmp72_188 = arith.constant 64 : i64 loc(#loc471)
        %tmp72_189 = arith.constant dense<64> : tensor<1024xi64> loc(#loc471)
        %tmp72_190 = arith.muli %tmp72_189, %tmp67 : tensor<1024xi64> loc(#loc471)
        %tmp72_191 = arith.constant 32 : i32 loc(#loc472)
        %tmp72_192 = arith.constant 32 : i64 loc(#loc472)
        %tmp72_193 = arith.constant dense<32> : tensor<1024xi64> loc(#loc472)
        %tmp72_194 = arith.addi %tmp72_193, %tmp72_190 : tensor<1024xi64> loc(#loc472)
        %tmp72_195 = arith.constant -32 : i32 loc(#loc473)
        %tmp72_196 = arith.constant -32 : i32 loc(#loc473)
        %tmp72_197 = arith.constant dense<-32> : tensor<1024xi32> loc(#loc473)
        %tmp72_198 = arith.addi %tmp72_197, %x5_8 : tensor<1024xi32> loc(#loc473)
        %tmp72_199 = arith.extsi %tmp72_198 : tensor<1024xi32> to tensor<1024xi64> loc(#loc474)
        %tmp72_200 = arith.addi %tmp72_194, %tmp72_199 : tensor<1024xi64> loc(#loc474)
        %tmp72_201 = tt.splat %in_ptr2 : !tt.ptr<bf16> -> tensor<1024x!tt.ptr<bf16>> loc(#loc475)
        %tmp72_202 = tt.addptr %tmp72_201, %tmp72_200 : tensor<1024x!tt.ptr<bf16>>, tensor<1024xi64> loc(#loc475)
        %tmp72_203 = arith.andi %tmp59_106, %xmask_5 : tensor<1024xi1> loc(#loc476)
        %tmp72_204 = arith.constant 0.000000e+00 : f32 loc(#loc477)
        %tmp72_205 = arith.constant dense<0.000000e+00> : tensor<1024xf32> loc(#loc477)
        %tmp72_206 = arith.truncf %tmp72_205 : tensor<1024xf32> to tensor<1024xbf16> loc(#loc477)
        %tmp72_207 = tt.load %tmp72_202, %tmp72_203, %tmp72_206 evictionPolicy = evict_last : tensor<1024x!tt.ptr<bf16>> loc(#loc477)
        %tmp72_208 = arith.extf %tmp72_207 : tensor<1024xbf16> to tensor<1024xf32> loc(#loc478)
        %tmp73 = arith.mulf %tmp71_187, %tmp72_208 : tensor<1024xf32> loc(#loc479)
        %tmp74 = arith.addf %tmp70, %tmp73 : tensor<1024xf32> loc(#loc480)
        %tmp75 = arith.constant 0.000000e+00 : f32 loc(#loc481)
        %tmp75_209 = arith.constant dense<0.000000e+00> : tensor<1024xf32> loc(#loc481)
        %tmp76 = arith.select %tmp59_106, %tmp74, %tmp75_209 : tensor<1024xi1>, tensor<1024xf32> loc(#loc482)
        %tmp77 = arith.select %tmp43_24, %tmp58, %tmp76 : tensor<1024xi1>, tensor<1024xf32> loc(#loc483)
        %22 = tt.splat %out_ptr1 : !tt.ptr<bf16> -> tensor<1024x!tt.ptr<bf16>> loc(#loc252)
        %23 = tt.addptr %22, %xindex_4 : tensor<1024x!tt.ptr<bf16>>, tensor<1024xi32> loc(#loc252)
        %24 = arith.truncf %tmp77 : tensor<1024xf32> to tensor<1024xbf16> loc(#loc253)
        tt.store %23, %24, %xmask_5 : tensor<1024x!tt.ptr<bf16>> loc(#loc253)
      } else {
      } loc(#loc131)
    } loc(#loc6)
    tt.return loc(#loc254)
  } loc(#loc)
  tt.func private @"triton.language.standard.cdiv__i32__(1,)cconstexpr_1024_"(%x: i32 loc("x"(#loc255))) -> i32 attributes {noinline = false} {
    %c1023_i32 = arith.constant 1023 : i32 loc(#loc256)
    %c1023_i32_0 = arith.constant 1023 : i32 loc(#loc256)
    %0 = arith.addi %x, %c1023_i32_0 : i32 loc(#loc256)
    %c1024_i32 = arith.constant 1024 : i32 loc(#loc257)
    %c1024_i32_1 = arith.constant 1024 : i32 loc(#loc257)
    %1 = arith.divsi %0, %c1024_i32_1 : i32 loc(#loc257)
    tt.return %1 : i32 loc(#loc258)
  ^bb1:  // no predecessors
    %2 = ub.poison : i32 loc(#loc259)
    tt.return %2 : i32 loc(#loc259)
  } loc(#loc255)
} loc(#loc)
#loc1 = loc("/tmp/torchinductor_root/h4/ch46e6u6iqxr32wyygbmhw6mjamu2o4v3idys2oj3mjxnucyjbdj.py":21:24)
#loc2 = loc("/tmp/torchinductor_root/h4/ch46e6u6iqxr32wyygbmhw6mjamu2o4v3idys2oj3mjxnucyjbdj.py":22:38)
#loc3 = loc("/tmp/torchinductor_root/h4/ch46e6u6iqxr32wyygbmhw6mjamu2o4v3idys2oj3mjxnucyjbdj.py":23:54)
#loc4 = loc("/tmp/torchinductor_root/h4/ch46e6u6iqxr32wyygbmhw6mjamu2o4v3idys2oj3mjxnucyjbdj.py":23:36)
#loc5 = loc("/tmp/torchinductor_root/h4/ch46e6u6iqxr32wyygbmhw6mjamu2o4v3idys2oj3mjxnucyjbdj.py":24:13)
#loc6 = loc("/tmp/torchinductor_root/h4/ch46e6u6iqxr32wyygbmhw6mjamu2o4v3idys2oj3mjxnucyjbdj.py":24:7)
#loc7 = loc("/tmp/torchinductor_root/h4/ch46e6u6iqxr32wyygbmhw6mjamu2o4v3idys2oj3mjxnucyjbdj.py":26:19)
#loc8 = loc("/tmp/torchinductor_root/h4/ch46e6u6iqxr32wyygbmhw6mjamu2o4v3idys2oj3mjxnucyjbdj.py":27:31)
#loc9 = loc("/tmp/torchinductor_root/h4/ch46e6u6iqxr32wyygbmhw6mjamu2o4v3idys2oj3mjxnucyjbdj.py":28:40)
#loc10 = loc("/tmp/torchinductor_root/h4/ch46e6u6iqxr32wyygbmhw6mjamu2o4v3idys2oj3mjxnucyjbdj.py":28:27)
#loc11 = loc("/tmp/torchinductor_root/h4/ch46e6u6iqxr32wyygbmhw6mjamu2o4v3idys2oj3mjxnucyjbdj.py":29:25)
#loc12 = loc("/tmp/torchinductor_root/h4/ch46e6u6iqxr32wyygbmhw6mjamu2o4v3idys2oj3mjxnucyjbdj.py":30:23)
#loc13 = loc("/tmp/torchinductor_root/h4/ch46e6u6iqxr32wyygbmhw6mjamu2o4v3idys2oj3mjxnucyjbdj.py":31:25)
#loc14 = loc("/tmp/torchinductor_root/h4/ch46e6u6iqxr32wyygbmhw6mjamu2o4v3idys2oj3mjxnucyjbdj.py":31:31)
#loc15 = loc("/tmp/torchinductor_root/h4/ch46e6u6iqxr32wyygbmhw6mjamu2o4v3idys2oj3mjxnucyjbdj.py":32:23)
#loc16 = loc("/tmp/torchinductor_root/h4/ch46e6u6iqxr32wyygbmhw6mjamu2o4v3idys2oj3mjxnucyjbdj.py":35:31)
#loc17 = loc("/tmp/torchinductor_root/h4/ch46e6u6iqxr32wyygbmhw6mjamu2o4v3idys2oj3mjxnucyjbdj.py":36:23)
#loc18 = loc("/tmp/torchinductor_root/h4/ch46e6u6iqxr32wyygbmhw6mjamu2o4v3idys2oj3mjxnucyjbdj.py":37:32)
#loc19 = loc("/tmp/torchinductor_root/h4/ch46e6u6iqxr32wyygbmhw6mjamu2o4v3idys2oj3mjxnucyjbdj.py":38:22)
#loc20 = loc("/tmp/torchinductor_root/h4/ch46e6u6iqxr32wyygbmhw6mjamu2o4v3idys2oj3mjxnucyjbdj.py":39:43)
#loc21 = loc("/tmp/torchinductor_root/h4/ch46e6u6iqxr32wyygbmhw6mjamu2o4v3idys2oj3mjxnucyjbdj.py":39:40)
#loc22 = loc("/tmp/torchinductor_root/h4/ch46e6u6iqxr32wyygbmhw6mjamu2o4v3idys2oj3mjxnucyjbdj.py":39:53)
#loc23 = loc("/tmp/torchinductor_root/h4/ch46e6u6iqxr32wyygbmhw6mjamu2o4v3idys2oj3mjxnucyjbdj.py":39:48)
#loc24 = loc("/tmp/torchinductor_root/h4/ch46e6u6iqxr32wyygbmhw6mjamu2o4v3idys2oj3mjxnucyjbdj.py":39:59)
#loc25 = loc("/tmp/torchinductor_root/h4/ch46e6u6iqxr32wyygbmhw6mjamu2o4v3idys2oj3mjxnucyjbdj.py":39:34)
#loc26 = loc("/tmp/torchinductor_root/h4/ch46e6u6iqxr32wyygbmhw6mjamu2o4v3idys2oj3mjxnucyjbdj.py":39:72)
#loc27 = loc("/tmp/torchinductor_root/h4/ch46e6u6iqxr32wyygbmhw6mjamu2o4v3idys2oj3mjxnucyjbdj.py":39:65)
#loc28 = loc("/tmp/torchinductor_root/h4/ch46e6u6iqxr32wyygbmhw6mjamu2o4v3idys2oj3mjxnucyjbdj.py":39:123)
#loc29 = loc("/tmp/torchinductor_root/h4/ch46e6u6iqxr32wyygbmhw6mjamu2o4v3idys2oj3mjxnucyjbdj.py":40:34)
#loc30 = loc("/tmp/torchinductor_root/h4/ch46e6u6iqxr32wyygbmhw6mjamu2o4v3idys2oj3mjxnucyjbdj.py":40:46)
#loc31 = loc("/tmp/torchinductor_root/h4/ch46e6u6iqxr32wyygbmhw6mjamu2o4v3idys2oj3mjxnucyjbdj.py":40:39)
#loc32 = loc("/tmp/torchinductor_root/h4/ch46e6u6iqxr32wyygbmhw6mjamu2o4v3idys2oj3mjxnucyjbdj.py":41:40)
#loc33 = loc("/tmp/torchinductor_root/h4/ch46e6u6iqxr32wyygbmhw6mjamu2o4v3idys2oj3mjxnucyjbdj.py":42:22)
#loc34 = loc("/tmp/torchinductor_root/h4/ch46e6u6iqxr32wyygbmhw6mjamu2o4v3idys2oj3mjxnucyjbdj.py":43:22)
#loc35 = loc("/tmp/torchinductor_root/h4/ch46e6u6iqxr32wyygbmhw6mjamu2o4v3idys2oj3mjxnucyjbdj.py":44:37)
#loc36 = loc("/tmp/torchinductor_root/h4/ch46e6u6iqxr32wyygbmhw6mjamu2o4v3idys2oj3mjxnucyjbdj.py":45:32)
#loc37 = loc("/tmp/torchinductor_root/h4/ch46e6u6iqxr32wyygbmhw6mjamu2o4v3idys2oj3mjxnucyjbdj.py":45:104)
#loc38 = loc("/tmp/torchinductor_root/h4/ch46e6u6iqxr32wyygbmhw6mjamu2o4v3idys2oj3mjxnucyjbdj.py":45:69)
#loc39 = loc("/tmp/torchinductor_root/h4/ch46e6u6iqxr32wyygbmhw6mjamu2o4v3idys2oj3mjxnucyjbdj.py":45:123)
#loc40 = loc("/tmp/torchinductor_root/h4/ch46e6u6iqxr32wyygbmhw6mjamu2o4v3idys2oj3mjxnucyjbdj.py":45:116)
#loc41 = loc("/tmp/torchinductor_root/h4/ch46e6u6iqxr32wyygbmhw6mjamu2o4v3idys2oj3mjxnucyjbdj.py":45:114)
#loc42 = loc("/tmp/torchinductor_root/h4/ch46e6u6iqxr32wyygbmhw6mjamu2o4v3idys2oj3mjxnucyjbdj.py":45:131)
#loc43 = loc("/tmp/torchinductor_root/h4/ch46e6u6iqxr32wyygbmhw6mjamu2o4v3idys2oj3mjxnucyjbdj.py":46:38)
#loc44 = loc("/tmp/torchinductor_root/h4/ch46e6u6iqxr32wyygbmhw6mjamu2o4v3idys2oj3mjxnucyjbdj.py":46:47)
#loc45 = loc("/tmp/torchinductor_root/h4/ch46e6u6iqxr32wyygbmhw6mjamu2o4v3idys2oj3mjxnucyjbdj.py":46:35)
#loc46 = loc("/tmp/torchinductor_root/h4/ch46e6u6iqxr32wyygbmhw6mjamu2o4v3idys2oj3mjxnucyjbdj.py":46:60)
#loc47 = loc("/tmp/torchinductor_root/h4/ch46e6u6iqxr32wyygbmhw6mjamu2o4v3idys2oj3mjxnucyjbdj.py":46:53)
#loc48 = loc("/tmp/torchinductor_root/h4/ch46e6u6iqxr32wyygbmhw6mjamu2o4v3idys2oj3mjxnucyjbdj.py":46:111)
#loc49 = loc("/tmp/torchinductor_root/h4/ch46e6u6iqxr32wyygbmhw6mjamu2o4v3idys2oj3mjxnucyjbdj.py":47:23)
#loc50 = loc("/tmp/torchinductor_root/h4/ch46e6u6iqxr32wyygbmhw6mjamu2o4v3idys2oj3mjxnucyjbdj.py":48:44)
#loc51 = loc("/tmp/torchinductor_root/h4/ch46e6u6iqxr32wyygbmhw6mjamu2o4v3idys2oj3mjxnucyjbdj.py":48:41)
#loc52 = loc("/tmp/torchinductor_root/h4/ch46e6u6iqxr32wyygbmhw6mjamu2o4v3idys2oj3mjxnucyjbdj.py":48:54)
#loc53 = loc("/tmp/torchinductor_root/h4/ch46e6u6iqxr32wyygbmhw6mjamu2o4v3idys2oj3mjxnucyjbdj.py":48:49)
#loc54 = loc("/tmp/torchinductor_root/h4/ch46e6u6iqxr32wyygbmhw6mjamu2o4v3idys2oj3mjxnucyjbdj.py":48:60)
#loc55 = loc("/tmp/torchinductor_root/h4/ch46e6u6iqxr32wyygbmhw6mjamu2o4v3idys2oj3mjxnucyjbdj.py":48:35)
#loc56 = loc("/tmp/torchinductor_root/h4/ch46e6u6iqxr32wyygbmhw6mjamu2o4v3idys2oj3mjxnucyjbdj.py":48:73)
#loc57 = loc("/tmp/torchinductor_root/h4/ch46e6u6iqxr32wyygbmhw6mjamu2o4v3idys2oj3mjxnucyjbdj.py":48:66)
#loc58 = loc("/tmp/torchinductor_root/h4/ch46e6u6iqxr32wyygbmhw6mjamu2o4v3idys2oj3mjxnucyjbdj.py":48:124)
#loc59 = loc("/tmp/torchinductor_root/h4/ch46e6u6iqxr32wyygbmhw6mjamu2o4v3idys2oj3mjxnucyjbdj.py":49:43)
#loc60 = loc("/tmp/torchinductor_root/h4/ch46e6u6iqxr32wyygbmhw6mjamu2o4v3idys2oj3mjxnucyjbdj.py":49:40)
#loc61 = loc("/tmp/torchinductor_root/h4/ch46e6u6iqxr32wyygbmhw6mjamu2o4v3idys2oj3mjxnucyjbdj.py":49:52)
#loc62 = loc("/tmp/torchinductor_root/h4/ch46e6u6iqxr32wyygbmhw6mjamu2o4v3idys2oj3mjxnucyjbdj.py":49:35)
#loc63 = loc("/tmp/torchinductor_root/h4/ch46e6u6iqxr32wyygbmhw6mjamu2o4v3idys2oj3mjxnucyjbdj.py":49:65)
#loc64 = loc("/tmp/torchinductor_root/h4/ch46e6u6iqxr32wyygbmhw6mjamu2o4v3idys2oj3mjxnucyjbdj.py":49:58)
#loc65 = loc("/tmp/torchinductor_root/h4/ch46e6u6iqxr32wyygbmhw6mjamu2o4v3idys2oj3mjxnucyjbdj.py":49:116)
#loc66 = loc("/tmp/torchinductor_root/h4/ch46e6u6iqxr32wyygbmhw6mjamu2o4v3idys2oj3mjxnucyjbdj.py":50:24)
#loc67 = loc("/tmp/torchinductor_root/h4/ch46e6u6iqxr32wyygbmhw6mjamu2o4v3idys2oj3mjxnucyjbdj.py":51:24)
#loc68 = loc("/tmp/torchinductor_root/h4/ch46e6u6iqxr32wyygbmhw6mjamu2o4v3idys2oj3mjxnucyjbdj.py":52:42)
#loc69 = loc("/tmp/torchinductor_root/h4/ch46e6u6iqxr32wyygbmhw6mjamu2o4v3idys2oj3mjxnucyjbdj.py":53:38)
#loc70 = loc("/tmp/torchinductor_root/h4/ch46e6u6iqxr32wyygbmhw6mjamu2o4v3idys2oj3mjxnucyjbdj.py":54:24)
#loc71 = loc("/tmp/torchinductor_root/h4/ch46e6u6iqxr32wyygbmhw6mjamu2o4v3idys2oj3mjxnucyjbdj.py":55:33)
#loc72 = loc("/tmp/torchinductor_root/h4/ch46e6u6iqxr32wyygbmhw6mjamu2o4v3idys2oj3mjxnucyjbdj.py":56:23)
#loc73 = loc("/tmp/torchinductor_root/h4/ch46e6u6iqxr32wyygbmhw6mjamu2o4v3idys2oj3mjxnucyjbdj.py":57:44)
#loc74 = loc("/tmp/torchinductor_root/h4/ch46e6u6iqxr32wyygbmhw6mjamu2o4v3idys2oj3mjxnucyjbdj.py":57:41)
#loc75 = loc("/tmp/torchinductor_root/h4/ch46e6u6iqxr32wyygbmhw6mjamu2o4v3idys2oj3mjxnucyjbdj.py":57:54)
#loc76 = loc("/tmp/torchinductor_root/h4/ch46e6u6iqxr32wyygbmhw6mjamu2o4v3idys2oj3mjxnucyjbdj.py":57:49)
#loc77 = loc("/tmp/torchinductor_root/h4/ch46e6u6iqxr32wyygbmhw6mjamu2o4v3idys2oj3mjxnucyjbdj.py":57:68)
#loc78 = loc("/tmp/torchinductor_root/h4/ch46e6u6iqxr32wyygbmhw6mjamu2o4v3idys2oj3mjxnucyjbdj.py":57:60)
#loc79 = loc("/tmp/torchinductor_root/h4/ch46e6u6iqxr32wyygbmhw6mjamu2o4v3idys2oj3mjxnucyjbdj.py":57:35)
#loc80 = loc("/tmp/torchinductor_root/h4/ch46e6u6iqxr32wyygbmhw6mjamu2o4v3idys2oj3mjxnucyjbdj.py":57:82)
#loc81 = loc("/tmp/torchinductor_root/h4/ch46e6u6iqxr32wyygbmhw6mjamu2o4v3idys2oj3mjxnucyjbdj.py":57:74)
#loc82 = loc("/tmp/torchinductor_root/h4/ch46e6u6iqxr32wyygbmhw6mjamu2o4v3idys2oj3mjxnucyjbdj.py":57:133)
#loc83 = loc("/tmp/torchinductor_root/h4/ch46e6u6iqxr32wyygbmhw6mjamu2o4v3idys2oj3mjxnucyjbdj.py":58:35)
#loc84 = loc("/tmp/torchinductor_root/h4/ch46e6u6iqxr32wyygbmhw6mjamu2o4v3idys2oj3mjxnucyjbdj.py":58:48)
#loc85 = loc("/tmp/torchinductor_root/h4/ch46e6u6iqxr32wyygbmhw6mjamu2o4v3idys2oj3mjxnucyjbdj.py":58:40)
#loc86 = loc("/tmp/torchinductor_root/h4/ch46e6u6iqxr32wyygbmhw6mjamu2o4v3idys2oj3mjxnucyjbdj.py":59:41)
#loc87 = loc("/tmp/torchinductor_root/h4/ch46e6u6iqxr32wyygbmhw6mjamu2o4v3idys2oj3mjxnucyjbdj.py":60:24)
#loc88 = loc("/tmp/torchinductor_root/h4/ch46e6u6iqxr32wyygbmhw6mjamu2o4v3idys2oj3mjxnucyjbdj.py":61:24)
#loc89 = loc("/tmp/torchinductor_root/h4/ch46e6u6iqxr32wyygbmhw6mjamu2o4v3idys2oj3mjxnucyjbdj.py":62:39)
#loc90 = loc("/tmp/torchinductor_root/h4/ch46e6u6iqxr32wyygbmhw6mjamu2o4v3idys2oj3mjxnucyjbdj.py":63:32)
#loc91 = loc("/tmp/torchinductor_root/h4/ch46e6u6iqxr32wyygbmhw6mjamu2o4v3idys2oj3mjxnucyjbdj.py":63:104)
#loc92 = loc("/tmp/torchinductor_root/h4/ch46e6u6iqxr32wyygbmhw6mjamu2o4v3idys2oj3mjxnucyjbdj.py":63:69)
#loc93 = loc("/tmp/torchinductor_root/h4/ch46e6u6iqxr32wyygbmhw6mjamu2o4v3idys2oj3mjxnucyjbdj.py":63:124)
#loc94 = loc("/tmp/torchinductor_root/h4/ch46e6u6iqxr32wyygbmhw6mjamu2o4v3idys2oj3mjxnucyjbdj.py":63:116)
#loc95 = loc("/tmp/torchinductor_root/h4/ch46e6u6iqxr32wyygbmhw6mjamu2o4v3idys2oj3mjxnucyjbdj.py":63:114)
#loc96 = loc("/tmp/torchinductor_root/h4/ch46e6u6iqxr32wyygbmhw6mjamu2o4v3idys2oj3mjxnucyjbdj.py":63:132)
#loc97 = loc("/tmp/torchinductor_root/h4/ch46e6u6iqxr32wyygbmhw6mjamu2o4v3idys2oj3mjxnucyjbdj.py":64:38)
#loc98 = loc("/tmp/torchinductor_root/h4/ch46e6u6iqxr32wyygbmhw6mjamu2o4v3idys2oj3mjxnucyjbdj.py":64:55)
#loc99 = loc("/tmp/torchinductor_root/h4/ch46e6u6iqxr32wyygbmhw6mjamu2o4v3idys2oj3mjxnucyjbdj.py":64:47)
#loc100 = loc("/tmp/torchinductor_root/h4/ch46e6u6iqxr32wyygbmhw6mjamu2o4v3idys2oj3mjxnucyjbdj.py":64:35)
#loc101 = loc("/tmp/torchinductor_root/h4/ch46e6u6iqxr32wyygbmhw6mjamu2o4v3idys2oj3mjxnucyjbdj.py":64:69)
#loc102 = loc("/tmp/torchinductor_root/h4/ch46e6u6iqxr32wyygbmhw6mjamu2o4v3idys2oj3mjxnucyjbdj.py":64:61)
#loc103 = loc("/tmp/torchinductor_root/h4/ch46e6u6iqxr32wyygbmhw6mjamu2o4v3idys2oj3mjxnucyjbdj.py":64:120)
#loc104 = loc("/tmp/torchinductor_root/h4/ch46e6u6iqxr32wyygbmhw6mjamu2o4v3idys2oj3mjxnucyjbdj.py":65:24)
#loc105 = loc("/tmp/torchinductor_root/h4/ch46e6u6iqxr32wyygbmhw6mjamu2o4v3idys2oj3mjxnucyjbdj.py":66:44)
#loc106 = loc("/tmp/torchinductor_root/h4/ch46e6u6iqxr32wyygbmhw6mjamu2o4v3idys2oj3mjxnucyjbdj.py":66:41)
#loc107 = loc("/tmp/torchinductor_root/h4/ch46e6u6iqxr32wyygbmhw6mjamu2o4v3idys2oj3mjxnucyjbdj.py":66:54)
#loc108 = loc("/tmp/torchinductor_root/h4/ch46e6u6iqxr32wyygbmhw6mjamu2o4v3idys2oj3mjxnucyjbdj.py":66:49)
#loc109 = loc("/tmp/torchinductor_root/h4/ch46e6u6iqxr32wyygbmhw6mjamu2o4v3idys2oj3mjxnucyjbdj.py":66:68)
#loc110 = loc("/tmp/torchinductor_root/h4/ch46e6u6iqxr32wyygbmhw6mjamu2o4v3idys2oj3mjxnucyjbdj.py":66:60)
#loc111 = loc("/tmp/torchinductor_root/h4/ch46e6u6iqxr32wyygbmhw6mjamu2o4v3idys2oj3mjxnucyjbdj.py":66:35)
#loc112 = loc("/tmp/torchinductor_root/h4/ch46e6u6iqxr32wyygbmhw6mjamu2o4v3idys2oj3mjxnucyjbdj.py":66:82)
#loc113 = loc("/tmp/torchinductor_root/h4/ch46e6u6iqxr32wyygbmhw6mjamu2o4v3idys2oj3mjxnucyjbdj.py":66:74)
#loc114 = loc("/tmp/torchinductor_root/h4/ch46e6u6iqxr32wyygbmhw6mjamu2o4v3idys2oj3mjxnucyjbdj.py":66:133)
#loc115 = loc("/tmp/torchinductor_root/h4/ch46e6u6iqxr32wyygbmhw6mjamu2o4v3idys2oj3mjxnucyjbdj.py":67:43)
#loc116 = loc("/tmp/torchinductor_root/h4/ch46e6u6iqxr32wyygbmhw6mjamu2o4v3idys2oj3mjxnucyjbdj.py":67:40)
#loc117 = loc("/tmp/torchinductor_root/h4/ch46e6u6iqxr32wyygbmhw6mjamu2o4v3idys2oj3mjxnucyjbdj.py":67:60)
#loc118 = loc("/tmp/torchinductor_root/h4/ch46e6u6iqxr32wyygbmhw6mjamu2o4v3idys2oj3mjxnucyjbdj.py":67:52)
#loc119 = loc("/tmp/torchinductor_root/h4/ch46e6u6iqxr32wyygbmhw6mjamu2o4v3idys2oj3mjxnucyjbdj.py":67:35)
#loc120 = loc("/tmp/torchinductor_root/h4/ch46e6u6iqxr32wyygbmhw6mjamu2o4v3idys2oj3mjxnucyjbdj.py":67:74)
#loc121 = loc("/tmp/torchinductor_root/h4/ch46e6u6iqxr32wyygbmhw6mjamu2o4v3idys2oj3mjxnucyjbdj.py":67:66)
#loc122 = loc("/tmp/torchinductor_root/h4/ch46e6u6iqxr32wyygbmhw6mjamu2o4v3idys2oj3mjxnucyjbdj.py":67:125)
#loc123 = loc("/tmp/torchinductor_root/h4/ch46e6u6iqxr32wyygbmhw6mjamu2o4v3idys2oj3mjxnucyjbdj.py":68:24)
#loc124 = loc("/tmp/torchinductor_root/h4/ch46e6u6iqxr32wyygbmhw6mjamu2o4v3idys2oj3mjxnucyjbdj.py":69:24)
#loc125 = loc("/tmp/torchinductor_root/h4/ch46e6u6iqxr32wyygbmhw6mjamu2o4v3idys2oj3mjxnucyjbdj.py":70:42)
#loc126 = loc("/tmp/torchinductor_root/h4/ch46e6u6iqxr32wyygbmhw6mjamu2o4v3idys2oj3mjxnucyjbdj.py":71:39)
#loc127 = loc("/tmp/torchinductor_root/h4/ch46e6u6iqxr32wyygbmhw6mjamu2o4v3idys2oj3mjxnucyjbdj.py":72:38)
#loc128 = loc("/tmp/torchinductor_root/h4/ch46e6u6iqxr32wyygbmhw6mjamu2o4v3idys2oj3mjxnucyjbdj.py":73:29)
#loc129 = loc("/tmp/torchinductor_root/h4/ch46e6u6iqxr32wyygbmhw6mjamu2o4v3idys2oj3mjxnucyjbdj.py":73:41)
#loc130 = loc("/tmp/torchinductor_root/h4/ch46e6u6iqxr32wyygbmhw6mjamu2o4v3idys2oj3mjxnucyjbdj.py":74:15)
#loc131 = loc("/tmp/torchinductor_root/h4/ch46e6u6iqxr32wyygbmhw6mjamu2o4v3idys2oj3mjxnucyjbdj.py":74:9)
#loc132 = loc("/tmp/torchinductor_root/h4/ch46e6u6iqxr32wyygbmhw6mjamu2o4v3idys2oj3mjxnucyjbdj.py":75:27)
#loc133 = loc("/tmp/torchinductor_root/h4/ch46e6u6iqxr32wyygbmhw6mjamu2o4v3idys2oj3mjxnucyjbdj.py":76:19)
#loc134 = loc("/tmp/torchinductor_root/h4/ch46e6u6iqxr32wyygbmhw6mjamu2o4v3idys2oj3mjxnucyjbdj.py":77:31)
#loc135 = loc("/tmp/torchinductor_root/h4/ch46e6u6iqxr32wyygbmhw6mjamu2o4v3idys2oj3mjxnucyjbdj.py":78:40)
#loc136 = loc("/tmp/torchinductor_root/h4/ch46e6u6iqxr32wyygbmhw6mjamu2o4v3idys2oj3mjxnucyjbdj.py":78:27)
#loc137 = loc("/tmp/torchinductor_root/h4/ch46e6u6iqxr32wyygbmhw6mjamu2o4v3idys2oj3mjxnucyjbdj.py":79:25)
#loc138 = loc("/tmp/torchinductor_root/h4/ch46e6u6iqxr32wyygbmhw6mjamu2o4v3idys2oj3mjxnucyjbdj.py":80:23)
#loc139 = loc("/tmp/torchinductor_root/h4/ch46e6u6iqxr32wyygbmhw6mjamu2o4v3idys2oj3mjxnucyjbdj.py":81:25)
#loc140 = loc("/tmp/torchinductor_root/h4/ch46e6u6iqxr32wyygbmhw6mjamu2o4v3idys2oj3mjxnucyjbdj.py":81:31)
#loc141 = loc("/tmp/torchinductor_root/h4/ch46e6u6iqxr32wyygbmhw6mjamu2o4v3idys2oj3mjxnucyjbdj.py":82:23)
#loc142 = loc("/tmp/torchinductor_root/h4/ch46e6u6iqxr32wyygbmhw6mjamu2o4v3idys2oj3mjxnucyjbdj.py":85:32)
#loc143 = loc("/tmp/torchinductor_root/h4/ch46e6u6iqxr32wyygbmhw6mjamu2o4v3idys2oj3mjxnucyjbdj.py":86:25)
#loc144 = loc("/tmp/torchinductor_root/h4/ch46e6u6iqxr32wyygbmhw6mjamu2o4v3idys2oj3mjxnucyjbdj.py":87:33)
#loc145 = loc("/tmp/torchinductor_root/h4/ch46e6u6iqxr32wyygbmhw6mjamu2o4v3idys2oj3mjxnucyjbdj.py":88:24)
#loc146 = loc("/tmp/torchinductor_root/h4/ch46e6u6iqxr32wyygbmhw6mjamu2o4v3idys2oj3mjxnucyjbdj.py":89:38)
#loc147 = loc("/tmp/torchinductor_root/h4/ch46e6u6iqxr32wyygbmhw6mjamu2o4v3idys2oj3mjxnucyjbdj.py":89:48)
#loc148 = loc("/tmp/torchinductor_root/h4/ch46e6u6iqxr32wyygbmhw6mjamu2o4v3idys2oj3mjxnucyjbdj.py":89:43)
#loc149 = loc("/tmp/torchinductor_root/h4/ch46e6u6iqxr32wyygbmhw6mjamu2o4v3idys2oj3mjxnucyjbdj.py":89:54)
#loc150 = loc("/tmp/torchinductor_root/h4/ch46e6u6iqxr32wyygbmhw6mjamu2o4v3idys2oj3mjxnucyjbdj.py":89:35)
#loc151 = loc("/tmp/torchinductor_root/h4/ch46e6u6iqxr32wyygbmhw6mjamu2o4v3idys2oj3mjxnucyjbdj.py":89:68)
#loc152 = loc("/tmp/torchinductor_root/h4/ch46e6u6iqxr32wyygbmhw6mjamu2o4v3idys2oj3mjxnucyjbdj.py":89:60)
#loc153 = loc("/tmp/torchinductor_root/h4/ch46e6u6iqxr32wyygbmhw6mjamu2o4v3idys2oj3mjxnucyjbdj.py":89:119)
#loc154 = loc("/tmp/torchinductor_root/h4/ch46e6u6iqxr32wyygbmhw6mjamu2o4v3idys2oj3mjxnucyjbdj.py":90:35)
#loc155 = loc("/tmp/torchinductor_root/h4/ch46e6u6iqxr32wyygbmhw6mjamu2o4v3idys2oj3mjxnucyjbdj.py":90:48)
#loc156 = loc("/tmp/torchinductor_root/h4/ch46e6u6iqxr32wyygbmhw6mjamu2o4v3idys2oj3mjxnucyjbdj.py":90:40)
#loc157 = loc("/tmp/torchinductor_root/h4/ch46e6u6iqxr32wyygbmhw6mjamu2o4v3idys2oj3mjxnucyjbdj.py":91:41)
#loc158 = loc("/tmp/torchinductor_root/h4/ch46e6u6iqxr32wyygbmhw6mjamu2o4v3idys2oj3mjxnucyjbdj.py":92:24)
#loc159 = loc("/tmp/torchinductor_root/h4/ch46e6u6iqxr32wyygbmhw6mjamu2o4v3idys2oj3mjxnucyjbdj.py":93:24)
#loc160 = loc("/tmp/torchinductor_root/h4/ch46e6u6iqxr32wyygbmhw6mjamu2o4v3idys2oj3mjxnucyjbdj.py":94:39)
#loc161 = loc("/tmp/torchinductor_root/h4/ch46e6u6iqxr32wyygbmhw6mjamu2o4v3idys2oj3mjxnucyjbdj.py":95:32)
#loc162 = loc("/tmp/torchinductor_root/h4/ch46e6u6iqxr32wyygbmhw6mjamu2o4v3idys2oj3mjxnucyjbdj.py":95:104)
#loc163 = loc("/tmp/torchinductor_root/h4/ch46e6u6iqxr32wyygbmhw6mjamu2o4v3idys2oj3mjxnucyjbdj.py":95:69)
#loc164 = loc("/tmp/torchinductor_root/h4/ch46e6u6iqxr32wyygbmhw6mjamu2o4v3idys2oj3mjxnucyjbdj.py":95:124)
#loc165 = loc("/tmp/torchinductor_root/h4/ch46e6u6iqxr32wyygbmhw6mjamu2o4v3idys2oj3mjxnucyjbdj.py":95:116)
#loc166 = loc("/tmp/torchinductor_root/h4/ch46e6u6iqxr32wyygbmhw6mjamu2o4v3idys2oj3mjxnucyjbdj.py":95:114)
#loc167 = loc("/tmp/torchinductor_root/h4/ch46e6u6iqxr32wyygbmhw6mjamu2o4v3idys2oj3mjxnucyjbdj.py":95:132)
#loc168 = loc("/tmp/torchinductor_root/h4/ch46e6u6iqxr32wyygbmhw6mjamu2o4v3idys2oj3mjxnucyjbdj.py":96:38)
#loc169 = loc("/tmp/torchinductor_root/h4/ch46e6u6iqxr32wyygbmhw6mjamu2o4v3idys2oj3mjxnucyjbdj.py":96:47)
#loc170 = loc("/tmp/torchinductor_root/h4/ch46e6u6iqxr32wyygbmhw6mjamu2o4v3idys2oj3mjxnucyjbdj.py":96:35)
#loc171 = loc("/tmp/torchinductor_root/h4/ch46e6u6iqxr32wyygbmhw6mjamu2o4v3idys2oj3mjxnucyjbdj.py":96:61)
#loc172 = loc("/tmp/torchinductor_root/h4/ch46e6u6iqxr32wyygbmhw6mjamu2o4v3idys2oj3mjxnucyjbdj.py":96:53)
#loc173 = loc("/tmp/torchinductor_root/h4/ch46e6u6iqxr32wyygbmhw6mjamu2o4v3idys2oj3mjxnucyjbdj.py":96:112)
#loc174 = loc("/tmp/torchinductor_root/h4/ch46e6u6iqxr32wyygbmhw6mjamu2o4v3idys2oj3mjxnucyjbdj.py":97:24)
#loc175 = loc("/tmp/torchinductor_root/h4/ch46e6u6iqxr32wyygbmhw6mjamu2o4v3idys2oj3mjxnucyjbdj.py":98:43)
#loc176 = loc("/tmp/torchinductor_root/h4/ch46e6u6iqxr32wyygbmhw6mjamu2o4v3idys2oj3mjxnucyjbdj.py":98:40)
#loc177 = loc("/tmp/torchinductor_root/h4/ch46e6u6iqxr32wyygbmhw6mjamu2o4v3idys2oj3mjxnucyjbdj.py":98:53)
#loc178 = loc("/tmp/torchinductor_root/h4/ch46e6u6iqxr32wyygbmhw6mjamu2o4v3idys2oj3mjxnucyjbdj.py":98:48)
#loc179 = loc("/tmp/torchinductor_root/h4/ch46e6u6iqxr32wyygbmhw6mjamu2o4v3idys2oj3mjxnucyjbdj.py":98:59)
#loc180 = loc("/tmp/torchinductor_root/h4/ch46e6u6iqxr32wyygbmhw6mjamu2o4v3idys2oj3mjxnucyjbdj.py":98:35)
#loc181 = loc("/tmp/torchinductor_root/h4/ch46e6u6iqxr32wyygbmhw6mjamu2o4v3idys2oj3mjxnucyjbdj.py":98:73)
#loc182 = loc("/tmp/torchinductor_root/h4/ch46e6u6iqxr32wyygbmhw6mjamu2o4v3idys2oj3mjxnucyjbdj.py":98:65)
#loc183 = loc("/tmp/torchinductor_root/h4/ch46e6u6iqxr32wyygbmhw6mjamu2o4v3idys2oj3mjxnucyjbdj.py":98:124)
#loc184 = loc("/tmp/torchinductor_root/h4/ch46e6u6iqxr32wyygbmhw6mjamu2o4v3idys2oj3mjxnucyjbdj.py":99:43)
#loc185 = loc("/tmp/torchinductor_root/h4/ch46e6u6iqxr32wyygbmhw6mjamu2o4v3idys2oj3mjxnucyjbdj.py":99:40)
#loc186 = loc("/tmp/torchinductor_root/h4/ch46e6u6iqxr32wyygbmhw6mjamu2o4v3idys2oj3mjxnucyjbdj.py":99:52)
#loc187 = loc("/tmp/torchinductor_root/h4/ch46e6u6iqxr32wyygbmhw6mjamu2o4v3idys2oj3mjxnucyjbdj.py":99:35)
#loc188 = loc("/tmp/torchinductor_root/h4/ch46e6u6iqxr32wyygbmhw6mjamu2o4v3idys2oj3mjxnucyjbdj.py":99:66)
#loc189 = loc("/tmp/torchinductor_root/h4/ch46e6u6iqxr32wyygbmhw6mjamu2o4v3idys2oj3mjxnucyjbdj.py":99:58)
#loc190 = loc("/tmp/torchinductor_root/h4/ch46e6u6iqxr32wyygbmhw6mjamu2o4v3idys2oj3mjxnucyjbdj.py":99:117)
#loc191 = loc("/tmp/torchinductor_root/h4/ch46e6u6iqxr32wyygbmhw6mjamu2o4v3idys2oj3mjxnucyjbdj.py":100:24)
#loc192 = loc("/tmp/torchinductor_root/h4/ch46e6u6iqxr32wyygbmhw6mjamu2o4v3idys2oj3mjxnucyjbdj.py":101:24)
#loc193 = loc("/tmp/torchinductor_root/h4/ch46e6u6iqxr32wyygbmhw6mjamu2o4v3idys2oj3mjxnucyjbdj.py":102:42)
#loc194 = loc("/tmp/torchinductor_root/h4/ch46e6u6iqxr32wyygbmhw6mjamu2o4v3idys2oj3mjxnucyjbdj.py":103:39)
#loc195 = loc("/tmp/torchinductor_root/h4/ch46e6u6iqxr32wyygbmhw6mjamu2o4v3idys2oj3mjxnucyjbdj.py":104:25)
#loc196 = loc("/tmp/torchinductor_root/h4/ch46e6u6iqxr32wyygbmhw6mjamu2o4v3idys2oj3mjxnucyjbdj.py":105:33)
#loc197 = loc("/tmp/torchinductor_root/h4/ch46e6u6iqxr32wyygbmhw6mjamu2o4v3idys2oj3mjxnucyjbdj.py":106:24)
#loc198 = loc("/tmp/torchinductor_root/h4/ch46e6u6iqxr32wyygbmhw6mjamu2o4v3idys2oj3mjxnucyjbdj.py":107:43)
#loc199 = loc("/tmp/torchinductor_root/h4/ch46e6u6iqxr32wyygbmhw6mjamu2o4v3idys2oj3mjxnucyjbdj.py":107:40)
#loc200 = loc("/tmp/torchinductor_root/h4/ch46e6u6iqxr32wyygbmhw6mjamu2o4v3idys2oj3mjxnucyjbdj.py":107:53)
#loc201 = loc("/tmp/torchinductor_root/h4/ch46e6u6iqxr32wyygbmhw6mjamu2o4v3idys2oj3mjxnucyjbdj.py":107:48)
#loc202 = loc("/tmp/torchinductor_root/h4/ch46e6u6iqxr32wyygbmhw6mjamu2o4v3idys2oj3mjxnucyjbdj.py":107:67)
#loc203 = loc("/tmp/torchinductor_root/h4/ch46e6u6iqxr32wyygbmhw6mjamu2o4v3idys2oj3mjxnucyjbdj.py":107:59)
#loc204 = loc("/tmp/torchinductor_root/h4/ch46e6u6iqxr32wyygbmhw6mjamu2o4v3idys2oj3mjxnucyjbdj.py":107:35)
#loc205 = loc("/tmp/torchinductor_root/h4/ch46e6u6iqxr32wyygbmhw6mjamu2o4v3idys2oj3mjxnucyjbdj.py":107:81)
#loc206 = loc("/tmp/torchinductor_root/h4/ch46e6u6iqxr32wyygbmhw6mjamu2o4v3idys2oj3mjxnucyjbdj.py":107:73)
#loc207 = loc("/tmp/torchinductor_root/h4/ch46e6u6iqxr32wyygbmhw6mjamu2o4v3idys2oj3mjxnucyjbdj.py":107:132)
#loc208 = loc("/tmp/torchinductor_root/h4/ch46e6u6iqxr32wyygbmhw6mjamu2o4v3idys2oj3mjxnucyjbdj.py":108:35)
#loc209 = loc("/tmp/torchinductor_root/h4/ch46e6u6iqxr32wyygbmhw6mjamu2o4v3idys2oj3mjxnucyjbdj.py":108:48)
#loc210 = loc("/tmp/torchinductor_root/h4/ch46e6u6iqxr32wyygbmhw6mjamu2o4v3idys2oj3mjxnucyjbdj.py":108:40)
#loc211 = loc("/tmp/torchinductor_root/h4/ch46e6u6iqxr32wyygbmhw6mjamu2o4v3idys2oj3mjxnucyjbdj.py":109:41)
#loc212 = loc("/tmp/torchinductor_root/h4/ch46e6u6iqxr32wyygbmhw6mjamu2o4v3idys2oj3mjxnucyjbdj.py":110:24)
#loc213 = loc("/tmp/torchinductor_root/h4/ch46e6u6iqxr32wyygbmhw6mjamu2o4v3idys2oj3mjxnucyjbdj.py":111:24)
#loc214 = loc("/tmp/torchinductor_root/h4/ch46e6u6iqxr32wyygbmhw6mjamu2o4v3idys2oj3mjxnucyjbdj.py":112:39)
#loc215 = loc("/tmp/torchinductor_root/h4/ch46e6u6iqxr32wyygbmhw6mjamu2o4v3idys2oj3mjxnucyjbdj.py":113:32)
#loc216 = loc("/tmp/torchinductor_root/h4/ch46e6u6iqxr32wyygbmhw6mjamu2o4v3idys2oj3mjxnucyjbdj.py":113:104)
#loc217 = loc("/tmp/torchinductor_root/h4/ch46e6u6iqxr32wyygbmhw6mjamu2o4v3idys2oj3mjxnucyjbdj.py":113:69)
#loc218 = loc("/tmp/torchinductor_root/h4/ch46e6u6iqxr32wyygbmhw6mjamu2o4v3idys2oj3mjxnucyjbdj.py":113:124)
#loc219 = loc("/tmp/torchinductor_root/h4/ch46e6u6iqxr32wyygbmhw6mjamu2o4v3idys2oj3mjxnucyjbdj.py":113:116)
#loc220 = loc("/tmp/torchinductor_root/h4/ch46e6u6iqxr32wyygbmhw6mjamu2o4v3idys2oj3mjxnucyjbdj.py":113:114)
#loc221 = loc("/tmp/torchinductor_root/h4/ch46e6u6iqxr32wyygbmhw6mjamu2o4v3idys2oj3mjxnucyjbdj.py":113:132)
#loc222 = loc("/tmp/torchinductor_root/h4/ch46e6u6iqxr32wyygbmhw6mjamu2o4v3idys2oj3mjxnucyjbdj.py":114:38)
#loc223 = loc("/tmp/torchinductor_root/h4/ch46e6u6iqxr32wyygbmhw6mjamu2o4v3idys2oj3mjxnucyjbdj.py":114:55)
#loc224 = loc("/tmp/torchinductor_root/h4/ch46e6u6iqxr32wyygbmhw6mjamu2o4v3idys2oj3mjxnucyjbdj.py":114:47)
#loc225 = loc("/tmp/torchinductor_root/h4/ch46e6u6iqxr32wyygbmhw6mjamu2o4v3idys2oj3mjxnucyjbdj.py":114:35)
#loc226 = loc("/tmp/torchinductor_root/h4/ch46e6u6iqxr32wyygbmhw6mjamu2o4v3idys2oj3mjxnucyjbdj.py":114:69)
#loc227 = loc("/tmp/torchinductor_root/h4/ch46e6u6iqxr32wyygbmhw6mjamu2o4v3idys2oj3mjxnucyjbdj.py":114:61)
#loc228 = loc("/tmp/torchinductor_root/h4/ch46e6u6iqxr32wyygbmhw6mjamu2o4v3idys2oj3mjxnucyjbdj.py":114:120)
#loc229 = loc("/tmp/torchinductor_root/h4/ch46e6u6iqxr32wyygbmhw6mjamu2o4v3idys2oj3mjxnucyjbdj.py":115:24)
#loc230 = loc("/tmp/torchinductor_root/h4/ch46e6u6iqxr32wyygbmhw6mjamu2o4v3idys2oj3mjxnucyjbdj.py":116:38)
#loc231 = loc("/tmp/torchinductor_root/h4/ch46e6u6iqxr32wyygbmhw6mjamu2o4v3idys2oj3mjxnucyjbdj.py":116:48)
#loc232 = loc("/tmp/torchinductor_root/h4/ch46e6u6iqxr32wyygbmhw6mjamu2o4v3idys2oj3mjxnucyjbdj.py":116:43)
#loc233 = loc("/tmp/torchinductor_root/h4/ch46e6u6iqxr32wyygbmhw6mjamu2o4v3idys2oj3mjxnucyjbdj.py":116:62)
#loc234 = loc("/tmp/torchinductor_root/h4/ch46e6u6iqxr32wyygbmhw6mjamu2o4v3idys2oj3mjxnucyjbdj.py":116:54)
#loc235 = loc("/tmp/torchinductor_root/h4/ch46e6u6iqxr32wyygbmhw6mjamu2o4v3idys2oj3mjxnucyjbdj.py":116:35)
#loc236 = loc("/tmp/torchinductor_root/h4/ch46e6u6iqxr32wyygbmhw6mjamu2o4v3idys2oj3mjxnucyjbdj.py":116:76)
#loc237 = loc("/tmp/torchinductor_root/h4/ch46e6u6iqxr32wyygbmhw6mjamu2o4v3idys2oj3mjxnucyjbdj.py":116:68)
#loc238 = loc("/tmp/torchinductor_root/h4/ch46e6u6iqxr32wyygbmhw6mjamu2o4v3idys2oj3mjxnucyjbdj.py":116:127)
#loc239 = loc("/tmp/torchinductor_root/h4/ch46e6u6iqxr32wyygbmhw6mjamu2o4v3idys2oj3mjxnucyjbdj.py":117:43)
#loc240 = loc("/tmp/torchinductor_root/h4/ch46e6u6iqxr32wyygbmhw6mjamu2o4v3idys2oj3mjxnucyjbdj.py":117:40)
#loc241 = loc("/tmp/torchinductor_root/h4/ch46e6u6iqxr32wyygbmhw6mjamu2o4v3idys2oj3mjxnucyjbdj.py":117:60)
#loc242 = loc("/tmp/torchinductor_root/h4/ch46e6u6iqxr32wyygbmhw6mjamu2o4v3idys2oj3mjxnucyjbdj.py":117:52)
#loc243 = loc("/tmp/torchinductor_root/h4/ch46e6u6iqxr32wyygbmhw6mjamu2o4v3idys2oj3mjxnucyjbdj.py":117:35)
#loc244 = loc("/tmp/torchinductor_root/h4/ch46e6u6iqxr32wyygbmhw6mjamu2o4v3idys2oj3mjxnucyjbdj.py":117:74)
#loc245 = loc("/tmp/torchinductor_root/h4/ch46e6u6iqxr32wyygbmhw6mjamu2o4v3idys2oj3mjxnucyjbdj.py":117:66)
#loc246 = loc("/tmp/torchinductor_root/h4/ch46e6u6iqxr32wyygbmhw6mjamu2o4v3idys2oj3mjxnucyjbdj.py":117:125)
#loc247 = loc("/tmp/torchinductor_root/h4/ch46e6u6iqxr32wyygbmhw6mjamu2o4v3idys2oj3mjxnucyjbdj.py":118:24)
#loc248 = loc("/tmp/torchinductor_root/h4/ch46e6u6iqxr32wyygbmhw6mjamu2o4v3idys2oj3mjxnucyjbdj.py":119:24)
#loc249 = loc("/tmp/torchinductor_root/h4/ch46e6u6iqxr32wyygbmhw6mjamu2o4v3idys2oj3mjxnucyjbdj.py":120:42)
#loc250 = loc("/tmp/torchinductor_root/h4/ch46e6u6iqxr32wyygbmhw6mjamu2o4v3idys2oj3mjxnucyjbdj.py":121:39)
#loc251 = loc("/tmp/torchinductor_root/h4/ch46e6u6iqxr32wyygbmhw6mjamu2o4v3idys2oj3mjxnucyjbdj.py":122:39)
#loc252 = loc("/tmp/torchinductor_root/h4/ch46e6u6iqxr32wyygbmhw6mjamu2o4v3idys2oj3mjxnucyjbdj.py":123:29)
#loc253 = loc("/tmp/torchinductor_root/h4/ch46e6u6iqxr32wyygbmhw6mjamu2o4v3idys2oj3mjxnucyjbdj.py":123:41)
#loc254 = loc("/tmp/torchinductor_root/h4/ch46e6u6iqxr32wyygbmhw6mjamu2o4v3idys2oj3mjxnucyjbdj.py":24:4)
#loc256 = loc("/root/autodl-tmp/env/klein9BAPI/lib/python3.10/site-packages/triton/language/standard.py":43:17)
#loc257 = loc("/root/autodl-tmp/env/klein9BAPI/lib/python3.10/site-packages/triton/language/standard.py":43:30)
#loc258 = loc("/root/autodl-tmp/env/klein9BAPI/lib/python3.10/site-packages/triton/language/standard.py":43:11)
#loc259 = loc("/root/autodl-tmp/env/klein9BAPI/lib/python3.10/site-packages/triton/language/standard.py":43:4)
#loc267 = loc("pid"(#loc1))
#loc268 = loc("num_xblocks_0"(#loc2))
#loc269 = loc("num_xblocks_1"(#loc3))
#loc270 = loc("num_xblocks_1"(#loc4))
#loc271 = loc("r0_numel"(#loc7))
#loc272 = loc("xoffset"(#loc8))
#loc273 = loc("xindex"(#loc9))
#loc274 = loc("xindex"(#loc10))
#loc275 = loc("xmask"(#loc11))
#loc276 = loc("x0"(#loc12))
#loc277 = loc("x1"(#loc13))
#loc278 = loc("x1"(#loc14))
#loc279 = loc("x2"(#loc15))
#loc280 = loc("tmp1"(#loc16))
#loc281 = loc("tmp2"(#loc17))
#loc282 = loc("tmp3"(#loc18))
#loc283 = loc("tmp4"(#loc19))
#loc284 = loc("tmp5"(#loc20))
#loc285 = loc("tmp5"(#loc21))
#loc286 = loc("tmp5"(#loc22))
#loc287 = loc("tmp5"(#loc23))
#loc288 = loc("tmp5"(#loc24))
#loc289 = loc("tmp5"(#loc25))
#loc290 = loc("tmp5"(#loc26))
#loc291 = loc("tmp5"(#loc27))
#loc292 = loc("tmp5"(#loc28))
#loc293 = loc("tmp6"(#loc29))
#loc294 = loc("tmp6"(#loc30))
#loc295 = loc("tmp6"(#loc31))
#loc296 = loc("tmp7"(#loc32))
#loc297 = loc("tmp8"(#loc33))
#loc298 = loc("tmp9"(#loc34))
#loc299 = loc("tmp10"(#loc35))
#loc300 = loc("tmp12"(#loc43))
#loc301 = loc("tmp12"(#loc44))
#loc302 = loc("tmp12"(#loc45))
#loc303 = loc("tmp12"(#loc46))
#loc304 = loc("tmp12"(#loc47))
#loc305 = loc("tmp12"(#loc48))
#loc306 = loc("tmp13"(#loc49))
#loc307 = loc("tmp14"(#loc50))
#loc308 = loc("tmp14"(#loc51))
#loc309 = loc("tmp14"(#loc52))
#loc310 = loc("tmp14"(#loc53))
#loc311 = loc("tmp14"(#loc54))
#loc312 = loc("tmp14"(#loc55))
#loc313 = loc("tmp14"(#loc56))
#loc314 = loc("tmp14"(#loc57))
#loc315 = loc("tmp14"(#loc58))
#loc316 = loc("tmp15"(#loc59))
#loc317 = loc("tmp15"(#loc60))
#loc318 = loc("tmp15"(#loc61))
#loc319 = loc("tmp15"(#loc62))
#loc320 = loc("tmp15"(#loc63))
#loc321 = loc("tmp15"(#loc64))
#loc322 = loc("tmp15"(#loc65))
#loc323 = loc("tmp16"(#loc66))
#loc324 = loc("tmp17"(#loc67))
#loc325 = loc("tmp18"(#loc68))
#loc326 = loc("tmp19"(#loc69))
#loc327 = loc("tmp20"(#loc70))
#loc328 = loc("tmp21"(#loc71))
#loc329 = loc("tmp22"(#loc72))
#loc330 = loc("tmp23"(#loc73))
#loc331 = loc("tmp23"(#loc74))
#loc332 = loc("tmp23"(#loc75))
#loc333 = loc("tmp23"(#loc76))
#loc334 = loc("tmp23"(#loc77))
#loc335 = loc("tmp23"(#loc78))
#loc336 = loc("tmp23"(#loc79))
#loc337 = loc("tmp23"(#loc80))
#loc338 = loc("tmp23"(#loc81))
#loc339 = loc("tmp23"(#loc82))
#loc340 = loc("tmp24"(#loc83))
#loc341 = loc("tmp24"(#loc84))
#loc342 = loc("tmp24"(#loc85))
#loc343 = loc("tmp25"(#loc86))
#loc344 = loc("tmp26"(#loc87))
#loc345 = loc("tmp27"(#loc88))
#loc346 = loc("tmp28"(#loc89))
#loc347 = loc("tmp30"(#loc97))
#loc348 = loc("tmp30"(#loc98))
#loc349 = loc("tmp30"(#loc99))
#loc350 = loc("tmp30"(#loc100))
#loc351 = loc("tmp30"(#loc101))
#loc352 = loc("tmp30"(#loc102))
#loc353 = loc("tmp30"(#loc103))
#loc354 = loc("tmp31"(#loc104))
#loc355 = loc("tmp32"(#loc105))
#loc356 = loc("tmp32"(#loc106))
#loc357 = loc("tmp32"(#loc107))
#loc358 = loc("tmp32"(#loc108))
#loc359 = loc("tmp32"(#loc109))
#loc360 = loc("tmp32"(#loc110))
#loc361 = loc("tmp32"(#loc111))
#loc362 = loc("tmp32"(#loc112))
#loc363 = loc("tmp32"(#loc113))
#loc364 = loc("tmp32"(#loc114))
#loc365 = loc("tmp33"(#loc115))
#loc366 = loc("tmp33"(#loc116))
#loc367 = loc("tmp33"(#loc117))
#loc368 = loc("tmp33"(#loc118))
#loc369 = loc("tmp33"(#loc119))
#loc370 = loc("tmp33"(#loc120))
#loc371 = loc("tmp33"(#loc121))
#loc372 = loc("tmp33"(#loc122))
#loc373 = loc("tmp34"(#loc123))
#loc374 = loc("tmp35"(#loc124))
#loc375 = loc("tmp36"(#loc125))
#loc376 = loc("tmp37"(#loc126))
#loc377 = loc("tmp38"(#loc127))
#loc378 = loc("pid_offset"(#loc132))
#loc379 = loc("r0_numel"(#loc133))
#loc380 = loc("xoffset"(#loc134))
#loc381 = loc("xindex"(#loc135))
#loc382 = loc("xindex"(#loc136))
#loc383 = loc("xmask"(#loc137))
#loc384 = loc("x5"(#loc138))
#loc385 = loc("x6"(#loc139))
#loc386 = loc("x6"(#loc140))
#loc387 = loc("x7"(#loc141))
#loc388 = loc("tmp40"(#loc142))
#loc389 = loc("tmp41"(#loc143))
#loc390 = loc("tmp42"(#loc144))
#loc391 = loc("tmp43"(#loc145))
#loc392 = loc("tmp44"(#loc146))
#loc393 = loc("tmp44"(#loc147))
#loc394 = loc("tmp44"(#loc148))
#loc395 = loc("tmp44"(#loc149))
#loc396 = loc("tmp44"(#loc150))
#loc397 = loc("tmp44"(#loc151))
#loc398 = loc("tmp44"(#loc152))
#loc399 = loc("tmp44"(#loc153))
#loc400 = loc("tmp45"(#loc154))
#loc401 = loc("tmp45"(#loc155))
#loc402 = loc("tmp45"(#loc156))
#loc403 = loc("tmp46"(#loc157))
#loc404 = loc("tmp47"(#loc158))
#loc405 = loc("tmp48"(#loc159))
#loc406 = loc("tmp49"(#loc160))
#loc407 = loc("tmp51"(#loc168))
#loc408 = loc("tmp51"(#loc169))
#loc409 = loc("tmp51"(#loc170))
#loc410 = loc("tmp51"(#loc171))
#loc411 = loc("tmp51"(#loc172))
#loc412 = loc("tmp51"(#loc173))
#loc413 = loc("tmp52"(#loc174))
#loc414 = loc("tmp53"(#loc175))
#loc415 = loc("tmp53"(#loc176))
#loc416 = loc("tmp53"(#loc177))
#loc417 = loc("tmp53"(#loc178))
#loc418 = loc("tmp53"(#loc179))
#loc419 = loc("tmp53"(#loc180))
#loc420 = loc("tmp53"(#loc181))
#loc421 = loc("tmp53"(#loc182))
#loc422 = loc("tmp53"(#loc183))
#loc423 = loc("tmp54"(#loc184))
#loc424 = loc("tmp54"(#loc185))
#loc425 = loc("tmp54"(#loc186))
#loc426 = loc("tmp54"(#loc187))
#loc427 = loc("tmp54"(#loc188))
#loc428 = loc("tmp54"(#loc189))
#loc429 = loc("tmp54"(#loc190))
#loc430 = loc("tmp55"(#loc191))
#loc431 = loc("tmp56"(#loc192))
#loc432 = loc("tmp57"(#loc193))
#loc433 = loc("tmp58"(#loc194))
#loc434 = loc("tmp59"(#loc195))
#loc435 = loc("tmp60"(#loc196))
#loc436 = loc("tmp61"(#loc197))
#loc437 = loc("tmp62"(#loc198))
#loc438 = loc("tmp62"(#loc199))
#loc439 = loc("tmp62"(#loc200))
#loc440 = loc("tmp62"(#loc201))
#loc441 = loc("tmp62"(#loc202))
#loc442 = loc("tmp62"(#loc203))
#loc443 = loc("tmp62"(#loc204))
#loc444 = loc("tmp62"(#loc205))
#loc445 = loc("tmp62"(#loc206))
#loc446 = loc("tmp62"(#loc207))
#loc447 = loc("tmp63"(#loc208))
#loc448 = loc("tmp63"(#loc209))
#loc449 = loc("tmp63"(#loc210))
#loc450 = loc("tmp64"(#loc211))
#loc451 = loc("tmp65"(#loc212))
#loc452 = loc("tmp66"(#loc213))
#loc453 = loc("tmp67"(#loc214))
#loc454 = loc("tmp69"(#loc222))
#loc455 = loc("tmp69"(#loc223))
#loc456 = loc("tmp69"(#loc224))
#loc457 = loc("tmp69"(#loc225))
#loc458 = loc("tmp69"(#loc226))
#loc459 = loc("tmp69"(#loc227))
#loc460 = loc("tmp69"(#loc228))
#loc461 = loc("tmp70"(#loc229))
#loc462 = loc("tmp71"(#loc230))
#loc463 = loc("tmp71"(#loc231))
#loc464 = loc("tmp71"(#loc232))
#loc465 = loc("tmp71"(#loc233))
#loc466 = loc("tmp71"(#loc234))
#loc467 = loc("tmp71"(#loc235))
#loc468 = loc("tmp71"(#loc236))
#loc469 = loc("tmp71"(#loc237))
#loc470 = loc("tmp71"(#loc238))
#loc471 = loc("tmp72"(#loc239))
#loc472 = loc("tmp72"(#loc240))
#loc473 = loc("tmp72"(#loc241))
#loc474 = loc("tmp72"(#loc242))
#loc475 = loc("tmp72"(#loc243))
#loc476 = loc("tmp72"(#loc244))
#loc477 = loc("tmp72"(#loc245))
#loc478 = loc("tmp72"(#loc246))
#loc479 = loc("tmp73"(#loc247))
#loc480 = loc("tmp74"(#loc248))
#loc481 = loc("tmp75"(#loc249))
#loc482 = loc("tmp76"(#loc250))
#loc483 = loc("tmp77"(#loc251))
