#loc = loc("/root/autodl-tmp/HuangJieCode/Big-Yellow-J.github.io/code/Python/RL-TRL/~/autodl-tmp/tmp-sore/torchinductor_root/wh/cwhjfa6sf2behxclwkx5tsihmxngbjc24zxjmzqpebmmp3rnyl4a.py":18:0)
#loc21 = loc("in_ptr0"(#loc))
#loc22 = loc("out_ptr0"(#loc))
#loc23 = loc("xnumel"(#loc))
module {
  tt.func public @triton_poi_fused__to_copy__unsafe_view_add_addmm_bmm_cat_clone_cos_expand_mul_transpose_unsqueeze_view_6(%in_ptr0: !tt.ptr<bf16> {tt.divisibility = 16 : i32} loc("in_ptr0"(#loc)), %out_ptr0: !tt.ptr<bf16> {tt.divisibility = 16 : i32} loc("out_ptr0"(#loc)), %xnumel: i32 {tt.divisibility = 16 : i32} loc("xnumel"(#loc))) attributes {noinline = false} {
    %xnumel_0 = arith.constant 1091328 : i32 loc(#loc24)
    %xoffset = tt.get_program_id x : i32 loc(#loc25)
    %xoffset_1 = arith.constant 512 : i32 loc(#loc26)
    %xoffset_2 = arith.constant 512 : i32 loc(#loc26)
    %xoffset_3 = arith.muli %xoffset, %xoffset_2 : i32 loc(#loc26)
    %xindex = tt.make_range {end = 512 : i32, start = 0 : i32} : tensor<512xi32> loc(#loc27)
    %xindex_4 = tt.splat %xoffset_3 : i32 -> tensor<512xi32> loc(#loc28)
    %xindex_5 = arith.addi %xindex_4, %xindex : tensor<512xi32> loc(#loc28)
    %xmask = arith.constant dense<1091328> : tensor<512xi32> loc(#loc29)
    %xmask_6 = arith.cmpi slt, %xindex_5, %xmask : tensor<512xi32> loc(#loc29)
    %x0 = arith.constant 64 : i32 loc(#loc30)
    %x0_7 = arith.constant 64 : i32 loc(#loc30)
    %x0_8 = arith.constant dense<64> : tensor<512xi32> loc(#loc30)
    %x0_9 = arith.remsi %xindex_5, %x0_8 : tensor<512xi32> loc(#loc30)
    %x1 = arith.constant 64 : i32 loc(#loc31)
    %x1_10 = arith.constant 64 : i32 loc(#loc31)
    %x1_11 = arith.constant dense<64> : tensor<512xi32> loc(#loc31)
    %x1_12 = arith.divsi %xindex_5, %x1_11 : tensor<512xi32> loc(#loc31)
    %x1_13 = arith.constant 1218 : i32 loc(#loc32)
    %x1_14 = arith.constant 1218 : i32 loc(#loc32)
    %x1_15 = arith.constant dense<1218> : tensor<512xi32> loc(#loc32)
    %x1_16 = arith.remsi %x1_12, %x1_15 : tensor<512xi32> loc(#loc32)
    %x3 = arith.constant 545664 : i32 loc(#loc33)
    %x3_17 = arith.constant 545664 : i32 loc(#loc33)
    %x3_18 = arith.constant dense<545664> : tensor<512xi32> loc(#loc33)
    %x3_19 = arith.divsi %xindex_5, %x3_18 : tensor<512xi32> loc(#loc33)
    %tmp0 = arith.constant 64 : i32 loc(#loc34)
    %tmp0_20 = arith.constant 64 : i32 loc(#loc34)
    %tmp0_21 = arith.constant dense<64> : tensor<512xi32> loc(#loc34)
    %tmp0_22 = arith.muli %tmp0_21, %x3_19 : tensor<512xi32> loc(#loc34)
    %tmp0_23 = arith.addi %x0_9, %tmp0_22 : tensor<512xi32> loc(#loc35)
    %tmp0_24 = arith.constant 128 : i32 loc(#loc36)
    %tmp0_25 = arith.constant 128 : i32 loc(#loc36)
    %tmp0_26 = arith.constant dense<128> : tensor<512xi32> loc(#loc36)
    %tmp0_27 = arith.muli %tmp0_26, %x1_16 : tensor<512xi32> loc(#loc36)
    %tmp0_28 = arith.addi %tmp0_23, %tmp0_27 : tensor<512xi32> loc(#loc37)
    %tmp0_29 = tt.splat %in_ptr0 : !tt.ptr<bf16> -> tensor<512x!tt.ptr<bf16>> loc(#loc38)
    %tmp0_30 = tt.addptr %tmp0_29, %tmp0_28 : tensor<512x!tt.ptr<bf16>>, tensor<512xi32> loc(#loc38)
    %tmp0_31 = tt.load %tmp0_30, %xmask_6 evictionPolicy = evict_last : tensor<512x!tt.ptr<bf16>> loc(#loc39)
    %tmp0_32 = arith.extf %tmp0_31 : tensor<512xbf16> to tensor<512xf32> loc(#loc40)
    %0 = tt.splat %out_ptr0 : !tt.ptr<bf16> -> tensor<512x!tt.ptr<bf16>> loc(#loc18)
    %1 = tt.addptr %0, %xindex_5 : tensor<512x!tt.ptr<bf16>>, tensor<512xi32> loc(#loc18)
    %2 = arith.truncf %tmp0_32 : tensor<512xf32> to tensor<512xbf16> loc(#loc19)
    tt.store %1, %2, %xmask_6 : tensor<512x!tt.ptr<bf16>> loc(#loc19)
    tt.return loc(#loc20)
  } loc(#loc)
} loc(#loc)
#loc1 = loc("/root/autodl-tmp/HuangJieCode/Big-Yellow-J.github.io/code/Python/RL-TRL/~/autodl-tmp/tmp-sore/torchinductor_root/wh/cwhjfa6sf2behxclwkx5tsihmxngbjc24zxjmzqpebmmp3rnyl4a.py":19:13)
#loc2 = loc("/root/autodl-tmp/HuangJieCode/Big-Yellow-J.github.io/code/Python/RL-TRL/~/autodl-tmp/tmp-sore/torchinductor_root/wh/cwhjfa6sf2behxclwkx5tsihmxngbjc24zxjmzqpebmmp3rnyl4a.py":20:28)
#loc3 = loc("/root/autodl-tmp/HuangJieCode/Big-Yellow-J.github.io/code/Python/RL-TRL/~/autodl-tmp/tmp-sore/torchinductor_root/wh/cwhjfa6sf2behxclwkx5tsihmxngbjc24zxjmzqpebmmp3rnyl4a.py":20:33)
#loc4 = loc("/root/autodl-tmp/HuangJieCode/Big-Yellow-J.github.io/code/Python/RL-TRL/~/autodl-tmp/tmp-sore/torchinductor_root/wh/cwhjfa6sf2behxclwkx5tsihmxngbjc24zxjmzqpebmmp3rnyl4a.py":21:36)
#loc5 = loc("/root/autodl-tmp/HuangJieCode/Big-Yellow-J.github.io/code/Python/RL-TRL/~/autodl-tmp/tmp-sore/torchinductor_root/wh/cwhjfa6sf2behxclwkx5tsihmxngbjc24zxjmzqpebmmp3rnyl4a.py":21:23)
#loc6 = loc("/root/autodl-tmp/HuangJieCode/Big-Yellow-J.github.io/code/Python/RL-TRL/~/autodl-tmp/tmp-sore/torchinductor_root/wh/cwhjfa6sf2behxclwkx5tsihmxngbjc24zxjmzqpebmmp3rnyl4a.py":22:21)
#loc7 = loc("/root/autodl-tmp/HuangJieCode/Big-Yellow-J.github.io/code/Python/RL-TRL/~/autodl-tmp/tmp-sore/torchinductor_root/wh/cwhjfa6sf2behxclwkx5tsihmxngbjc24zxjmzqpebmmp3rnyl4a.py":23:19)
#loc8 = loc("/root/autodl-tmp/HuangJieCode/Big-Yellow-J.github.io/code/Python/RL-TRL/~/autodl-tmp/tmp-sore/torchinductor_root/wh/cwhjfa6sf2behxclwkx5tsihmxngbjc24zxjmzqpebmmp3rnyl4a.py":24:21)
#loc9 = loc("/root/autodl-tmp/HuangJieCode/Big-Yellow-J.github.io/code/Python/RL-TRL/~/autodl-tmp/tmp-sore/torchinductor_root/wh/cwhjfa6sf2behxclwkx5tsihmxngbjc24zxjmzqpebmmp3rnyl4a.py":24:27)
#loc10 = loc("/root/autodl-tmp/HuangJieCode/Big-Yellow-J.github.io/code/Python/RL-TRL/~/autodl-tmp/tmp-sore/torchinductor_root/wh/cwhjfa6sf2behxclwkx5tsihmxngbjc24zxjmzqpebmmp3rnyl4a.py":25:19)
#loc11 = loc("/root/autodl-tmp/HuangJieCode/Big-Yellow-J.github.io/code/Python/RL-TRL/~/autodl-tmp/tmp-sore/torchinductor_root/wh/cwhjfa6sf2behxclwkx5tsihmxngbjc24zxjmzqpebmmp3rnyl4a.py":27:38)
#loc12 = loc("/root/autodl-tmp/HuangJieCode/Big-Yellow-J.github.io/code/Python/RL-TRL/~/autodl-tmp/tmp-sore/torchinductor_root/wh/cwhjfa6sf2behxclwkx5tsihmxngbjc24zxjmzqpebmmp3rnyl4a.py":27:35)
#loc13 = loc("/root/autodl-tmp/HuangJieCode/Big-Yellow-J.github.io/code/Python/RL-TRL/~/autodl-tmp/tmp-sore/torchinductor_root/wh/cwhjfa6sf2behxclwkx5tsihmxngbjc24zxjmzqpebmmp3rnyl4a.py":27:47)
#loc14 = loc("/root/autodl-tmp/HuangJieCode/Big-Yellow-J.github.io/code/Python/RL-TRL/~/autodl-tmp/tmp-sore/torchinductor_root/wh/cwhjfa6sf2behxclwkx5tsihmxngbjc24zxjmzqpebmmp3rnyl4a.py":27:43)
#loc15 = loc("/root/autodl-tmp/HuangJieCode/Big-Yellow-J.github.io/code/Python/RL-TRL/~/autodl-tmp/tmp-sore/torchinductor_root/wh/cwhjfa6sf2behxclwkx5tsihmxngbjc24zxjmzqpebmmp3rnyl4a.py":27:30)
#loc16 = loc("/root/autodl-tmp/HuangJieCode/Big-Yellow-J.github.io/code/Python/RL-TRL/~/autodl-tmp/tmp-sore/torchinductor_root/wh/cwhjfa6sf2behxclwkx5tsihmxngbjc24zxjmzqpebmmp3rnyl4a.py":27:52)
#loc17 = loc("/root/autodl-tmp/HuangJieCode/Big-Yellow-J.github.io/code/Python/RL-TRL/~/autodl-tmp/tmp-sore/torchinductor_root/wh/cwhjfa6sf2behxclwkx5tsihmxngbjc24zxjmzqpebmmp3rnyl4a.py":27:92)
#loc18 = loc("/root/autodl-tmp/HuangJieCode/Big-Yellow-J.github.io/code/Python/RL-TRL/~/autodl-tmp/tmp-sore/torchinductor_root/wh/cwhjfa6sf2behxclwkx5tsihmxngbjc24zxjmzqpebmmp3rnyl4a.py":28:25)
#loc19 = loc("/root/autodl-tmp/HuangJieCode/Big-Yellow-J.github.io/code/Python/RL-TRL/~/autodl-tmp/tmp-sore/torchinductor_root/wh/cwhjfa6sf2behxclwkx5tsihmxngbjc24zxjmzqpebmmp3rnyl4a.py":28:36)
#loc20 = loc("/root/autodl-tmp/HuangJieCode/Big-Yellow-J.github.io/code/Python/RL-TRL/~/autodl-tmp/tmp-sore/torchinductor_root/wh/cwhjfa6sf2behxclwkx5tsihmxngbjc24zxjmzqpebmmp3rnyl4a.py":28:4)
#loc24 = loc("xnumel"(#loc1))
#loc25 = loc("xoffset"(#loc2))
#loc26 = loc("xoffset"(#loc3))
#loc27 = loc("xindex"(#loc4))
#loc28 = loc("xindex"(#loc5))
#loc29 = loc("xmask"(#loc6))
#loc30 = loc("x0"(#loc7))
#loc31 = loc("x1"(#loc8))
#loc32 = loc("x1"(#loc9))
#loc33 = loc("x3"(#loc10))
#loc34 = loc("tmp0"(#loc11))
#loc35 = loc("tmp0"(#loc12))
#loc36 = loc("tmp0"(#loc13))
#loc37 = loc("tmp0"(#loc14))
#loc38 = loc("tmp0"(#loc15))
#loc39 = loc("tmp0"(#loc16))
#loc40 = loc("tmp0"(#loc17))
