#loc = loc("/tmp/torchinductor_root/le/clex26fdkcuctedhjm3zk2nlgq6lbe5ebbe64hppmlnn3mao4di6.py":22:0)
#loc90 = loc("in_ptr0"(#loc))
#loc91 = loc("in_ptr1"(#loc))
#loc92 = loc("in_ptr2"(#loc))
#loc93 = loc("out_ptr0"(#loc))
#loc94 = loc("xnumel"(#loc))
module {
  tt.func public @triton_(%in_ptr0: !tt.ptr<bf16> {tt.divisibility = 16 : i32} loc("in_ptr0"(#loc)), %in_ptr1: !tt.ptr<i64> {tt.divisibility = 16 : i32} loc("in_ptr1"(#loc)), %in_ptr2: !tt.ptr<bf16> {tt.divisibility = 16 : i32} loc("in_ptr2"(#loc)), %out_ptr0: !tt.ptr<bf16> {tt.divisibility = 16 : i32} loc("out_ptr0"(#loc)), %xnumel: i32 {tt.divisibility = 16 : i32} loc("xnumel"(#loc))) attributes {noinline = false} {
    %cst = arith.constant dense<32768> : tensor<512xi64> loc(#loc1)
    %cst_0 = arith.constant dense<0> : tensor<512xi64> loc(#loc1)
    %cst_1 = arith.constant dense<0.000000e+00> : tensor<512xbf16> loc(#loc1)
    %cst_2 = arith.constant dense<-32> : tensor<512xi32> loc(#loc1)
    %cst_3 = arith.constant dense<32> : tensor<512xi32> loc(#loc1)
    %cst_4 = arith.constant dense<64> : tensor<512xi64> loc(#loc1)
    %cst_5 = arith.constant dense<true> : tensor<512xi1> loc(#loc1)
    %cst_6 = arith.constant dense<0.000000e+00> : tensor<512xf32> loc(#loc1)
    %cst_7 = arith.constant dense<1152> : tensor<512xi32> loc(#loc1)
    %cst_8 = arith.constant dense<32> : tensor<512xi64> loc(#loc1)
    %x2 = arith.constant dense<896> : tensor<512xi32> loc(#loc95)
    %x1 = arith.constant dense<14> : tensor<512xi32> loc(#loc96)
    %cst_9 = arith.constant dense<64> : tensor<512xi32> loc(#loc1)
    %c512_i32 = arith.constant 512 : i32 loc(#loc1)
    %xoffset = tt.get_program_id x : i32 loc(#loc97)
    %xoffset_10 = arith.muli %xoffset, %c512_i32 : i32 loc(#loc98)
    %xindex = tt.make_range {end = 512 : i32, start = 0 : i32} : tensor<512xi32> loc(#loc99)
    %xindex_11 = tt.splat %xoffset_10 : i32 -> tensor<512xi32> loc(#loc100)
    %xindex_12 = arith.addi %xindex_11, %xindex : tensor<512xi32> loc(#loc100)
    %xmask = tt.splat %xnumel : i32 -> tensor<512xi32> loc(#loc101)
    %xmask_13 = arith.cmpi slt, %xindex_12, %xmask : tensor<512xi32> loc(#loc101)
    %x0 = arith.remsi %xindex_12, %cst_9 : tensor<512xi32> loc(#loc102)
    %x1_14 = arith.divsi %xindex_12, %cst_9 : tensor<512xi32> loc(#loc103)
    %x1_15 = arith.remsi %x1_14, %x1 : tensor<512xi32> loc(#loc96)
    %x2_16 = arith.divsi %xindex_12, %x2 : tensor<512xi32> loc(#loc95)
    %tmp4 = arith.extsi %x0 : tensor<512xi32> to tensor<512xi64> loc(#loc104)
    %tmp4_17 = arith.cmpi slt, %tmp4, %cst_8 : tensor<512xi64> loc(#loc104)
    %tmp5 = arith.muli %x1_15, %cst_9 : tensor<512xi32> loc(#loc105)
    %tmp5_18 = arith.muli %x2_16, %cst_7 : tensor<512xi32> loc(#loc106)
    %tmp5_19 = arith.addi %tmp5, %tmp5_18 : tensor<512xi32> loc(#loc107)
    %tmp5_20 = arith.addi %tmp5_19, %x0 : tensor<512xi32> loc(#loc108)
    %tmp5_21 = tt.splat %in_ptr0 : !tt.ptr<bf16> -> tensor<512x!tt.ptr<bf16>> loc(#loc109)
    %tmp5_22 = tt.addptr %tmp5_21, %tmp5_20 : tensor<512x!tt.ptr<bf16>>, tensor<512xi32> loc(#loc109)
    %tmp5_23 = arith.andi %tmp4_17, %xmask_13 : tensor<512xi1> loc(#loc110)
    %tmp5_24 = tt.load %tmp5_22, %tmp5_23, %cst_1 evictionPolicy = evict_last : tensor<512x!tt.ptr<bf16>> loc(#loc111)
    %tmp5_25 = arith.extf %tmp5_24 : tensor<512xbf16> to tensor<512xf32> loc(#loc112)
    %tmp6 = tt.splat %in_ptr1 : !tt.ptr<i64> -> tensor<512x!tt.ptr<i64>> loc(#loc113)
    %tmp6_26 = tt.addptr %tmp6, %x2_16 : tensor<512x!tt.ptr<i64>>, tensor<512xi32> loc(#loc113)
    %tmp6_27 = tt.load %tmp6_26, %tmp5_23, %cst_0 evictionPolicy = evict_last : tensor<512x!tt.ptr<i64>> loc(#loc114)
    %tmp8 = arith.addi %tmp6_27, %cst : tensor<512xi64> loc(#loc115)
    %tmp9 = arith.cmpi slt, %tmp6_27, %cst_0 : tensor<512xi64> loc(#loc116)
    %tmp10 = arith.select %tmp9, %tmp8, %tmp6_27 : tensor<512xi1>, tensor<512xi64> loc(#loc117)
    %0 = arith.cmpi sge, %tmp10, %cst_0 : tensor<512xi64> loc(#loc25)
    %1 = arith.cmpi slt, %tmp10, %cst : tensor<512xi64> loc(#loc26)
    %2 = arith.andi %0, %1 : tensor<512xi1> loc(#loc27)
    %3 = arith.xori %tmp5_23, %cst_5 : tensor<512xi1> loc(#loc28)
    %4 = arith.ori %2, %3 : tensor<512xi1> loc(#loc29)
    tt.assert %4, "index out of bounds: 0 <= tl.broadcast_to(tmp10, [XBLOCK]) < 32768" : tensor<512xi1> loc(#loc30)
    %tmp12 = arith.muli %tmp10, %cst_4 : tensor<512xi64> loc(#loc118)
    %tmp12_28 = arith.addi %tmp12, %tmp4 : tensor<512xi64> loc(#loc119)
    %tmp12_29 = tt.splat %in_ptr2 : !tt.ptr<bf16> -> tensor<512x!tt.ptr<bf16>> loc(#loc120)
    %tmp12_30 = tt.addptr %tmp12_29, %tmp12_28 : tensor<512x!tt.ptr<bf16>>, tensor<512xi64> loc(#loc120)
    %tmp12_31 = tt.load %tmp12_30, %tmp5_23, %cst_1 evictionPolicy = evict_last : tensor<512x!tt.ptr<bf16>> loc(#loc121)
    %tmp12_32 = arith.extf %tmp12_31 : tensor<512xbf16> to tensor<512xf32> loc(#loc122)
    %tmp13 = arith.mulf %tmp5_25, %tmp12_32 : tensor<512xf32> loc(#loc123)
    %tmp14 = arith.addi %tmp5, %cst_3 : tensor<512xi32> loc(#loc124)
    %tmp14_33 = arith.addi %tmp14, %tmp5_18 : tensor<512xi32> loc(#loc125)
    %tmp14_34 = arith.addi %tmp14_33, %x0 : tensor<512xi32> loc(#loc126)
    %tmp14_35 = tt.addptr %tmp5_21, %tmp14_34 : tensor<512x!tt.ptr<bf16>>, tensor<512xi32> loc(#loc127)
    %tmp14_36 = tt.load %tmp14_35, %tmp5_23, %cst_1 evictionPolicy = evict_last : tensor<512x!tt.ptr<bf16>> loc(#loc128)
    %tmp14_37 = arith.extf %tmp14_36 : tensor<512xbf16> to tensor<512xf32> loc(#loc129)
    %tmp15 = arith.addi %tmp12, %cst_8 : tensor<512xi64> loc(#loc130)
    %tmp15_38 = arith.addi %tmp15, %tmp4 : tensor<512xi64> loc(#loc131)
    %tmp15_39 = tt.addptr %tmp12_29, %tmp15_38 : tensor<512x!tt.ptr<bf16>>, tensor<512xi64> loc(#loc132)
    %tmp15_40 = tt.load %tmp15_39, %tmp5_23, %cst_1 evictionPolicy = evict_last : tensor<512x!tt.ptr<bf16>> loc(#loc133)
    %tmp15_41 = arith.extf %tmp15_40 : tensor<512xbf16> to tensor<512xf32> loc(#loc134)
    %tmp16 = arith.mulf %tmp14_37, %tmp15_41 : tensor<512xf32> loc(#loc135)
    %tmp17 = arith.subf %tmp13, %tmp16 : tensor<512xf32> loc(#loc136)
    %tmp20 = arith.cmpi sge, %tmp4, %cst_8 : tensor<512xi64> loc(#loc137)
    %tmp23 = arith.addi %x0, %cst_2 : tensor<512xi32> loc(#loc138)
    %tmp23_42 = arith.addi %tmp14_33, %tmp23 : tensor<512xi32> loc(#loc139)
    %tmp23_43 = tt.addptr %tmp5_21, %tmp23_42 : tensor<512x!tt.ptr<bf16>>, tensor<512xi32> loc(#loc140)
    %tmp23_44 = arith.andi %tmp20, %xmask_13 : tensor<512xi1> loc(#loc141)
    %tmp23_45 = tt.load %tmp23_43, %tmp23_44, %cst_1 evictionPolicy = evict_last : tensor<512x!tt.ptr<bf16>> loc(#loc142)
    %tmp23_46 = arith.extf %tmp23_45 : tensor<512xbf16> to tensor<512xf32> loc(#loc143)
    %tmp24 = tt.load %tmp6_26, %tmp23_44, %cst_0 evictionPolicy = evict_last : tensor<512x!tt.ptr<i64>> loc(#loc144)
    %tmp26 = arith.addi %tmp24, %cst : tensor<512xi64> loc(#loc145)
    %tmp27 = arith.cmpi slt, %tmp24, %cst_0 : tensor<512xi64> loc(#loc146)
    %tmp28 = arith.select %tmp27, %tmp26, %tmp24 : tensor<512xi1>, tensor<512xi64> loc(#loc147)
    %5 = arith.cmpi sge, %tmp28, %cst_0 : tensor<512xi64> loc(#loc61)
    %6 = arith.cmpi slt, %tmp28, %cst : tensor<512xi64> loc(#loc62)
    %7 = arith.andi %5, %6 : tensor<512xi1> loc(#loc63)
    %8 = arith.xori %tmp23_44, %cst_5 : tensor<512xi1> loc(#loc64)
    %9 = arith.ori %7, %8 : tensor<512xi1> loc(#loc65)
    tt.assert %9, "index out of bounds: 0 <= tl.broadcast_to(tmp28, [XBLOCK]) < 32768" : tensor<512xi1> loc(#loc66)
    %tmp30 = arith.muli %tmp28, %cst_4 : tensor<512xi64> loc(#loc148)
    %tmp30_47 = arith.extsi %tmp23 : tensor<512xi32> to tensor<512xi64> loc(#loc149)
    %tmp30_48 = arith.addi %tmp30, %tmp30_47 : tensor<512xi64> loc(#loc149)
    %tmp30_49 = tt.addptr %tmp12_29, %tmp30_48 : tensor<512x!tt.ptr<bf16>>, tensor<512xi64> loc(#loc150)
    %tmp30_50 = tt.load %tmp30_49, %tmp23_44, %cst_1 evictionPolicy = evict_last : tensor<512x!tt.ptr<bf16>> loc(#loc151)
    %tmp30_51 = arith.extf %tmp30_50 : tensor<512xbf16> to tensor<512xf32> loc(#loc152)
    %tmp31 = arith.mulf %tmp23_46, %tmp30_51 : tensor<512xf32> loc(#loc153)
    %tmp32 = arith.addi %tmp5_19, %tmp23 : tensor<512xi32> loc(#loc154)
    %tmp32_52 = tt.addptr %tmp5_21, %tmp32 : tensor<512x!tt.ptr<bf16>>, tensor<512xi32> loc(#loc155)
    %tmp32_53 = tt.load %tmp32_52, %tmp23_44, %cst_1 evictionPolicy = evict_last : tensor<512x!tt.ptr<bf16>> loc(#loc156)
    %tmp32_54 = arith.extf %tmp32_53 : tensor<512xbf16> to tensor<512xf32> loc(#loc157)
    %tmp33 = arith.addi %tmp30, %cst_8 : tensor<512xi64> loc(#loc158)
    %tmp33_55 = arith.addi %tmp33, %tmp30_47 : tensor<512xi64> loc(#loc159)
    %tmp33_56 = tt.addptr %tmp12_29, %tmp33_55 : tensor<512x!tt.ptr<bf16>>, tensor<512xi64> loc(#loc160)
    %tmp33_57 = tt.load %tmp33_56, %tmp23_44, %cst_1 evictionPolicy = evict_last : tensor<512x!tt.ptr<bf16>> loc(#loc161)
    %tmp33_58 = arith.extf %tmp33_57 : tensor<512xbf16> to tensor<512xf32> loc(#loc162)
    %tmp34 = arith.mulf %tmp32_54, %tmp33_58 : tensor<512xf32> loc(#loc163)
    %tmp35 = arith.addf %tmp31, %tmp34 : tensor<512xf32> loc(#loc164)
    %tmp37 = arith.select %tmp20, %tmp35, %cst_6 : tensor<512xi1>, tensor<512xf32> loc(#loc165)
    %tmp38 = arith.select %tmp4_17, %tmp17, %tmp37 : tensor<512xi1>, tensor<512xf32> loc(#loc168)
    %10 = tt.splat %out_ptr0 : !tt.ptr<bf16> -> tensor<512x!tt.ptr<bf16>> loc(#loc87)
    %11 = tt.addptr %10, %xindex_12 : tensor<512x!tt.ptr<bf16>>, tensor<512xi32> loc(#loc87)
    %12 = arith.truncf %tmp38 : tensor<512xf32> to tensor<512xbf16> loc(#loc88)
    tt.store %11, %12, %xmask_13 : tensor<512x!tt.ptr<bf16>> loc(#loc88)
    tt.return loc(#loc89)
  } loc(#loc)
} loc(#loc)
#loc1 = loc(unknown)
#loc2 = loc("/tmp/torchinductor_root/le/clex26fdkcuctedhjm3zk2nlgq6lbe5ebbe64hppmlnn3mao4di6.py":28:19)
#loc3 = loc("/tmp/torchinductor_root/le/clex26fdkcuctedhjm3zk2nlgq6lbe5ebbe64hppmlnn3mao4di6.py":27:27)
#loc4 = loc("/tmp/torchinductor_root/le/clex26fdkcuctedhjm3zk2nlgq6lbe5ebbe64hppmlnn3mao4di6.py":23:28)
#loc5 = loc("/tmp/torchinductor_root/le/clex26fdkcuctedhjm3zk2nlgq6lbe5ebbe64hppmlnn3mao4di6.py":23:33)
#loc6 = loc("/tmp/torchinductor_root/le/clex26fdkcuctedhjm3zk2nlgq6lbe5ebbe64hppmlnn3mao4di6.py":24:36)
#loc7 = loc("/tmp/torchinductor_root/le/clex26fdkcuctedhjm3zk2nlgq6lbe5ebbe64hppmlnn3mao4di6.py":24:23)
#loc8 = loc("/tmp/torchinductor_root/le/clex26fdkcuctedhjm3zk2nlgq6lbe5ebbe64hppmlnn3mao4di6.py":25:21)
#loc9 = loc("/tmp/torchinductor_root/le/clex26fdkcuctedhjm3zk2nlgq6lbe5ebbe64hppmlnn3mao4di6.py":26:19)
#loc10 = loc("/tmp/torchinductor_root/le/clex26fdkcuctedhjm3zk2nlgq6lbe5ebbe64hppmlnn3mao4di6.py":27:21)
#loc11 = loc("/tmp/torchinductor_root/le/clex26fdkcuctedhjm3zk2nlgq6lbe5ebbe64hppmlnn3mao4di6.py":34:18)
#loc12 = loc("/tmp/torchinductor_root/le/clex26fdkcuctedhjm3zk2nlgq6lbe5ebbe64hppmlnn3mao4di6.py":35:33)
#loc13 = loc("/tmp/torchinductor_root/le/clex26fdkcuctedhjm3zk2nlgq6lbe5ebbe64hppmlnn3mao4di6.py":35:43)
#loc14 = loc("/tmp/torchinductor_root/le/clex26fdkcuctedhjm3zk2nlgq6lbe5ebbe64hppmlnn3mao4di6.py":35:38)
#loc15 = loc("/tmp/torchinductor_root/le/clex26fdkcuctedhjm3zk2nlgq6lbe5ebbe64hppmlnn3mao4di6.py":35:49)
#loc16 = loc("/tmp/torchinductor_root/le/clex26fdkcuctedhjm3zk2nlgq6lbe5ebbe64hppmlnn3mao4di6.py":35:30)
#loc17 = loc("/tmp/torchinductor_root/le/clex26fdkcuctedhjm3zk2nlgq6lbe5ebbe64hppmlnn3mao4di6.py":35:62)
#loc18 = loc("/tmp/torchinductor_root/le/clex26fdkcuctedhjm3zk2nlgq6lbe5ebbe64hppmlnn3mao4di6.py":35:55)
#loc19 = loc("/tmp/torchinductor_root/le/clex26fdkcuctedhjm3zk2nlgq6lbe5ebbe64hppmlnn3mao4di6.py":35:113)
#loc20 = loc("/tmp/torchinductor_root/le/clex26fdkcuctedhjm3zk2nlgq6lbe5ebbe64hppmlnn3mao4di6.py":36:30)
#loc21 = loc("/tmp/torchinductor_root/le/clex26fdkcuctedhjm3zk2nlgq6lbe5ebbe64hppmlnn3mao4di6.py":36:35)
#loc22 = loc("/tmp/torchinductor_root/le/clex26fdkcuctedhjm3zk2nlgq6lbe5ebbe64hppmlnn3mao4di6.py":38:18)
#loc23 = loc("/tmp/torchinductor_root/le/clex26fdkcuctedhjm3zk2nlgq6lbe5ebbe64hppmlnn3mao4di6.py":39:18)
#loc24 = loc("/tmp/torchinductor_root/le/clex26fdkcuctedhjm3zk2nlgq6lbe5ebbe64hppmlnn3mao4di6.py":40:33)
#loc25 = loc("/tmp/torchinductor_root/le/clex26fdkcuctedhjm3zk2nlgq6lbe5ebbe64hppmlnn3mao4di6.py":41:28)
#loc26 = loc("/tmp/torchinductor_root/le/clex26fdkcuctedhjm3zk2nlgq6lbe5ebbe64hppmlnn3mao4di6.py":41:100)
#loc27 = loc("/tmp/torchinductor_root/le/clex26fdkcuctedhjm3zk2nlgq6lbe5ebbe64hppmlnn3mao4di6.py":41:65)
#loc28 = loc("/tmp/torchinductor_root/le/clex26fdkcuctedhjm3zk2nlgq6lbe5ebbe64hppmlnn3mao4di6.py":41:112)
#loc29 = loc("/tmp/torchinductor_root/le/clex26fdkcuctedhjm3zk2nlgq6lbe5ebbe64hppmlnn3mao4di6.py":41:110)
#loc30 = loc("/tmp/torchinductor_root/le/clex26fdkcuctedhjm3zk2nlgq6lbe5ebbe64hppmlnn3mao4di6.py":41:127)
#loc31 = loc("/tmp/torchinductor_root/le/clex26fdkcuctedhjm3zk2nlgq6lbe5ebbe64hppmlnn3mao4di6.py":42:34)
#loc32 = loc("/tmp/torchinductor_root/le/clex26fdkcuctedhjm3zk2nlgq6lbe5ebbe64hppmlnn3mao4di6.py":42:43)
#loc33 = loc("/tmp/torchinductor_root/le/clex26fdkcuctedhjm3zk2nlgq6lbe5ebbe64hppmlnn3mao4di6.py":42:31)
#loc34 = loc("/tmp/torchinductor_root/le/clex26fdkcuctedhjm3zk2nlgq6lbe5ebbe64hppmlnn3mao4di6.py":42:49)
#loc35 = loc("/tmp/torchinductor_root/le/clex26fdkcuctedhjm3zk2nlgq6lbe5ebbe64hppmlnn3mao4di6.py":42:107)
#loc36 = loc("/tmp/torchinductor_root/le/clex26fdkcuctedhjm3zk2nlgq6lbe5ebbe64hppmlnn3mao4di6.py":43:19)
#loc37 = loc("/tmp/torchinductor_root/le/clex26fdkcuctedhjm3zk2nlgq6lbe5ebbe64hppmlnn3mao4di6.py":44:36)
#loc38 = loc("/tmp/torchinductor_root/le/clex26fdkcuctedhjm3zk2nlgq6lbe5ebbe64hppmlnn3mao4di6.py":44:44)
#loc39 = loc("/tmp/torchinductor_root/le/clex26fdkcuctedhjm3zk2nlgq6lbe5ebbe64hppmlnn3mao4di6.py":44:55)
#loc40 = loc("/tmp/torchinductor_root/le/clex26fdkcuctedhjm3zk2nlgq6lbe5ebbe64hppmlnn3mao4di6.py":44:31)
#loc41 = loc("/tmp/torchinductor_root/le/clex26fdkcuctedhjm3zk2nlgq6lbe5ebbe64hppmlnn3mao4di6.py":44:61)
#loc42 = loc("/tmp/torchinductor_root/le/clex26fdkcuctedhjm3zk2nlgq6lbe5ebbe64hppmlnn3mao4di6.py":44:119)
#loc43 = loc("/tmp/torchinductor_root/le/clex26fdkcuctedhjm3zk2nlgq6lbe5ebbe64hppmlnn3mao4di6.py":45:36)
#loc44 = loc("/tmp/torchinductor_root/le/clex26fdkcuctedhjm3zk2nlgq6lbe5ebbe64hppmlnn3mao4di6.py":45:48)
#loc45 = loc("/tmp/torchinductor_root/le/clex26fdkcuctedhjm3zk2nlgq6lbe5ebbe64hppmlnn3mao4di6.py":45:31)
#loc46 = loc("/tmp/torchinductor_root/le/clex26fdkcuctedhjm3zk2nlgq6lbe5ebbe64hppmlnn3mao4di6.py":45:54)
#loc47 = loc("/tmp/torchinductor_root/le/clex26fdkcuctedhjm3zk2nlgq6lbe5ebbe64hppmlnn3mao4di6.py":45:112)
#loc48 = loc("/tmp/torchinductor_root/le/clex26fdkcuctedhjm3zk2nlgq6lbe5ebbe64hppmlnn3mao4di6.py":46:20)
#loc49 = loc("/tmp/torchinductor_root/le/clex26fdkcuctedhjm3zk2nlgq6lbe5ebbe64hppmlnn3mao4di6.py":47:20)
#loc50 = loc("/tmp/torchinductor_root/le/clex26fdkcuctedhjm3zk2nlgq6lbe5ebbe64hppmlnn3mao4di6.py":50:20)
#loc51 = loc("/tmp/torchinductor_root/le/clex26fdkcuctedhjm3zk2nlgq6lbe5ebbe64hppmlnn3mao4di6.py":53:63)
#loc52 = loc("/tmp/torchinductor_root/le/clex26fdkcuctedhjm3zk2nlgq6lbe5ebbe64hppmlnn3mao4di6.py":53:55)
#loc53 = loc("/tmp/torchinductor_root/le/clex26fdkcuctedhjm3zk2nlgq6lbe5ebbe64hppmlnn3mao4di6.py":53:31)
#loc54 = loc("/tmp/torchinductor_root/le/clex26fdkcuctedhjm3zk2nlgq6lbe5ebbe64hppmlnn3mao4di6.py":53:77)
#loc55 = loc("/tmp/torchinductor_root/le/clex26fdkcuctedhjm3zk2nlgq6lbe5ebbe64hppmlnn3mao4di6.py":53:69)
#loc56 = loc("/tmp/torchinductor_root/le/clex26fdkcuctedhjm3zk2nlgq6lbe5ebbe64hppmlnn3mao4di6.py":53:128)
#loc57 = loc("/tmp/torchinductor_root/le/clex26fdkcuctedhjm3zk2nlgq6lbe5ebbe64hppmlnn3mao4di6.py":54:36)
#loc58 = loc("/tmp/torchinductor_root/le/clex26fdkcuctedhjm3zk2nlgq6lbe5ebbe64hppmlnn3mao4di6.py":56:20)
#loc59 = loc("/tmp/torchinductor_root/le/clex26fdkcuctedhjm3zk2nlgq6lbe5ebbe64hppmlnn3mao4di6.py":57:20)
#loc60 = loc("/tmp/torchinductor_root/le/clex26fdkcuctedhjm3zk2nlgq6lbe5ebbe64hppmlnn3mao4di6.py":58:35)
#loc61 = loc("/tmp/torchinductor_root/le/clex26fdkcuctedhjm3zk2nlgq6lbe5ebbe64hppmlnn3mao4di6.py":59:28)
#loc62 = loc("/tmp/torchinductor_root/le/clex26fdkcuctedhjm3zk2nlgq6lbe5ebbe64hppmlnn3mao4di6.py":59:100)
#loc63 = loc("/tmp/torchinductor_root/le/clex26fdkcuctedhjm3zk2nlgq6lbe5ebbe64hppmlnn3mao4di6.py":59:65)
#loc64 = loc("/tmp/torchinductor_root/le/clex26fdkcuctedhjm3zk2nlgq6lbe5ebbe64hppmlnn3mao4di6.py":59:112)
#loc65 = loc("/tmp/torchinductor_root/le/clex26fdkcuctedhjm3zk2nlgq6lbe5ebbe64hppmlnn3mao4di6.py":59:110)
#loc66 = loc("/tmp/torchinductor_root/le/clex26fdkcuctedhjm3zk2nlgq6lbe5ebbe64hppmlnn3mao4di6.py":59:128)
#loc67 = loc("/tmp/torchinductor_root/le/clex26fdkcuctedhjm3zk2nlgq6lbe5ebbe64hppmlnn3mao4di6.py":60:34)
#loc68 = loc("/tmp/torchinductor_root/le/clex26fdkcuctedhjm3zk2nlgq6lbe5ebbe64hppmlnn3mao4di6.py":60:43)
#loc69 = loc("/tmp/torchinductor_root/le/clex26fdkcuctedhjm3zk2nlgq6lbe5ebbe64hppmlnn3mao4di6.py":60:31)
#loc70 = loc("/tmp/torchinductor_root/le/clex26fdkcuctedhjm3zk2nlgq6lbe5ebbe64hppmlnn3mao4di6.py":60:57)
#loc71 = loc("/tmp/torchinductor_root/le/clex26fdkcuctedhjm3zk2nlgq6lbe5ebbe64hppmlnn3mao4di6.py":60:116)
#loc72 = loc("/tmp/torchinductor_root/le/clex26fdkcuctedhjm3zk2nlgq6lbe5ebbe64hppmlnn3mao4di6.py":61:20)
#loc73 = loc("/tmp/torchinductor_root/le/clex26fdkcuctedhjm3zk2nlgq6lbe5ebbe64hppmlnn3mao4di6.py":62:50)
#loc74 = loc("/tmp/torchinductor_root/le/clex26fdkcuctedhjm3zk2nlgq6lbe5ebbe64hppmlnn3mao4di6.py":62:31)
#loc75 = loc("/tmp/torchinductor_root/le/clex26fdkcuctedhjm3zk2nlgq6lbe5ebbe64hppmlnn3mao4di6.py":62:64)
#loc76 = loc("/tmp/torchinductor_root/le/clex26fdkcuctedhjm3zk2nlgq6lbe5ebbe64hppmlnn3mao4di6.py":62:123)
#loc77 = loc("/tmp/torchinductor_root/le/clex26fdkcuctedhjm3zk2nlgq6lbe5ebbe64hppmlnn3mao4di6.py":63:36)
#loc78 = loc("/tmp/torchinductor_root/le/clex26fdkcuctedhjm3zk2nlgq6lbe5ebbe64hppmlnn3mao4di6.py":63:48)
#loc79 = loc("/tmp/torchinductor_root/le/clex26fdkcuctedhjm3zk2nlgq6lbe5ebbe64hppmlnn3mao4di6.py":63:31)
#loc80 = loc("/tmp/torchinductor_root/le/clex26fdkcuctedhjm3zk2nlgq6lbe5ebbe64hppmlnn3mao4di6.py":63:62)
#loc81 = loc("/tmp/torchinductor_root/le/clex26fdkcuctedhjm3zk2nlgq6lbe5ebbe64hppmlnn3mao4di6.py":63:121)
#loc82 = loc("/tmp/torchinductor_root/le/clex26fdkcuctedhjm3zk2nlgq6lbe5ebbe64hppmlnn3mao4di6.py":64:20)
#loc83 = loc("/tmp/torchinductor_root/le/clex26fdkcuctedhjm3zk2nlgq6lbe5ebbe64hppmlnn3mao4di6.py":65:20)
#loc84 = loc("/tmp/torchinductor_root/le/clex26fdkcuctedhjm3zk2nlgq6lbe5ebbe64hppmlnn3mao4di6.py":67:35)
#loc85 = loc("/tmp/torchinductor_root/le/clex26fdkcuctedhjm3zk2nlgq6lbe5ebbe64hppmlnn3mao4di6.py":68:34)
#loc86 = loc("/tmp/torchinductor_root/le/clex26fdkcuctedhjm3zk2nlgq6lbe5ebbe64hppmlnn3mao4di6.py":49:34)
#loc87 = loc("/tmp/torchinductor_root/le/clex26fdkcuctedhjm3zk2nlgq6lbe5ebbe64hppmlnn3mao4di6.py":69:25)
#loc88 = loc("/tmp/torchinductor_root/le/clex26fdkcuctedhjm3zk2nlgq6lbe5ebbe64hppmlnn3mao4di6.py":69:37)
#loc89 = loc("/tmp/torchinductor_root/le/clex26fdkcuctedhjm3zk2nlgq6lbe5ebbe64hppmlnn3mao4di6.py":69:4)
#loc95 = loc("x2"(#loc2))
#loc96 = loc("x1"(#loc3))
#loc97 = loc("xoffset"(#loc4))
#loc98 = loc("xoffset"(#loc5))
#loc99 = loc("xindex"(#loc6))
#loc100 = loc("xindex"(#loc7))
#loc101 = loc("xmask"(#loc8))
#loc102 = loc("x0"(#loc9))
#loc103 = loc("x1"(#loc10))
#loc104 = loc("tmp4"(#loc11))
#loc105 = loc("tmp5"(#loc12))
#loc106 = loc("tmp5"(#loc13))
#loc107 = loc("tmp5"(#loc14))
#loc108 = loc("tmp5"(#loc15))
#loc109 = loc("tmp5"(#loc16))
#loc110 = loc("tmp5"(#loc17))
#loc111 = loc("tmp5"(#loc18))
#loc112 = loc("tmp5"(#loc19))
#loc113 = loc("tmp6"(#loc20))
#loc114 = loc("tmp6"(#loc21))
#loc115 = loc("tmp8"(#loc22))
#loc116 = loc("tmp9"(#loc23))
#loc117 = loc("tmp10"(#loc24))
#loc118 = loc("tmp12"(#loc31))
#loc119 = loc("tmp12"(#loc32))
#loc120 = loc("tmp12"(#loc33))
#loc121 = loc("tmp12"(#loc34))
#loc122 = loc("tmp12"(#loc35))
#loc123 = loc("tmp13"(#loc36))
#loc124 = loc("tmp14"(#loc37))
#loc125 = loc("tmp14"(#loc38))
#loc126 = loc("tmp14"(#loc39))
#loc127 = loc("tmp14"(#loc40))
#loc128 = loc("tmp14"(#loc41))
#loc129 = loc("tmp14"(#loc42))
#loc130 = loc("tmp15"(#loc43))
#loc131 = loc("tmp15"(#loc44))
#loc132 = loc("tmp15"(#loc45))
#loc133 = loc("tmp15"(#loc46))
#loc134 = loc("tmp15"(#loc47))
#loc135 = loc("tmp16"(#loc48))
#loc136 = loc("tmp17"(#loc49))
#loc137 = loc("tmp20"(#loc50))
#loc138 = loc("tmp23"(#loc51))
#loc139 = loc("tmp23"(#loc52))
#loc140 = loc("tmp23"(#loc53))
#loc141 = loc("tmp23"(#loc54))
#loc142 = loc("tmp23"(#loc55))
#loc143 = loc("tmp23"(#loc56))
#loc144 = loc("tmp24"(#loc57))
#loc145 = loc("tmp26"(#loc58))
#loc146 = loc("tmp27"(#loc59))
#loc147 = loc("tmp28"(#loc60))
#loc148 = loc("tmp30"(#loc67))
#loc149 = loc("tmp30"(#loc68))
#loc150 = loc("tmp30"(#loc69))
#loc151 = loc("tmp30"(#loc70))
#loc152 = loc("tmp30"(#loc71))
#loc153 = loc("tmp31"(#loc72))
#loc154 = loc("tmp32"(#loc73))
#loc155 = loc("tmp32"(#loc74))
#loc156 = loc("tmp32"(#loc75))
#loc157 = loc("tmp32"(#loc76))
#loc158 = loc("tmp33"(#loc77))
#loc159 = loc("tmp33"(#loc78))
#loc160 = loc("tmp33"(#loc79))
#loc161 = loc("tmp33"(#loc80))
#loc162 = loc("tmp33"(#loc81))
#loc163 = loc("tmp34"(#loc82))
#loc164 = loc("tmp35"(#loc83))
#loc165 = loc("tmp37"(#loc84))
#loc166 = loc("tmp38"(#loc85))
#loc167 = loc("tmp19"(#loc86))
#loc168 = loc(fused[#loc166, #loc167])
