#loc = loc("/root/autodl-tmp/HuangJieCode/Big-Yellow-J.github.io/code/Python/RL-TRL/~/autodl-tmp/tmp-sore/torchinductor_root/hl/chllm7hata3tr5wbjfg2lqh4ng3k5ax4ptm7ipmv6zxvy6vbh7i2.py":18:0)
#loc1 = loc(unknown)
#loc33 = loc("/root/autodl-tmp/HuangJieCode/Big-Yellow-J.github.io/code/Python/RL-TRL/~/autodl-tmp/tmp-sore/torchinductor_root/hl/chllm7hata3tr5wbjfg2lqh4ng3k5ax4ptm7ipmv6zxvy6vbh7i2.py":48:27)
#loc39 = loc("in_ptr0"(#loc))
#loc40 = loc("in_ptr1"(#loc))
#loc41 = loc("out_ptr0"(#loc))
#loc42 = loc("ks0"(#loc))
#loc43 = loc("xnumel"(#loc))
#loc44 = loc("r0_numel"(#loc))
#loc74 = loc("tmp10"(#loc33))
#loc80 = loc(callsite(#loc1 at #loc74))
module {
  tt.func public @triton_red_fused_ge_sum_0(%in_ptr0: !tt.ptr<f32> {tt.divisibility = 16 : i32} loc("in_ptr0"(#loc)), %in_ptr1: !tt.ptr<f32> {tt.divisibility = 16 : i32} loc("in_ptr1"(#loc)), %out_ptr0: !tt.ptr<i64> {tt.divisibility = 16 : i32} loc("out_ptr0"(#loc)), %ks0: i64 loc("ks0"(#loc)), %xnumel: i32 loc("xnumel"(#loc)), %r0_numel: i32 loc("r0_numel"(#loc))) attributes {noinline = false} {
    %c19_i32 = arith.constant 19 : i32 loc(#loc1)
    %c2048_i32 = arith.constant 2048 : i32 loc(#loc2)
    %c0_i32 = arith.constant 0 : i32 loc(#loc2)
    %cst = arith.constant dense<0.000000e+00> : tensor<1x2048xf32> loc(#loc1)
    %c19_i64 = arith.constant 19 : i64 loc(#loc1)
    %c18_i64 = arith.constant 18 : i64 loc(#loc1)
    %cst_0 = arith.constant dense<0> : tensor<1x2048xi64> loc(#loc1)
    %xoffset = tt.get_program_id x : i32 loc(#loc45)
    %xmask = arith.cmpi slt, %xoffset, %xnumel : i32 loc(#loc46)
    %xmask_1 = tt.splat %xmask : i1 -> tensor<1x1xi1> loc(#loc46)
    %r0_base = tt.make_range {end = 2048 : i32, start = 0 : i32} : tensor<2048xi32> loc(#loc47)
    %r0_base_2 = tt.expand_dims %r0_base {axis = 0 : i32} : tensor<2048xi32> -> tensor<1x2048xi32> loc(#loc48)
    %x0 = arith.remsi %xoffset, %c19_i32 : i32 loc(#loc49)
    %x1 = arith.divsi %xoffset, %c19_i32 : i32 loc(#loc50)
    %_tmp10 = scf.for %r0_offset = %c0_i32 to %r0_numel step %c2048_i32 iter_args(%_tmp10_4 = %cst_0) -> (tensor<1x2048xi64>)  : i32 {
      %r0_index = tt.splat %r0_offset : i32 -> tensor<1x2048xi32> loc(#loc52)
      %r0_index_5 = arith.addi %r0_index, %r0_base_2 : tensor<1x2048xi32> loc(#loc52)
      %r0_mask = tt.splat %r0_numel : i32 -> tensor<1x2048xi32> loc(#loc53)
      %r0_mask_6 = arith.cmpi slt, %r0_index_5, %r0_mask : tensor<1x2048xi32> loc(#loc53)
      %tmp0 = arith.addi %ks0, %c18_i64 : i64 loc(#loc54)
      %tmp0_7 = arith.divsi %tmp0, %c19_i64 : i64 loc(#loc55)
      %tmp0_8 = arith.extsi %x0 : i32 to i64 loc(#loc56)
      %tmp0_9 = arith.muli %tmp0_8, %tmp0_7 : i64 loc(#loc56)
      %tmp0_10 = arith.extsi %r0_index_5 : tensor<1x2048xi32> to tensor<1x2048xi64> loc(#loc57)
      %tmp0_11 = tt.splat %tmp0_9 : i64 -> tensor<1x2048xi64> loc(#loc76)
      %tmp0_12 = arith.addi %tmp0_10, %tmp0_11 : tensor<1x2048xi64> loc(#loc57)
      %tmp2 = tt.splat %ks0 : i64 -> tensor<1x2048xi64> loc(#loc58)
      %tmp2_13 = arith.cmpi slt, %tmp0_12, %tmp2 : tensor<1x2048xi64> loc(#loc58)
      %tmp3 = arith.extsi %x1 : i32 to i64 loc(#loc59)
      %tmp3_14 = arith.muli %ks0, %tmp3 : i64 loc(#loc59)
      %tmp3_15 = tt.splat %tmp3_14 : i64 -> tensor<1x2048xi64> loc(#loc77)
      %tmp3_16 = arith.addi %tmp0_10, %tmp3_15 : tensor<1x2048xi64> loc(#loc60)
      %tmp3_17 = arith.addi %tmp3_16, %tmp0_11 : tensor<1x2048xi64> loc(#loc61)
      %tmp3_18 = tt.splat %in_ptr0 : !tt.ptr<f32> -> tensor<1x2048x!tt.ptr<f32>> loc(#loc62)
      %tmp3_19 = tt.addptr %tmp3_18, %tmp3_17 : tensor<1x2048x!tt.ptr<f32>>, tensor<1x2048xi64> loc(#loc62)
      %tmp3_20 = arith.andi %r0_mask_6, %tmp2_13 : tensor<1x2048xi1> loc(#loc63)
      %tmp3_21 = tt.splat %xmask : i1 -> tensor<1x2048xi1> loc(#loc78)
      %tmp3_22 = arith.andi %tmp3_20, %tmp3_21 : tensor<1x2048xi1> loc(#loc64)
      %tmp3_23 = tt.load %tmp3_19, %tmp3_22, %cst evictionPolicy = evict_first : tensor<1x2048x!tt.ptr<f32>> loc(#loc65)
      %tmp4 = tt.addptr %in_ptr1, %x1 : !tt.ptr<f32>, i32 loc(#loc66)
      %tmp4_24 = tt.splat %tmp4 : !tt.ptr<f32> -> tensor<1x2048x!tt.ptr<f32>> loc(#loc66)
      %tmp4_25 = tt.load %tmp4_24, %tmp3_22, %cst evictionPolicy = evict_last : tensor<1x2048x!tt.ptr<f32>> loc(#loc67)
      %tmp5 = arith.cmpf oge, %tmp3_23, %tmp4_25 : tensor<1x2048xf32> loc(#loc68)
      %tmp6 = arith.extui %tmp5 : tensor<1x2048xi1> to tensor<1x2048xi64> loc(#loc69)
      %tmp8 = arith.select %tmp2_13, %tmp6, %cst_0 : tensor<1x2048xi1>, tensor<1x2048xi64> loc(#loc70)
      %tmp11 = arith.addi %_tmp10_4, %tmp8 : tensor<1x2048xi64> loc(#loc71)
      %_tmp10_26 = arith.andi %r0_mask_6, %tmp3_21 : tensor<1x2048xi1> loc(#loc72)
      %_tmp10_27 = arith.select %_tmp10_26, %tmp11, %_tmp10_4 : tensor<1x2048xi1>, tensor<1x2048xi64> loc(#loc73)
      scf.yield %_tmp10_27 : tensor<1x2048xi64> loc(#loc31)
    } loc(#loc51)
    %tmp10 = "tt.reduce"(%_tmp10) <{axis = 1 : i32}> ({
    ^bb0(%tmp10_4: i64 loc(callsite(#loc1 at #loc74)), %tmp10_5: i64 loc(callsite(#loc1 at #loc74))):
      %tmp10_6 = arith.addi %tmp10_4, %tmp10_5 : i64 loc(#loc81)
      tt.reduce.return %tmp10_6 : i64 loc(#loc79)
    }) : (tensor<1x2048xi64>) -> tensor<1xi64> loc(#loc79)
    %tmp10_3 = tt.expand_dims %tmp10 {axis = 1 : i32} : tensor<1xi64> -> tensor<1x1xi64> loc(#loc75)
    %0 = tt.addptr %out_ptr0, %xoffset : !tt.ptr<i64>, i32 loc(#loc36)
    %1 = tt.splat %0 : !tt.ptr<i64> -> tensor<1x1x!tt.ptr<i64>> loc(#loc36)
    tt.store %1, %tmp10_3, %xmask_1 : tensor<1x1x!tt.ptr<i64>> loc(#loc37)
    tt.return loc(#loc38)
  } loc(#loc)
} loc(#loc)
#loc2 = loc("/root/autodl-tmp/HuangJieCode/Big-Yellow-J.github.io/code/Python/RL-TRL/~/autodl-tmp/tmp-sore/torchinductor_root/hl/chllm7hata3tr5wbjfg2lqh4ng3k5ax4ptm7ipmv6zxvy6vbh7i2.py":30:40)
#loc3 = loc("/root/autodl-tmp/HuangJieCode/Big-Yellow-J.github.io/code/Python/RL-TRL/~/autodl-tmp/tmp-sore/torchinductor_root/hl/chllm7hata3tr5wbjfg2lqh4ng3k5ax4ptm7ipmv6zxvy6vbh7i2.py":21:28)
#loc4 = loc("/root/autodl-tmp/HuangJieCode/Big-Yellow-J.github.io/code/Python/RL-TRL/~/autodl-tmp/tmp-sore/torchinductor_root/hl/chllm7hata3tr5wbjfg2lqh4ng3k5ax4ptm7ipmv6zxvy6vbh7i2.py":23:21)
#loc5 = loc("/root/autodl-tmp/HuangJieCode/Big-Yellow-J.github.io/code/Python/RL-TRL/~/autodl-tmp/tmp-sore/torchinductor_root/hl/chllm7hata3tr5wbjfg2lqh4ng3k5ax4ptm7ipmv6zxvy6vbh7i2.py":24:27)
#loc6 = loc("/root/autodl-tmp/HuangJieCode/Big-Yellow-J.github.io/code/Python/RL-TRL/~/autodl-tmp/tmp-sore/torchinductor_root/hl/chllm7hata3tr5wbjfg2lqh4ng3k5ax4ptm7ipmv6zxvy6vbh7i2.py":24:37)
#loc7 = loc("/root/autodl-tmp/HuangJieCode/Big-Yellow-J.github.io/code/Python/RL-TRL/~/autodl-tmp/tmp-sore/torchinductor_root/hl/chllm7hata3tr5wbjfg2lqh4ng3k5ax4ptm7ipmv6zxvy6vbh7i2.py":26:19)
#loc8 = loc("/root/autodl-tmp/HuangJieCode/Big-Yellow-J.github.io/code/Python/RL-TRL/~/autodl-tmp/tmp-sore/torchinductor_root/hl/chllm7hata3tr5wbjfg2lqh4ng3k5ax4ptm7ipmv6zxvy6vbh7i2.py":27:19)
#loc9 = loc("/root/autodl-tmp/HuangJieCode/Big-Yellow-J.github.io/code/Python/RL-TRL/~/autodl-tmp/tmp-sore/torchinductor_root/hl/chllm7hata3tr5wbjfg2lqh4ng3k5ax4ptm7ipmv6zxvy6vbh7i2.py":31:31)
#loc10 = loc("/root/autodl-tmp/HuangJieCode/Big-Yellow-J.github.io/code/Python/RL-TRL/~/autodl-tmp/tmp-sore/torchinductor_root/hl/chllm7hata3tr5wbjfg2lqh4ng3k5ax4ptm7ipmv6zxvy6vbh7i2.py":32:29)
#loc11 = loc("/root/autodl-tmp/HuangJieCode/Big-Yellow-J.github.io/code/Python/RL-TRL/~/autodl-tmp/tmp-sore/torchinductor_root/hl/chllm7hata3tr5wbjfg2lqh4ng3k5ax4ptm7ipmv6zxvy6vbh7i2.py":36:32)
#loc12 = loc("/root/autodl-tmp/HuangJieCode/Big-Yellow-J.github.io/code/Python/RL-TRL/~/autodl-tmp/tmp-sore/torchinductor_root/hl/chllm7hata3tr5wbjfg2lqh4ng3k5ax4ptm7ipmv6zxvy6vbh7i2.py":36:40)
#loc13 = loc("/root/autodl-tmp/HuangJieCode/Big-Yellow-J.github.io/code/Python/RL-TRL/~/autodl-tmp/tmp-sore/torchinductor_root/hl/chllm7hata3tr5wbjfg2lqh4ng3k5ax4ptm7ipmv6zxvy6vbh7i2.py":36:26)
#loc14 = loc("/root/autodl-tmp/HuangJieCode/Big-Yellow-J.github.io/code/Python/RL-TRL/~/autodl-tmp/tmp-sore/torchinductor_root/hl/chllm7hata3tr5wbjfg2lqh4ng3k5ax4ptm7ipmv6zxvy6vbh7i2.py":36:22)
#loc15 = loc("/root/autodl-tmp/HuangJieCode/Big-Yellow-J.github.io/code/Python/RL-TRL/~/autodl-tmp/tmp-sore/torchinductor_root/hl/chllm7hata3tr5wbjfg2lqh4ng3k5ax4ptm7ipmv6zxvy6vbh7i2.py":38:22)
#loc16 = loc("/root/autodl-tmp/HuangJieCode/Big-Yellow-J.github.io/code/Python/RL-TRL/~/autodl-tmp/tmp-sore/torchinductor_root/hl/chllm7hata3tr5wbjfg2lqh4ng3k5ax4ptm7ipmv6zxvy6vbh7i2.py":39:45)
#loc17 = loc("/root/autodl-tmp/HuangJieCode/Big-Yellow-J.github.io/code/Python/RL-TRL/~/autodl-tmp/tmp-sore/torchinductor_root/hl/chllm7hata3tr5wbjfg2lqh4ng3k5ax4ptm7ipmv6zxvy6vbh7i2.py":39:41)
#loc18 = loc("/root/autodl-tmp/HuangJieCode/Big-Yellow-J.github.io/code/Python/RL-TRL/~/autodl-tmp/tmp-sore/torchinductor_root/hl/chllm7hata3tr5wbjfg2lqh4ng3k5ax4ptm7ipmv6zxvy6vbh7i2.py":39:50)
#loc19 = loc("/root/autodl-tmp/HuangJieCode/Big-Yellow-J.github.io/code/Python/RL-TRL/~/autodl-tmp/tmp-sore/torchinductor_root/hl/chllm7hata3tr5wbjfg2lqh4ng3k5ax4ptm7ipmv6zxvy6vbh7i2.py":39:34)
#loc20 = loc("/root/autodl-tmp/HuangJieCode/Big-Yellow-J.github.io/code/Python/RL-TRL/~/autodl-tmp/tmp-sore/torchinductor_root/hl/chllm7hata3tr5wbjfg2lqh4ng3k5ax4ptm7ipmv6zxvy6vbh7i2.py":39:84)
#loc21 = loc("/root/autodl-tmp/HuangJieCode/Big-Yellow-J.github.io/code/Python/RL-TRL/~/autodl-tmp/tmp-sore/torchinductor_root/hl/chllm7hata3tr5wbjfg2lqh4ng3k5ax4ptm7ipmv6zxvy6vbh7i2.py":39:91)
#loc22 = loc("/root/autodl-tmp/HuangJieCode/Big-Yellow-J.github.io/code/Python/RL-TRL/~/autodl-tmp/tmp-sore/torchinductor_root/hl/chllm7hata3tr5wbjfg2lqh4ng3k5ax4ptm7ipmv6zxvy6vbh7i2.py":39:74)
#loc23 = loc("/root/autodl-tmp/HuangJieCode/Big-Yellow-J.github.io/code/Python/RL-TRL/~/autodl-tmp/tmp-sore/torchinductor_root/hl/chllm7hata3tr5wbjfg2lqh4ng3k5ax4ptm7ipmv6zxvy6vbh7i2.py":40:34)
#loc24 = loc("/root/autodl-tmp/HuangJieCode/Big-Yellow-J.github.io/code/Python/RL-TRL/~/autodl-tmp/tmp-sore/torchinductor_root/hl/chllm7hata3tr5wbjfg2lqh4ng3k5ax4ptm7ipmv6zxvy6vbh7i2.py":40:76)
#loc25 = loc("/root/autodl-tmp/HuangJieCode/Big-Yellow-J.github.io/code/Python/RL-TRL/~/autodl-tmp/tmp-sore/torchinductor_root/hl/chllm7hata3tr5wbjfg2lqh4ng3k5ax4ptm7ipmv6zxvy6vbh7i2.py":41:23)
#loc26 = loc("/root/autodl-tmp/HuangJieCode/Big-Yellow-J.github.io/code/Python/RL-TRL/~/autodl-tmp/tmp-sore/torchinductor_root/hl/chllm7hata3tr5wbjfg2lqh4ng3k5ax4ptm7ipmv6zxvy6vbh7i2.py":42:23)
#loc27 = loc("/root/autodl-tmp/HuangJieCode/Big-Yellow-J.github.io/code/Python/RL-TRL/~/autodl-tmp/tmp-sore/torchinductor_root/hl/chllm7hata3tr5wbjfg2lqh4ng3k5ax4ptm7ipmv6zxvy6vbh7i2.py":44:36)
#loc28 = loc("/root/autodl-tmp/HuangJieCode/Big-Yellow-J.github.io/code/Python/RL-TRL/~/autodl-tmp/tmp-sore/torchinductor_root/hl/chllm7hata3tr5wbjfg2lqh4ng3k5ax4ptm7ipmv6zxvy6vbh7i2.py":46:25)
#loc29 = loc("/root/autodl-tmp/HuangJieCode/Big-Yellow-J.github.io/code/Python/RL-TRL/~/autodl-tmp/tmp-sore/torchinductor_root/hl/chllm7hata3tr5wbjfg2lqh4ng3k5ax4ptm7ipmv6zxvy6vbh7i2.py":47:36)
#loc30 = loc("/root/autodl-tmp/HuangJieCode/Big-Yellow-J.github.io/code/Python/RL-TRL/~/autodl-tmp/tmp-sore/torchinductor_root/hl/chllm7hata3tr5wbjfg2lqh4ng3k5ax4ptm7ipmv6zxvy6vbh7i2.py":47:50)
#loc31 = loc("/root/autodl-tmp/HuangJieCode/Big-Yellow-J.github.io/code/Python/RL-TRL/~/autodl-tmp/tmp-sore/torchinductor_root/hl/chllm7hata3tr5wbjfg2lqh4ng3k5ax4ptm7ipmv6zxvy6vbh7i2.py":47:8)
#loc32 = loc("/root/autodl-tmp/env/klein9BAPI/lib/python3.10/site-packages/triton/language/standard.py":293:36)
#loc34 = loc("/root/autodl-tmp/env/klein9BAPI/lib/python3.10/site-packages/triton/language/standard.py":263:15)
#loc35 = loc("/root/autodl-tmp/HuangJieCode/Big-Yellow-J.github.io/code/Python/RL-TRL/~/autodl-tmp/tmp-sore/torchinductor_root/hl/chllm7hata3tr5wbjfg2lqh4ng3k5ax4ptm7ipmv6zxvy6vbh7i2.py":48:30)
#loc36 = loc("/root/autodl-tmp/HuangJieCode/Big-Yellow-J.github.io/code/Python/RL-TRL/~/autodl-tmp/tmp-sore/torchinductor_root/hl/chllm7hata3tr5wbjfg2lqh4ng3k5ax4ptm7ipmv6zxvy6vbh7i2.py":49:25)
#loc37 = loc("/root/autodl-tmp/HuangJieCode/Big-Yellow-J.github.io/code/Python/RL-TRL/~/autodl-tmp/tmp-sore/torchinductor_root/hl/chllm7hata3tr5wbjfg2lqh4ng3k5ax4ptm7ipmv6zxvy6vbh7i2.py":49:37)
#loc38 = loc("/root/autodl-tmp/HuangJieCode/Big-Yellow-J.github.io/code/Python/RL-TRL/~/autodl-tmp/tmp-sore/torchinductor_root/hl/chllm7hata3tr5wbjfg2lqh4ng3k5ax4ptm7ipmv6zxvy6vbh7i2.py":49:4)
#loc45 = loc("xoffset"(#loc3))
#loc46 = loc("xmask"(#loc4))
#loc47 = loc("r0_base"(#loc5))
#loc48 = loc("r0_base"(#loc6))
#loc49 = loc("x0"(#loc7))
#loc50 = loc("x1"(#loc8))
#loc51 = loc("_tmp10"(#loc2))
#loc52 = loc("r0_index"(#loc9))
#loc53 = loc("r0_mask"(#loc10))
#loc54 = loc("tmp0"(#loc11))
#loc55 = loc("tmp0"(#loc12))
#loc56 = loc("tmp0"(#loc13))
#loc57 = loc("tmp0"(#loc14))
#loc58 = loc("tmp2"(#loc15))
#loc59 = loc("tmp3"(#loc16))
#loc60 = loc("tmp3"(#loc17))
#loc61 = loc("tmp3"(#loc18))
#loc62 = loc("tmp3"(#loc19))
#loc63 = loc("tmp3"(#loc20))
#loc64 = loc("tmp3"(#loc21))
#loc65 = loc("tmp3"(#loc22))
#loc66 = loc("tmp4"(#loc23))
#loc67 = loc("tmp4"(#loc24))
#loc68 = loc("tmp5"(#loc25))
#loc69 = loc("tmp6"(#loc26))
#loc70 = loc("tmp8"(#loc27))
#loc71 = loc("tmp11"(#loc28))
#loc72 = loc("_tmp10"(#loc29))
#loc73 = loc("_tmp10"(#loc30))
#loc75 = loc("tmp10"(#loc35))
#loc76 = loc(fused[#loc57, #loc56])
#loc77 = loc(fused[#loc60, #loc59])
#loc78 = loc(fused[#loc64, #loc46])
#loc79 = loc(callsite(#loc32 at #loc74))
#loc81 = loc(callsite(#loc34 at #loc79))
