#loc = loc("/root/autodl-tmp/HuangJieCode/Big-Yellow-J.github.io/code/Python/RL-TRL/~/autodl-tmp/tmp-sore/torchinductor_root/hl/chllm7hata3tr5wbjfg2lqh4ng3k5ax4ptm7ipmv6zxvy6vbh7i2.py":18:0)
#loc48 = loc("/root/autodl-tmp/env/klein9BAPI/lib/python3.10/site-packages/triton/language/standard.py":287:0)
#loc50 = loc(unknown)
#loc53 = loc("/root/autodl-tmp/env/klein9BAPI/lib/python3.10/site-packages/triton/language/standard.py":262:0)
#loc57 = loc("in_ptr0"(#loc))
#loc58 = loc("in_ptr1"(#loc))
#loc59 = loc("out_ptr0"(#loc))
#loc60 = loc("ks0"(#loc))
#loc61 = loc("xnumel"(#loc))
#loc62 = loc("r0_numel"(#loc))
#loc106 = loc("input"(#loc48))
#loc107 = loc("a"(#loc53))
#loc108 = loc("b"(#loc53))
module {
  tt.func public @triton_red_fused_ge_sum_0(%in_ptr0: !tt.ptr<f32> {tt.divisibility = 16 : i32} loc("in_ptr0"(#loc)), %in_ptr1: !tt.ptr<f32> {tt.divisibility = 16 : i32} loc("in_ptr1"(#loc)), %out_ptr0: !tt.ptr<i64> {tt.divisibility = 16 : i32} loc("out_ptr0"(#loc)), %ks0: i64 loc("ks0"(#loc)), %xnumel: i32 loc("xnumel"(#loc)), %r0_numel: i32 loc("r0_numel"(#loc))) attributes {noinline = false} {
    %xoffset = tt.get_program_id x : i32 loc(#loc63)
    %xoffset_0 = arith.constant 1 : i32 loc(#loc64)
    %xoffset_1 = arith.constant 1 : i32 loc(#loc64)
    %xoffset_2 = arith.muli %xoffset, %xoffset_1 : i32 loc(#loc64)
    %xindex = tt.make_range {end = 1 : i32, start = 0 : i32} : tensor<1xi32> loc(#loc65)
    %xindex_3 = tt.expand_dims %xindex {axis = 1 : i32} : tensor<1xi32> -> tensor<1x1xi32> loc(#loc66)
    %xindex_4 = tt.splat %xoffset_2 : i32 -> tensor<1x1xi32> loc(#loc67)
    %xindex_5 = arith.addi %xindex_4, %xindex_3 : tensor<1x1xi32> loc(#loc67)
    %xmask = tt.splat %xnumel : i32 -> tensor<1x1xi32> loc(#loc68)
    %xmask_6 = arith.cmpi slt, %xindex_5, %xmask : tensor<1x1xi32> loc(#loc68)
    %r0_base = tt.make_range {end = 2048 : i32, start = 0 : i32} : tensor<2048xi32> loc(#loc69)
    %r0_base_7 = tt.expand_dims %r0_base {axis = 0 : i32} : tensor<2048xi32> -> tensor<1x2048xi32> loc(#loc70)
    %x0 = arith.constant 19 : i32 loc(#loc71)
    %x0_8 = arith.constant 19 : i32 loc(#loc71)
    %x0_9 = arith.constant dense<19> : tensor<1x1xi32> loc(#loc71)
    %x0_10 = arith.remsi %xindex_5, %x0_9 : tensor<1x1xi32> loc(#loc71)
    %x1 = arith.constant 19 : i32 loc(#loc72)
    %x1_11 = arith.constant 19 : i32 loc(#loc72)
    %x1_12 = arith.constant dense<19> : tensor<1x1xi32> loc(#loc72)
    %x1_13 = arith.divsi %xindex_5, %x1_12 : tensor<1x1xi32> loc(#loc72)
    %_tmp10 = arith.constant 0 : i64 loc(#loc73)
    %_tmp10_14 = arith.constant dense<0> : tensor<1x2048xi64> loc(#loc73)
    %c0_i32 = arith.constant 0 : i32 loc(#loc12)
    %c2048_i32 = arith.constant 2048 : i32 loc(#loc12)
    %0 = arith.bitcast %c0_i32 : i32 to i32 loc(#loc12)
    %1 = arith.bitcast %r0_numel : i32 to i32 loc(#loc12)
    %2 = arith.bitcast %c2048_i32 : i32 to i32 loc(#loc12)
    %3 = ub.poison : i32 loc(#loc12)
    %_tmp10_15 = scf.for %r0_offset = %0 to %1 step %2 iter_args(%_tmp10_17 = %_tmp10_14) -> (tensor<1x2048xi64>)  : i32 {
      %r0_index = tt.splat %r0_offset : i32 -> tensor<1x2048xi32> loc(#loc75)
      %r0_index_18 = arith.addi %r0_index, %r0_base_7 : tensor<1x2048xi32> loc(#loc75)
      %r0_mask = tt.splat %r0_numel : i32 -> tensor<1x2048xi32> loc(#loc76)
      %r0_mask_19 = arith.cmpi slt, %r0_index_18, %r0_mask : tensor<1x2048xi32> loc(#loc76)
      %tmp0 = arith.constant 18 : i32 loc(#loc77)
      %tmp0_20 = arith.constant 18 : i64 loc(#loc77)
      %tmp0_21 = arith.addi %tmp0_20, %ks0 : i64 loc(#loc77)
      %tmp0_22 = arith.constant 19 : i32 loc(#loc78)
      %tmp0_23 = arith.constant 19 : i64 loc(#loc78)
      %tmp0_24 = arith.divsi %tmp0_21, %tmp0_23 : i64 loc(#loc78)
      %tmp0_25 = arith.extsi %x0_10 : tensor<1x1xi32> to tensor<1x1xi64> loc(#loc79)
      %tmp0_26 = tt.splat %tmp0_24 : i64 -> tensor<1x1xi64> loc(#loc79)
      %tmp0_27 = arith.muli %tmp0_25, %tmp0_26 : tensor<1x1xi64> loc(#loc79)
      %tmp0_28 = arith.extsi %r0_index_18 : tensor<1x2048xi32> to tensor<1x2048xi64> loc(#loc80)
      %tmp0_29 = tt.broadcast %tmp0_27 : tensor<1x1xi64> -> tensor<1x2048xi64> loc(#loc80)
      %tmp0_30 = arith.addi %tmp0_28, %tmp0_29 : tensor<1x2048xi64> loc(#loc80)
      %tmp2 = tt.splat %ks0 : i64 -> tensor<1x2048xi64> loc(#loc81)
      %tmp2_31 = arith.cmpi slt, %tmp0_30, %tmp2 : tensor<1x2048xi64> loc(#loc81)
      %tmp3 = arith.extsi %x1_13 : tensor<1x1xi32> to tensor<1x1xi64> loc(#loc82)
      %tmp3_32 = tt.splat %ks0 : i64 -> tensor<1x1xi64> loc(#loc82)
      %tmp3_33 = arith.muli %tmp3_32, %tmp3 : tensor<1x1xi64> loc(#loc82)
      %tmp3_34 = arith.extsi %r0_index_18 : tensor<1x2048xi32> to tensor<1x2048xi64> loc(#loc83)
      %tmp3_35 = tt.broadcast %tmp3_33 : tensor<1x1xi64> -> tensor<1x2048xi64> loc(#loc83)
      %tmp3_36 = arith.addi %tmp3_34, %tmp3_35 : tensor<1x2048xi64> loc(#loc83)
      %tmp3_37 = arith.constant 18 : i32 loc(#loc84)
      %tmp3_38 = arith.constant 18 : i64 loc(#loc84)
      %tmp3_39 = arith.addi %tmp3_38, %ks0 : i64 loc(#loc84)
      %tmp3_40 = arith.constant 19 : i32 loc(#loc85)
      %tmp3_41 = arith.constant 19 : i64 loc(#loc85)
      %tmp3_42 = arith.divsi %tmp3_39, %tmp3_41 : i64 loc(#loc85)
      %tmp3_43 = arith.extsi %x0_10 : tensor<1x1xi32> to tensor<1x1xi64> loc(#loc86)
      %tmp3_44 = tt.splat %tmp3_42 : i64 -> tensor<1x1xi64> loc(#loc86)
      %tmp3_45 = arith.muli %tmp3_43, %tmp3_44 : tensor<1x1xi64> loc(#loc86)
      %tmp3_46 = tt.broadcast %tmp3_45 : tensor<1x1xi64> -> tensor<1x2048xi64> loc(#loc87)
      %tmp3_47 = arith.addi %tmp3_36, %tmp3_46 : tensor<1x2048xi64> loc(#loc87)
      %tmp3_48 = tt.splat %in_ptr0 : !tt.ptr<f32> -> tensor<1x2048x!tt.ptr<f32>> loc(#loc88)
      %tmp3_49 = tt.addptr %tmp3_48, %tmp3_47 : tensor<1x2048x!tt.ptr<f32>>, tensor<1x2048xi64> loc(#loc88)
      %tmp3_50 = arith.andi %r0_mask_19, %tmp2_31 : tensor<1x2048xi1> loc(#loc89)
      %tmp3_51 = tt.broadcast %xmask_6 : tensor<1x1xi1> -> tensor<1x2048xi1> loc(#loc90)
      %tmp3_52 = arith.andi %tmp3_50, %tmp3_51 : tensor<1x2048xi1> loc(#loc90)
      %tmp3_53 = arith.constant 0.000000e+00 : f32 loc(#loc91)
      %tmp3_54 = arith.constant dense<0.000000e+00> : tensor<1x2048xf32> loc(#loc91)
      %tmp3_55 = tt.load %tmp3_49, %tmp3_52, %tmp3_54 evictionPolicy = evict_first : tensor<1x2048x!tt.ptr<f32>> loc(#loc91)
      %tmp4 = tt.broadcast %x1_13 : tensor<1x1xi32> -> tensor<1x2048xi32> loc(#loc92)
      %tmp4_56 = tt.splat %in_ptr1 : !tt.ptr<f32> -> tensor<1x2048x!tt.ptr<f32>> loc(#loc93)
      %tmp4_57 = tt.addptr %tmp4_56, %tmp4 : tensor<1x2048x!tt.ptr<f32>>, tensor<1x2048xi32> loc(#loc93)
      %tmp4_58 = arith.andi %r0_mask_19, %tmp2_31 : tensor<1x2048xi1> loc(#loc94)
      %tmp4_59 = tt.broadcast %xmask_6 : tensor<1x1xi1> -> tensor<1x2048xi1> loc(#loc95)
      %tmp4_60 = arith.andi %tmp4_58, %tmp4_59 : tensor<1x2048xi1> loc(#loc95)
      %tmp4_61 = arith.constant 0.000000e+00 : f32 loc(#loc96)
      %tmp4_62 = arith.constant dense<0.000000e+00> : tensor<1x2048xf32> loc(#loc96)
      %tmp4_63 = tt.load %tmp4_57, %tmp4_60, %tmp4_62 evictionPolicy = evict_last : tensor<1x2048x!tt.ptr<f32>> loc(#loc96)
      %tmp5 = arith.cmpf oge, %tmp3_55, %tmp4_63 : tensor<1x2048xf32> loc(#loc97)
      %tmp6 = arith.extui %tmp5 : tensor<1x2048xi1> to tensor<1x2048xi64> loc(#loc98)
      %tmp7 = arith.constant 0 : i64 loc(#loc99)
      %tmp7_64 = arith.constant dense<0> : tensor<1x2048xi64> loc(#loc99)
      %tmp8 = arith.select %tmp2_31, %tmp6, %tmp7_64 : tensor<1x2048xi1>, tensor<1x2048xi64> loc(#loc100)
      %tmp11 = arith.addi %_tmp10_17, %tmp8 : tensor<1x2048xi64> loc(#loc101)
      %_tmp10_65 = tt.broadcast %xmask_6 : tensor<1x1xi1> -> tensor<1x2048xi1> loc(#loc102)
      %_tmp10_66 = arith.andi %r0_mask_19, %_tmp10_65 : tensor<1x2048xi1> loc(#loc102)
      %_tmp10_67 = arith.select %_tmp10_66, %tmp11, %_tmp10_17 : tensor<1x2048xi1>, tensor<1x2048xi64> loc(#loc103)
      scf.yield %_tmp10_67 : tensor<1x2048xi64> loc(#loc42)
    } loc(#loc74)
    %tmp10 = tt.call @"triton.language.standard.sum__i64S1_2048S__(1,)cconstexpr_1__(2,)cconstexpr_False__(3,)cNone"(%_tmp10_15) : (tensor<1x2048xi64>) -> tensor<1xi64> loc(#loc104)
    %tmp10_16 = tt.expand_dims %tmp10 {axis = 1 : i32} : tensor<1xi64> -> tensor<1x1xi64> loc(#loc105)
    %4 = tt.splat %out_ptr0 : !tt.ptr<i64> -> tensor<1x1x!tt.ptr<i64>> loc(#loc45)
    %5 = tt.addptr %4, %xindex_5 : tensor<1x1x!tt.ptr<i64>>, tensor<1x1xi32> loc(#loc45)
    tt.store %5, %tmp10_16, %xmask_6 : tensor<1x1x!tt.ptr<i64>> loc(#loc46)
    tt.return loc(#loc47)
  } loc(#loc)
  tt.func private @"triton.language.standard.sum__i64S1_2048S__(1,)cconstexpr_1__(2,)cconstexpr_False__(3,)cNone"(%input: tensor<1x2048xi64> loc("input"(#loc48))) -> tensor<1xi64> attributes {noinline = false} {
    %0 = "tt.reduce"(%input) <{axis = 1 : i32}> ({
    ^bb0(%arg1: i64 loc(unknown), %arg2: i64 loc(unknown)):
      %2 = tt.call @triton.language.standard._sum_combine__i64_i64__(%arg1, %arg2) : (i64, i64) -> i64 loc(#loc49)
      tt.reduce.return %2 : i64 loc(#loc49)
    }) : (tensor<1x2048xi64>) -> tensor<1xi64> loc(#loc49)
    tt.return %0 : tensor<1xi64> loc(#loc51)
  ^bb1:  // no predecessors
    %1 = ub.poison : tensor<1xi64> loc(#loc52)
    tt.return %1 : tensor<1xi64> loc(#loc52)
  } loc(#loc48)
  tt.func private @triton.language.standard._sum_combine__i64_i64__(%a: i64 loc("a"(#loc53)), %b: i64 loc("b"(#loc53))) -> i64 attributes {noinline = false} {
    %0 = arith.addi %a, %b : i64 loc(#loc54)
    tt.return %0 : i64 loc(#loc55)
  ^bb1:  // no predecessors
    %1 = ub.poison : i64 loc(#loc56)
    tt.return %1 : i64 loc(#loc56)
  } loc(#loc53)
} loc(#loc)
#loc1 = loc("/root/autodl-tmp/HuangJieCode/Big-Yellow-J.github.io/code/Python/RL-TRL/~/autodl-tmp/tmp-sore/torchinductor_root/hl/chllm7hata3tr5wbjfg2lqh4ng3k5ax4ptm7ipmv6zxvy6vbh7i2.py":21:28)
#loc2 = loc("/root/autodl-tmp/HuangJieCode/Big-Yellow-J.github.io/code/Python/RL-TRL/~/autodl-tmp/tmp-sore/torchinductor_root/hl/chllm7hata3tr5wbjfg2lqh4ng3k5ax4ptm7ipmv6zxvy6vbh7i2.py":21:33)
#loc3 = loc("/root/autodl-tmp/HuangJieCode/Big-Yellow-J.github.io/code/Python/RL-TRL/~/autodl-tmp/tmp-sore/torchinductor_root/hl/chllm7hata3tr5wbjfg2lqh4ng3k5ax4ptm7ipmv6zxvy6vbh7i2.py":22:36)
#loc4 = loc("/root/autodl-tmp/HuangJieCode/Big-Yellow-J.github.io/code/Python/RL-TRL/~/autodl-tmp/tmp-sore/torchinductor_root/hl/chllm7hata3tr5wbjfg2lqh4ng3k5ax4ptm7ipmv6zxvy6vbh7i2.py":22:44)
#loc5 = loc("/root/autodl-tmp/HuangJieCode/Big-Yellow-J.github.io/code/Python/RL-TRL/~/autodl-tmp/tmp-sore/torchinductor_root/hl/chllm7hata3tr5wbjfg2lqh4ng3k5ax4ptm7ipmv6zxvy6vbh7i2.py":22:23)
#loc6 = loc("/root/autodl-tmp/HuangJieCode/Big-Yellow-J.github.io/code/Python/RL-TRL/~/autodl-tmp/tmp-sore/torchinductor_root/hl/chllm7hata3tr5wbjfg2lqh4ng3k5ax4ptm7ipmv6zxvy6vbh7i2.py":23:21)
#loc7 = loc("/root/autodl-tmp/HuangJieCode/Big-Yellow-J.github.io/code/Python/RL-TRL/~/autodl-tmp/tmp-sore/torchinductor_root/hl/chllm7hata3tr5wbjfg2lqh4ng3k5ax4ptm7ipmv6zxvy6vbh7i2.py":24:27)
#loc8 = loc("/root/autodl-tmp/HuangJieCode/Big-Yellow-J.github.io/code/Python/RL-TRL/~/autodl-tmp/tmp-sore/torchinductor_root/hl/chllm7hata3tr5wbjfg2lqh4ng3k5ax4ptm7ipmv6zxvy6vbh7i2.py":24:37)
#loc9 = loc("/root/autodl-tmp/HuangJieCode/Big-Yellow-J.github.io/code/Python/RL-TRL/~/autodl-tmp/tmp-sore/torchinductor_root/hl/chllm7hata3tr5wbjfg2lqh4ng3k5ax4ptm7ipmv6zxvy6vbh7i2.py":26:19)
#loc10 = loc("/root/autodl-tmp/HuangJieCode/Big-Yellow-J.github.io/code/Python/RL-TRL/~/autodl-tmp/tmp-sore/torchinductor_root/hl/chllm7hata3tr5wbjfg2lqh4ng3k5ax4ptm7ipmv6zxvy6vbh7i2.py":27:19)
#loc11 = loc("/root/autodl-tmp/HuangJieCode/Big-Yellow-J.github.io/code/Python/RL-TRL/~/autodl-tmp/tmp-sore/torchinductor_root/hl/chllm7hata3tr5wbjfg2lqh4ng3k5ax4ptm7ipmv6zxvy6vbh7i2.py":28:44)
#loc12 = loc("/root/autodl-tmp/HuangJieCode/Big-Yellow-J.github.io/code/Python/RL-TRL/~/autodl-tmp/tmp-sore/torchinductor_root/hl/chllm7hata3tr5wbjfg2lqh4ng3k5ax4ptm7ipmv6zxvy6vbh7i2.py":30:40)
#loc13 = loc("/root/autodl-tmp/HuangJieCode/Big-Yellow-J.github.io/code/Python/RL-TRL/~/autodl-tmp/tmp-sore/torchinductor_root/hl/chllm7hata3tr5wbjfg2lqh4ng3k5ax4ptm7ipmv6zxvy6vbh7i2.py":31:31)
#loc14 = loc("/root/autodl-tmp/HuangJieCode/Big-Yellow-J.github.io/code/Python/RL-TRL/~/autodl-tmp/tmp-sore/torchinductor_root/hl/chllm7hata3tr5wbjfg2lqh4ng3k5ax4ptm7ipmv6zxvy6vbh7i2.py":32:29)
#loc15 = loc("/root/autodl-tmp/HuangJieCode/Big-Yellow-J.github.io/code/Python/RL-TRL/~/autodl-tmp/tmp-sore/torchinductor_root/hl/chllm7hata3tr5wbjfg2lqh4ng3k5ax4ptm7ipmv6zxvy6vbh7i2.py":36:32)
#loc16 = loc("/root/autodl-tmp/HuangJieCode/Big-Yellow-J.github.io/code/Python/RL-TRL/~/autodl-tmp/tmp-sore/torchinductor_root/hl/chllm7hata3tr5wbjfg2lqh4ng3k5ax4ptm7ipmv6zxvy6vbh7i2.py":36:40)
#loc17 = loc("/root/autodl-tmp/HuangJieCode/Big-Yellow-J.github.io/code/Python/RL-TRL/~/autodl-tmp/tmp-sore/torchinductor_root/hl/chllm7hata3tr5wbjfg2lqh4ng3k5ax4ptm7ipmv6zxvy6vbh7i2.py":36:26)
#loc18 = loc("/root/autodl-tmp/HuangJieCode/Big-Yellow-J.github.io/code/Python/RL-TRL/~/autodl-tmp/tmp-sore/torchinductor_root/hl/chllm7hata3tr5wbjfg2lqh4ng3k5ax4ptm7ipmv6zxvy6vbh7i2.py":36:22)
#loc19 = loc("/root/autodl-tmp/HuangJieCode/Big-Yellow-J.github.io/code/Python/RL-TRL/~/autodl-tmp/tmp-sore/torchinductor_root/hl/chllm7hata3tr5wbjfg2lqh4ng3k5ax4ptm7ipmv6zxvy6vbh7i2.py":38:22)
#loc20 = loc("/root/autodl-tmp/HuangJieCode/Big-Yellow-J.github.io/code/Python/RL-TRL/~/autodl-tmp/tmp-sore/torchinductor_root/hl/chllm7hata3tr5wbjfg2lqh4ng3k5ax4ptm7ipmv6zxvy6vbh7i2.py":39:45)
#loc21 = loc("/root/autodl-tmp/HuangJieCode/Big-Yellow-J.github.io/code/Python/RL-TRL/~/autodl-tmp/tmp-sore/torchinductor_root/hl/chllm7hata3tr5wbjfg2lqh4ng3k5ax4ptm7ipmv6zxvy6vbh7i2.py":39:41)
#loc22 = loc("/root/autodl-tmp/HuangJieCode/Big-Yellow-J.github.io/code/Python/RL-TRL/~/autodl-tmp/tmp-sore/torchinductor_root/hl/chllm7hata3tr5wbjfg2lqh4ng3k5ax4ptm7ipmv6zxvy6vbh7i2.py":39:60)
#loc23 = loc("/root/autodl-tmp/HuangJieCode/Big-Yellow-J.github.io/code/Python/RL-TRL/~/autodl-tmp/tmp-sore/torchinductor_root/hl/chllm7hata3tr5wbjfg2lqh4ng3k5ax4ptm7ipmv6zxvy6vbh7i2.py":39:68)
#loc24 = loc("/root/autodl-tmp/HuangJieCode/Big-Yellow-J.github.io/code/Python/RL-TRL/~/autodl-tmp/tmp-sore/torchinductor_root/hl/chllm7hata3tr5wbjfg2lqh4ng3k5ax4ptm7ipmv6zxvy6vbh7i2.py":39:54)
#loc25 = loc("/root/autodl-tmp/HuangJieCode/Big-Yellow-J.github.io/code/Python/RL-TRL/~/autodl-tmp/tmp-sore/torchinductor_root/hl/chllm7hata3tr5wbjfg2lqh4ng3k5ax4ptm7ipmv6zxvy6vbh7i2.py":39:50)
#loc26 = loc("/root/autodl-tmp/HuangJieCode/Big-Yellow-J.github.io/code/Python/RL-TRL/~/autodl-tmp/tmp-sore/torchinductor_root/hl/chllm7hata3tr5wbjfg2lqh4ng3k5ax4ptm7ipmv6zxvy6vbh7i2.py":39:34)
#loc27 = loc("/root/autodl-tmp/HuangJieCode/Big-Yellow-J.github.io/code/Python/RL-TRL/~/autodl-tmp/tmp-sore/torchinductor_root/hl/chllm7hata3tr5wbjfg2lqh4ng3k5ax4ptm7ipmv6zxvy6vbh7i2.py":39:84)
#loc28 = loc("/root/autodl-tmp/HuangJieCode/Big-Yellow-J.github.io/code/Python/RL-TRL/~/autodl-tmp/tmp-sore/torchinductor_root/hl/chllm7hata3tr5wbjfg2lqh4ng3k5ax4ptm7ipmv6zxvy6vbh7i2.py":39:91)
#loc29 = loc("/root/autodl-tmp/HuangJieCode/Big-Yellow-J.github.io/code/Python/RL-TRL/~/autodl-tmp/tmp-sore/torchinductor_root/hl/chllm7hata3tr5wbjfg2lqh4ng3k5ax4ptm7ipmv6zxvy6vbh7i2.py":39:74)
#loc30 = loc("/root/autodl-tmp/HuangJieCode/Big-Yellow-J.github.io/code/Python/RL-TRL/~/autodl-tmp/tmp-sore/torchinductor_root/hl/chllm7hata3tr5wbjfg2lqh4ng3k5ax4ptm7ipmv6zxvy6vbh7i2.py":40:54)
#loc31 = loc("/root/autodl-tmp/HuangJieCode/Big-Yellow-J.github.io/code/Python/RL-TRL/~/autodl-tmp/tmp-sore/torchinductor_root/hl/chllm7hata3tr5wbjfg2lqh4ng3k5ax4ptm7ipmv6zxvy6vbh7i2.py":40:34)
#loc32 = loc("/root/autodl-tmp/HuangJieCode/Big-Yellow-J.github.io/code/Python/RL-TRL/~/autodl-tmp/tmp-sore/torchinductor_root/hl/chllm7hata3tr5wbjfg2lqh4ng3k5ax4ptm7ipmv6zxvy6vbh7i2.py":40:86)
#loc33 = loc("/root/autodl-tmp/HuangJieCode/Big-Yellow-J.github.io/code/Python/RL-TRL/~/autodl-tmp/tmp-sore/torchinductor_root/hl/chllm7hata3tr5wbjfg2lqh4ng3k5ax4ptm7ipmv6zxvy6vbh7i2.py":40:93)
#loc34 = loc("/root/autodl-tmp/HuangJieCode/Big-Yellow-J.github.io/code/Python/RL-TRL/~/autodl-tmp/tmp-sore/torchinductor_root/hl/chllm7hata3tr5wbjfg2lqh4ng3k5ax4ptm7ipmv6zxvy6vbh7i2.py":40:76)
#loc35 = loc("/root/autodl-tmp/HuangJieCode/Big-Yellow-J.github.io/code/Python/RL-TRL/~/autodl-tmp/tmp-sore/torchinductor_root/hl/chllm7hata3tr5wbjfg2lqh4ng3k5ax4ptm7ipmv6zxvy6vbh7i2.py":41:23)
#loc36 = loc("/root/autodl-tmp/HuangJieCode/Big-Yellow-J.github.io/code/Python/RL-TRL/~/autodl-tmp/tmp-sore/torchinductor_root/hl/chllm7hata3tr5wbjfg2lqh4ng3k5ax4ptm7ipmv6zxvy6vbh7i2.py":42:23)
#loc37 = loc("/root/autodl-tmp/HuangJieCode/Big-Yellow-J.github.io/code/Python/RL-TRL/~/autodl-tmp/tmp-sore/torchinductor_root/hl/chllm7hata3tr5wbjfg2lqh4ng3k5ax4ptm7ipmv6zxvy6vbh7i2.py":43:38)
#loc38 = loc("/root/autodl-tmp/HuangJieCode/Big-Yellow-J.github.io/code/Python/RL-TRL/~/autodl-tmp/tmp-sore/torchinductor_root/hl/chllm7hata3tr5wbjfg2lqh4ng3k5ax4ptm7ipmv6zxvy6vbh7i2.py":44:36)
#loc39 = loc("/root/autodl-tmp/HuangJieCode/Big-Yellow-J.github.io/code/Python/RL-TRL/~/autodl-tmp/tmp-sore/torchinductor_root/hl/chllm7hata3tr5wbjfg2lqh4ng3k5ax4ptm7ipmv6zxvy6vbh7i2.py":46:25)
#loc40 = loc("/root/autodl-tmp/HuangJieCode/Big-Yellow-J.github.io/code/Python/RL-TRL/~/autodl-tmp/tmp-sore/torchinductor_root/hl/chllm7hata3tr5wbjfg2lqh4ng3k5ax4ptm7ipmv6zxvy6vbh7i2.py":47:36)
#loc41 = loc("/root/autodl-tmp/HuangJieCode/Big-Yellow-J.github.io/code/Python/RL-TRL/~/autodl-tmp/tmp-sore/torchinductor_root/hl/chllm7hata3tr5wbjfg2lqh4ng3k5ax4ptm7ipmv6zxvy6vbh7i2.py":47:50)
#loc42 = loc("/root/autodl-tmp/HuangJieCode/Big-Yellow-J.github.io/code/Python/RL-TRL/~/autodl-tmp/tmp-sore/torchinductor_root/hl/chllm7hata3tr5wbjfg2lqh4ng3k5ax4ptm7ipmv6zxvy6vbh7i2.py":47:8)
#loc43 = loc("/root/autodl-tmp/HuangJieCode/Big-Yellow-J.github.io/code/Python/RL-TRL/~/autodl-tmp/tmp-sore/torchinductor_root/hl/chllm7hata3tr5wbjfg2lqh4ng3k5ax4ptm7ipmv6zxvy6vbh7i2.py":48:27)
#loc44 = loc("/root/autodl-tmp/HuangJieCode/Big-Yellow-J.github.io/code/Python/RL-TRL/~/autodl-tmp/tmp-sore/torchinductor_root/hl/chllm7hata3tr5wbjfg2lqh4ng3k5ax4ptm7ipmv6zxvy6vbh7i2.py":48:30)
#loc45 = loc("/root/autodl-tmp/HuangJieCode/Big-Yellow-J.github.io/code/Python/RL-TRL/~/autodl-tmp/tmp-sore/torchinductor_root/hl/chllm7hata3tr5wbjfg2lqh4ng3k5ax4ptm7ipmv6zxvy6vbh7i2.py":49:25)
#loc46 = loc("/root/autodl-tmp/HuangJieCode/Big-Yellow-J.github.io/code/Python/RL-TRL/~/autodl-tmp/tmp-sore/torchinductor_root/hl/chllm7hata3tr5wbjfg2lqh4ng3k5ax4ptm7ipmv6zxvy6vbh7i2.py":49:37)
#loc47 = loc("/root/autodl-tmp/HuangJieCode/Big-Yellow-J.github.io/code/Python/RL-TRL/~/autodl-tmp/tmp-sore/torchinductor_root/hl/chllm7hata3tr5wbjfg2lqh4ng3k5ax4ptm7ipmv6zxvy6vbh7i2.py":49:4)
#loc49 = loc("/root/autodl-tmp/env/klein9BAPI/lib/python3.10/site-packages/triton/language/standard.py":293:36)
#loc51 = loc("/root/autodl-tmp/env/klein9BAPI/lib/python3.10/site-packages/triton/language/standard.py":293:11)
#loc52 = loc("/root/autodl-tmp/env/klein9BAPI/lib/python3.10/site-packages/triton/language/standard.py":293:4)
#loc54 = loc("/root/autodl-tmp/env/klein9BAPI/lib/python3.10/site-packages/triton/language/standard.py":263:15)
#loc55 = loc("/root/autodl-tmp/env/klein9BAPI/lib/python3.10/site-packages/triton/language/standard.py":263:11)
#loc56 = loc("/root/autodl-tmp/env/klein9BAPI/lib/python3.10/site-packages/triton/language/standard.py":263:4)
#loc63 = loc("xoffset"(#loc1))
#loc64 = loc("xoffset"(#loc2))
#loc65 = loc("xindex"(#loc3))
#loc66 = loc("xindex"(#loc4))
#loc67 = loc("xindex"(#loc5))
#loc68 = loc("xmask"(#loc6))
#loc69 = loc("r0_base"(#loc7))
#loc70 = loc("r0_base"(#loc8))
#loc71 = loc("x0"(#loc9))
#loc72 = loc("x1"(#loc10))
#loc73 = loc("_tmp10"(#loc11))
#loc74 = loc("_tmp10"(#loc12))
#loc75 = loc("r0_index"(#loc13))
#loc76 = loc("r0_mask"(#loc14))
#loc77 = loc("tmp0"(#loc15))
#loc78 = loc("tmp0"(#loc16))
#loc79 = loc("tmp0"(#loc17))
#loc80 = loc("tmp0"(#loc18))
#loc81 = loc("tmp2"(#loc19))
#loc82 = loc("tmp3"(#loc20))
#loc83 = loc("tmp3"(#loc21))
#loc84 = loc("tmp3"(#loc22))
#loc85 = loc("tmp3"(#loc23))
#loc86 = loc("tmp3"(#loc24))
#loc87 = loc("tmp3"(#loc25))
#loc88 = loc("tmp3"(#loc26))
#loc89 = loc("tmp3"(#loc27))
#loc90 = loc("tmp3"(#loc28))
#loc91 = loc("tmp3"(#loc29))
#loc92 = loc("tmp4"(#loc30))
#loc93 = loc("tmp4"(#loc31))
#loc94 = loc("tmp4"(#loc32))
#loc95 = loc("tmp4"(#loc33))
#loc96 = loc("tmp4"(#loc34))
#loc97 = loc("tmp5"(#loc35))
#loc98 = loc("tmp6"(#loc36))
#loc99 = loc("tmp7"(#loc37))
#loc100 = loc("tmp8"(#loc38))
#loc101 = loc("tmp11"(#loc39))
#loc102 = loc("_tmp10"(#loc40))
#loc103 = loc("_tmp10"(#loc41))
#loc104 = loc("tmp10"(#loc43))
#loc105 = loc("tmp10"(#loc44))
