#loc = loc("/tmp/torchinductor_root/me/cmeqev7f25lkrwfpintnj2bebap55zrdne2rd2a7qobtas4zrkue.py":22:0)
#loc125 = loc("in_ptr0"(#loc))
#loc126 = loc("in_ptr1"(#loc))
#loc127 = loc("in_ptr2"(#loc))
#loc128 = loc("out_ptr0"(#loc))
#loc129 = loc("xnumel"(#loc))
module {
  tt.func public @triton_(%in_ptr0: !tt.ptr<bf16> {tt.divisibility = 16 : i32} loc("in_ptr0"(#loc)), %in_ptr1: !tt.ptr<i64> {tt.divisibility = 16 : i32} loc("in_ptr1"(#loc)), %in_ptr2: !tt.ptr<bf16> {tt.divisibility = 16 : i32} loc("in_ptr2"(#loc)), %out_ptr0: !tt.ptr<bf16> {tt.divisibility = 16 : i32} loc("out_ptr0"(#loc)), %xnumel: i32 {tt.divisibility = 16 : i32} loc("xnumel"(#loc))) attributes {noinline = false} {
    %xoffset = tt.get_program_id x : i32 loc(#loc130)
    %xoffset_0 = arith.constant 512 : i32 loc(#loc131)
    %xoffset_1 = arith.constant 512 : i32 loc(#loc131)
    %xoffset_2 = arith.muli %xoffset, %xoffset_1 : i32 loc(#loc131)
    %xindex = tt.make_range {end = 512 : i32, start = 0 : i32} : tensor<512xi32> loc(#loc132)
    %xindex_3 = tt.splat %xoffset_2 : i32 -> tensor<512xi32> loc(#loc133)
    %xindex_4 = arith.addi %xindex_3, %xindex : tensor<512xi32> loc(#loc133)
    %xmask = tt.splat %xnumel : i32 -> tensor<512xi32> loc(#loc134)
    %xmask_5 = arith.cmpi slt, %xindex_4, %xmask : tensor<512xi32> loc(#loc134)
    %x0 = arith.constant 64 : i32 loc(#loc135)
    %x0_6 = arith.constant 64 : i32 loc(#loc135)
    %x0_7 = arith.constant dense<64> : tensor<512xi32> loc(#loc135)
    %x0_8 = arith.remsi %xindex_4, %x0_7 : tensor<512xi32> loc(#loc135)
    %x1 = arith.constant 64 : i32 loc(#loc136)
    %x1_9 = arith.constant 64 : i32 loc(#loc136)
    %x1_10 = arith.constant dense<64> : tensor<512xi32> loc(#loc136)
    %x1_11 = arith.divsi %xindex_4, %x1_10 : tensor<512xi32> loc(#loc136)
    %x1_12 = arith.constant 2 : i32 loc(#loc137)
    %x1_13 = arith.constant 2 : i32 loc(#loc137)
    %x1_14 = arith.constant dense<2> : tensor<512xi32> loc(#loc137)
    %x1_15 = arith.remsi %x1_11, %x1_14 : tensor<512xi32> loc(#loc137)
    %x2 = arith.constant 128 : i32 loc(#loc138)
    %x2_16 = arith.constant 128 : i32 loc(#loc138)
    %x2_17 = arith.constant dense<128> : tensor<512xi32> loc(#loc138)
    %x2_18 = arith.divsi %xindex_4, %x2_17 : tensor<512xi32> loc(#loc138)
    %tmp1 = arith.constant 0 : i64 loc(#loc139)
    %tmp1_19 = arith.constant dense<0> : tensor<1xi64> loc(#loc139)
    %tmp2 = arith.extsi %x0_8 : tensor<512xi32> to tensor<512xi64> loc(#loc140)
    %tmp2_20 = arith.constant dense<0> : tensor<512xi64> loc(#loc140)
    %tmp2_21 = arith.cmpi sge, %tmp2, %tmp2_20 : tensor<512xi64> loc(#loc140)
    %tmp3 = arith.constant 32 : i64 loc(#loc141)
    %tmp3_22 = arith.constant dense<32> : tensor<1xi64> loc(#loc141)
    %tmp4 = arith.extsi %x0_8 : tensor<512xi32> to tensor<512xi64> loc(#loc142)
    %tmp4_23 = arith.constant dense<32> : tensor<512xi64> loc(#loc142)
    %tmp4_24 = arith.cmpi slt, %tmp4, %tmp4_23 : tensor<512xi64> loc(#loc142)
    %tmp5 = arith.constant 64 : i32 loc(#loc143)
    %tmp5_25 = arith.constant 64 : i32 loc(#loc143)
    %tmp5_26 = arith.constant dense<64> : tensor<512xi32> loc(#loc143)
    %tmp5_27 = arith.muli %tmp5_26, %x1_15 : tensor<512xi32> loc(#loc143)
    %tmp5_28 = arith.constant 896 : i32 loc(#loc144)
    %tmp5_29 = arith.constant 896 : i32 loc(#loc144)
    %tmp5_30 = arith.constant dense<896> : tensor<512xi32> loc(#loc144)
    %tmp5_31 = arith.addi %tmp5_30, %tmp5_27 : tensor<512xi32> loc(#loc144)
    %tmp5_32 = arith.constant 1152 : i32 loc(#loc145)
    %tmp5_33 = arith.constant 1152 : i32 loc(#loc145)
    %tmp5_34 = arith.constant dense<1152> : tensor<512xi32> loc(#loc145)
    %tmp5_35 = arith.muli %tmp5_34, %x2_18 : tensor<512xi32> loc(#loc145)
    %tmp5_36 = arith.addi %tmp5_31, %tmp5_35 : tensor<512xi32> loc(#loc146)
    %tmp5_37 = arith.addi %tmp5_36, %x0_8 : tensor<512xi32> loc(#loc147)
    %tmp5_38 = tt.splat %in_ptr0 : !tt.ptr<bf16> -> tensor<512x!tt.ptr<bf16>> loc(#loc148)
    %tmp5_39 = tt.addptr %tmp5_38, %tmp5_37 : tensor<512x!tt.ptr<bf16>>, tensor<512xi32> loc(#loc148)
    %tmp5_40 = arith.andi %tmp4_24, %xmask_5 : tensor<512xi1> loc(#loc149)
    %tmp5_41 = arith.constant 0.000000e+00 : f32 loc(#loc150)
    %tmp5_42 = arith.constant dense<0.000000e+00> : tensor<512xf32> loc(#loc150)
    %tmp5_43 = arith.truncf %tmp5_42 : tensor<512xf32> to tensor<512xbf16> loc(#loc150)
    %tmp5_44 = tt.load %tmp5_39, %tmp5_40, %tmp5_43 evictionPolicy = evict_last : tensor<512x!tt.ptr<bf16>> loc(#loc150)
    %tmp5_45 = arith.extf %tmp5_44 : tensor<512xbf16> to tensor<512xf32> loc(#loc151)
    %tmp6 = tt.splat %in_ptr1 : !tt.ptr<i64> -> tensor<512x!tt.ptr<i64>> loc(#loc152)
    %tmp6_46 = tt.addptr %tmp6, %x2_18 : tensor<512x!tt.ptr<i64>>, tensor<512xi32> loc(#loc152)
    %tmp6_47 = arith.andi %tmp4_24, %xmask_5 : tensor<512xi1> loc(#loc153)
    %tmp6_48 = arith.constant 0.000000e+00 : f32 loc(#loc154)
    %tmp6_49 = arith.constant dense<0.000000e+00> : tensor<512xf32> loc(#loc154)
    %tmp6_50 = arith.fptosi %tmp6_49 : tensor<512xf32> to tensor<512xi64> loc(#loc154)
    %tmp6_51 = tt.load %tmp6_46, %tmp6_47, %tmp6_50 evictionPolicy = evict_last : tensor<512x!tt.ptr<i64>> loc(#loc154)
    %tmp7 = arith.constant 32768 : i32 loc(#loc155)
    %tmp7_52 = arith.constant dense<32768> : tensor<512xi32> loc(#loc155)
    %tmp8 = arith.extsi %tmp7_52 : tensor<512xi32> to tensor<512xi64> loc(#loc156)
    %tmp8_53 = arith.addi %tmp6_51, %tmp8 : tensor<512xi64> loc(#loc156)
    %tmp9 = arith.constant 0 : i32 loc(#loc157)
    %tmp9_54 = arith.extsi %tmp9 : i32 to i64 loc(#loc157)
    %tmp9_55 = tt.splat %tmp9_54 : i64 -> tensor<512xi64> loc(#loc157)
    %tmp9_56 = arith.cmpi slt, %tmp6_51, %tmp9_55 : tensor<512xi64> loc(#loc157)
    %tmp10 = arith.select %tmp9_56, %tmp8_53, %tmp6_51 : tensor<512xi1>, tensor<512xi64> loc(#loc158)
    %c0_i32 = arith.constant 0 : i32 loc(#loc30)
    %0 = arith.extsi %c0_i32 : i32 to i64 loc(#loc30)
    %1 = tt.splat %0 : i64 -> tensor<512xi64> loc(#loc30)
    %2 = arith.cmpi sle, %1, %tmp10 : tensor<512xi64> loc(#loc30)
    %c32768_i32 = arith.constant 32768 : i32 loc(#loc31)
    %3 = arith.extsi %c32768_i32 : i32 to i64 loc(#loc31)
    %4 = tt.splat %3 : i64 -> tensor<512xi64> loc(#loc31)
    %5 = arith.cmpi slt, %tmp10, %4 : tensor<512xi64> loc(#loc31)
    %6 = arith.andi %2, %5 : tensor<512xi1> loc(#loc32)
    %7 = arith.andi %tmp4_24, %xmask_5 : tensor<512xi1> loc(#loc33)
    %true = arith.constant true loc(#loc34)
    %cst = arith.constant dense<true> : tensor<512xi1> loc(#loc34)
    %8 = arith.xori %7, %cst : tensor<512xi1> loc(#loc34)
    %9 = arith.ori %6, %8 : tensor<512xi1> loc(#loc35)
    tt.assert %9, "index out of bounds: 0 <= tl.broadcast_to(tmp10, [XBLOCK]) < 32768" : tensor<512xi1> loc(#loc36)
    %tmp12 = arith.constant 64 : i32 loc(#loc159)
    %tmp12_57 = arith.constant 64 : i64 loc(#loc159)
    %tmp12_58 = arith.constant dense<64> : tensor<512xi64> loc(#loc159)
    %tmp12_59 = arith.muli %tmp12_58, %tmp10 : tensor<512xi64> loc(#loc159)
    %tmp12_60 = arith.extsi %x0_8 : tensor<512xi32> to tensor<512xi64> loc(#loc160)
    %tmp12_61 = arith.addi %tmp12_59, %tmp12_60 : tensor<512xi64> loc(#loc160)
    %tmp12_62 = tt.splat %in_ptr2 : !tt.ptr<bf16> -> tensor<512x!tt.ptr<bf16>> loc(#loc161)
    %tmp12_63 = tt.addptr %tmp12_62, %tmp12_61 : tensor<512x!tt.ptr<bf16>>, tensor<512xi64> loc(#loc161)
    %tmp12_64 = arith.andi %tmp4_24, %xmask_5 : tensor<512xi1> loc(#loc162)
    %tmp12_65 = arith.constant 0.000000e+00 : f32 loc(#loc163)
    %tmp12_66 = arith.constant dense<0.000000e+00> : tensor<512xf32> loc(#loc163)
    %tmp12_67 = arith.truncf %tmp12_66 : tensor<512xf32> to tensor<512xbf16> loc(#loc163)
    %tmp12_68 = tt.load %tmp12_63, %tmp12_64, %tmp12_67 evictionPolicy = evict_last : tensor<512x!tt.ptr<bf16>> loc(#loc163)
    %tmp12_69 = arith.extf %tmp12_68 : tensor<512xbf16> to tensor<512xf32> loc(#loc164)
    %tmp13 = arith.mulf %tmp5_45, %tmp12_69 : tensor<512xf32> loc(#loc165)
    %tmp14 = arith.constant 64 : i32 loc(#loc166)
    %tmp14_70 = arith.constant 64 : i32 loc(#loc166)
    %tmp14_71 = arith.constant dense<64> : tensor<512xi32> loc(#loc166)
    %tmp14_72 = arith.muli %tmp14_71, %x1_15 : tensor<512xi32> loc(#loc166)
    %tmp14_73 = arith.constant 928 : i32 loc(#loc167)
    %tmp14_74 = arith.constant 928 : i32 loc(#loc167)
    %tmp14_75 = arith.constant dense<928> : tensor<512xi32> loc(#loc167)
    %tmp14_76 = arith.addi %tmp14_75, %tmp14_72 : tensor<512xi32> loc(#loc167)
    %tmp14_77 = arith.constant 1152 : i32 loc(#loc168)
    %tmp14_78 = arith.constant 1152 : i32 loc(#loc168)
    %tmp14_79 = arith.constant dense<1152> : tensor<512xi32> loc(#loc168)
    %tmp14_80 = arith.muli %tmp14_79, %x2_18 : tensor<512xi32> loc(#loc168)
    %tmp14_81 = arith.addi %tmp14_76, %tmp14_80 : tensor<512xi32> loc(#loc169)
    %tmp14_82 = arith.addi %tmp14_81, %x0_8 : tensor<512xi32> loc(#loc170)
    %tmp14_83 = tt.splat %in_ptr0 : !tt.ptr<bf16> -> tensor<512x!tt.ptr<bf16>> loc(#loc171)
    %tmp14_84 = tt.addptr %tmp14_83, %tmp14_82 : tensor<512x!tt.ptr<bf16>>, tensor<512xi32> loc(#loc171)
    %tmp14_85 = arith.andi %tmp4_24, %xmask_5 : tensor<512xi1> loc(#loc172)
    %tmp14_86 = arith.constant 0.000000e+00 : f32 loc(#loc173)
    %tmp14_87 = arith.constant dense<0.000000e+00> : tensor<512xf32> loc(#loc173)
    %tmp14_88 = arith.truncf %tmp14_87 : tensor<512xf32> to tensor<512xbf16> loc(#loc173)
    %tmp14_89 = tt.load %tmp14_84, %tmp14_85, %tmp14_88 evictionPolicy = evict_last : tensor<512x!tt.ptr<bf16>> loc(#loc173)
    %tmp14_90 = arith.extf %tmp14_89 : tensor<512xbf16> to tensor<512xf32> loc(#loc174)
    %tmp15 = arith.constant 64 : i32 loc(#loc175)
    %tmp15_91 = arith.constant 64 : i64 loc(#loc175)
    %tmp15_92 = arith.constant dense<64> : tensor<512xi64> loc(#loc175)
    %tmp15_93 = arith.muli %tmp15_92, %tmp10 : tensor<512xi64> loc(#loc175)
    %tmp15_94 = arith.constant 32 : i32 loc(#loc176)
    %tmp15_95 = arith.constant 32 : i64 loc(#loc176)
    %tmp15_96 = arith.constant dense<32> : tensor<512xi64> loc(#loc176)
    %tmp15_97 = arith.addi %tmp15_96, %tmp15_93 : tensor<512xi64> loc(#loc176)
    %tmp15_98 = arith.extsi %x0_8 : tensor<512xi32> to tensor<512xi64> loc(#loc177)
    %tmp15_99 = arith.addi %tmp15_97, %tmp15_98 : tensor<512xi64> loc(#loc177)
    %tmp15_100 = tt.splat %in_ptr2 : !tt.ptr<bf16> -> tensor<512x!tt.ptr<bf16>> loc(#loc178)
    %tmp15_101 = tt.addptr %tmp15_100, %tmp15_99 : tensor<512x!tt.ptr<bf16>>, tensor<512xi64> loc(#loc178)
    %tmp15_102 = arith.andi %tmp4_24, %xmask_5 : tensor<512xi1> loc(#loc179)
    %tmp15_103 = arith.constant 0.000000e+00 : f32 loc(#loc180)
    %tmp15_104 = arith.constant dense<0.000000e+00> : tensor<512xf32> loc(#loc180)
    %tmp15_105 = arith.truncf %tmp15_104 : tensor<512xf32> to tensor<512xbf16> loc(#loc180)
    %tmp15_106 = tt.load %tmp15_101, %tmp15_102, %tmp15_105 evictionPolicy = evict_last : tensor<512x!tt.ptr<bf16>> loc(#loc180)
    %tmp15_107 = arith.extf %tmp15_106 : tensor<512xbf16> to tensor<512xf32> loc(#loc181)
    %tmp16 = arith.mulf %tmp14_90, %tmp15_107 : tensor<512xf32> loc(#loc182)
    %tmp17 = arith.subf %tmp13, %tmp16 : tensor<512xf32> loc(#loc183)
    %tmp18 = arith.constant 0.000000e+00 : f32 loc(#loc184)
    %tmp18_108 = arith.constant dense<0.000000e+00> : tensor<512xf32> loc(#loc184)
    %tmp19 = arith.select %tmp4_24, %tmp17, %tmp18_108 : tensor<512xi1>, tensor<512xf32> loc(#loc185)
    %tmp20 = arith.extsi %x0_8 : tensor<512xi32> to tensor<512xi64> loc(#loc186)
    %tmp20_109 = arith.constant dense<32> : tensor<512xi64> loc(#loc186)
    %tmp20_110 = arith.cmpi sge, %tmp20, %tmp20_109 : tensor<512xi64> loc(#loc186)
    %tmp21 = arith.constant 64 : i64 loc(#loc187)
    %tmp21_111 = arith.constant dense<64> : tensor<1xi64> loc(#loc187)
    %tmp22 = arith.extsi %x0_8 : tensor<512xi32> to tensor<512xi64> loc(#loc188)
    %tmp22_112 = arith.constant dense<64> : tensor<512xi64> loc(#loc188)
    %tmp22_113 = arith.cmpi slt, %tmp22, %tmp22_112 : tensor<512xi64> loc(#loc188)
    %tmp23 = arith.constant 64 : i32 loc(#loc189)
    %tmp23_114 = arith.constant 64 : i32 loc(#loc189)
    %tmp23_115 = arith.constant dense<64> : tensor<512xi32> loc(#loc189)
    %tmp23_116 = arith.muli %tmp23_115, %x1_15 : tensor<512xi32> loc(#loc189)
    %tmp23_117 = arith.constant 928 : i32 loc(#loc190)
    %tmp23_118 = arith.constant 928 : i32 loc(#loc190)
    %tmp23_119 = arith.constant dense<928> : tensor<512xi32> loc(#loc190)
    %tmp23_120 = arith.addi %tmp23_119, %tmp23_116 : tensor<512xi32> loc(#loc190)
    %tmp23_121 = arith.constant 1152 : i32 loc(#loc191)
    %tmp23_122 = arith.constant 1152 : i32 loc(#loc191)
    %tmp23_123 = arith.constant dense<1152> : tensor<512xi32> loc(#loc191)
    %tmp23_124 = arith.muli %tmp23_123, %x2_18 : tensor<512xi32> loc(#loc191)
    %tmp23_125 = arith.addi %tmp23_120, %tmp23_124 : tensor<512xi32> loc(#loc192)
    %tmp23_126 = arith.constant -32 : i32 loc(#loc193)
    %tmp23_127 = arith.constant -32 : i32 loc(#loc193)
    %tmp23_128 = arith.constant dense<-32> : tensor<512xi32> loc(#loc193)
    %tmp23_129 = arith.addi %tmp23_128, %x0_8 : tensor<512xi32> loc(#loc193)
    %tmp23_130 = arith.addi %tmp23_125, %tmp23_129 : tensor<512xi32> loc(#loc194)
    %tmp23_131 = tt.splat %in_ptr0 : !tt.ptr<bf16> -> tensor<512x!tt.ptr<bf16>> loc(#loc195)
    %tmp23_132 = tt.addptr %tmp23_131, %tmp23_130 : tensor<512x!tt.ptr<bf16>>, tensor<512xi32> loc(#loc195)
    %tmp23_133 = arith.andi %tmp20_110, %xmask_5 : tensor<512xi1> loc(#loc196)
    %tmp23_134 = arith.constant 0.000000e+00 : f32 loc(#loc197)
    %tmp23_135 = arith.constant dense<0.000000e+00> : tensor<512xf32> loc(#loc197)
    %tmp23_136 = arith.truncf %tmp23_135 : tensor<512xf32> to tensor<512xbf16> loc(#loc197)
    %tmp23_137 = tt.load %tmp23_132, %tmp23_133, %tmp23_136 evictionPolicy = evict_last : tensor<512x!tt.ptr<bf16>> loc(#loc197)
    %tmp23_138 = arith.extf %tmp23_137 : tensor<512xbf16> to tensor<512xf32> loc(#loc198)
    %tmp24 = tt.splat %in_ptr1 : !tt.ptr<i64> -> tensor<512x!tt.ptr<i64>> loc(#loc199)
    %tmp24_139 = tt.addptr %tmp24, %x2_18 : tensor<512x!tt.ptr<i64>>, tensor<512xi32> loc(#loc199)
    %tmp24_140 = arith.andi %tmp20_110, %xmask_5 : tensor<512xi1> loc(#loc200)
    %tmp24_141 = arith.constant 0.000000e+00 : f32 loc(#loc201)
    %tmp24_142 = arith.constant dense<0.000000e+00> : tensor<512xf32> loc(#loc201)
    %tmp24_143 = arith.fptosi %tmp24_142 : tensor<512xf32> to tensor<512xi64> loc(#loc201)
    %tmp24_144 = tt.load %tmp24_139, %tmp24_140, %tmp24_143 evictionPolicy = evict_last : tensor<512x!tt.ptr<i64>> loc(#loc201)
    %tmp25 = arith.constant 32768 : i32 loc(#loc202)
    %tmp25_145 = arith.constant dense<32768> : tensor<512xi32> loc(#loc202)
    %tmp26 = arith.extsi %tmp25_145 : tensor<512xi32> to tensor<512xi64> loc(#loc203)
    %tmp26_146 = arith.addi %tmp24_144, %tmp26 : tensor<512xi64> loc(#loc203)
    %tmp27 = arith.constant 0 : i32 loc(#loc204)
    %tmp27_147 = arith.extsi %tmp27 : i32 to i64 loc(#loc204)
    %tmp27_148 = tt.splat %tmp27_147 : i64 -> tensor<512xi64> loc(#loc204)
    %tmp27_149 = arith.cmpi slt, %tmp24_144, %tmp27_148 : tensor<512xi64> loc(#loc204)
    %tmp28 = arith.select %tmp27_149, %tmp26_146, %tmp24_144 : tensor<512xi1>, tensor<512xi64> loc(#loc205)
    %c0_i32_150 = arith.constant 0 : i32 loc(#loc84)
    %10 = arith.extsi %c0_i32_150 : i32 to i64 loc(#loc84)
    %11 = tt.splat %10 : i64 -> tensor<512xi64> loc(#loc84)
    %12 = arith.cmpi sle, %11, %tmp28 : tensor<512xi64> loc(#loc84)
    %c32768_i32_151 = arith.constant 32768 : i32 loc(#loc85)
    %13 = arith.extsi %c32768_i32_151 : i32 to i64 loc(#loc85)
    %14 = tt.splat %13 : i64 -> tensor<512xi64> loc(#loc85)
    %15 = arith.cmpi slt, %tmp28, %14 : tensor<512xi64> loc(#loc85)
    %16 = arith.andi %12, %15 : tensor<512xi1> loc(#loc86)
    %17 = arith.andi %tmp20_110, %xmask_5 : tensor<512xi1> loc(#loc87)
    %true_152 = arith.constant true loc(#loc88)
    %cst_153 = arith.constant dense<true> : tensor<512xi1> loc(#loc88)
    %18 = arith.xori %17, %cst_153 : tensor<512xi1> loc(#loc88)
    %19 = arith.ori %16, %18 : tensor<512xi1> loc(#loc89)
    tt.assert %19, "index out of bounds: 0 <= tl.broadcast_to(tmp28, [XBLOCK]) < 32768" : tensor<512xi1> loc(#loc90)
    %tmp30 = arith.constant 64 : i32 loc(#loc206)
    %tmp30_154 = arith.constant 64 : i64 loc(#loc206)
    %tmp30_155 = arith.constant dense<64> : tensor<512xi64> loc(#loc206)
    %tmp30_156 = arith.muli %tmp30_155, %tmp28 : tensor<512xi64> loc(#loc206)
    %tmp30_157 = arith.constant -32 : i32 loc(#loc207)
    %tmp30_158 = arith.constant -32 : i32 loc(#loc207)
    %tmp30_159 = arith.constant dense<-32> : tensor<512xi32> loc(#loc207)
    %tmp30_160 = arith.addi %tmp30_159, %x0_8 : tensor<512xi32> loc(#loc207)
    %tmp30_161 = arith.extsi %tmp30_160 : tensor<512xi32> to tensor<512xi64> loc(#loc208)
    %tmp30_162 = arith.addi %tmp30_156, %tmp30_161 : tensor<512xi64> loc(#loc208)
    %tmp30_163 = tt.splat %in_ptr2 : !tt.ptr<bf16> -> tensor<512x!tt.ptr<bf16>> loc(#loc209)
    %tmp30_164 = tt.addptr %tmp30_163, %tmp30_162 : tensor<512x!tt.ptr<bf16>>, tensor<512xi64> loc(#loc209)
    %tmp30_165 = arith.andi %tmp20_110, %xmask_5 : tensor<512xi1> loc(#loc210)
    %tmp30_166 = arith.constant 0.000000e+00 : f32 loc(#loc211)
    %tmp30_167 = arith.constant dense<0.000000e+00> : tensor<512xf32> loc(#loc211)
    %tmp30_168 = arith.truncf %tmp30_167 : tensor<512xf32> to tensor<512xbf16> loc(#loc211)
    %tmp30_169 = tt.load %tmp30_164, %tmp30_165, %tmp30_168 evictionPolicy = evict_last : tensor<512x!tt.ptr<bf16>> loc(#loc211)
    %tmp30_170 = arith.extf %tmp30_169 : tensor<512xbf16> to tensor<512xf32> loc(#loc212)
    %tmp31 = arith.mulf %tmp23_138, %tmp30_170 : tensor<512xf32> loc(#loc213)
    %tmp32 = arith.constant 64 : i32 loc(#loc214)
    %tmp32_171 = arith.constant 64 : i32 loc(#loc214)
    %tmp32_172 = arith.constant dense<64> : tensor<512xi32> loc(#loc214)
    %tmp32_173 = arith.muli %tmp32_172, %x1_15 : tensor<512xi32> loc(#loc214)
    %tmp32_174 = arith.constant 896 : i32 loc(#loc215)
    %tmp32_175 = arith.constant 896 : i32 loc(#loc215)
    %tmp32_176 = arith.constant dense<896> : tensor<512xi32> loc(#loc215)
    %tmp32_177 = arith.addi %tmp32_176, %tmp32_173 : tensor<512xi32> loc(#loc215)
    %tmp32_178 = arith.constant 1152 : i32 loc(#loc216)
    %tmp32_179 = arith.constant 1152 : i32 loc(#loc216)
    %tmp32_180 = arith.constant dense<1152> : tensor<512xi32> loc(#loc216)
    %tmp32_181 = arith.muli %tmp32_180, %x2_18 : tensor<512xi32> loc(#loc216)
    %tmp32_182 = arith.addi %tmp32_177, %tmp32_181 : tensor<512xi32> loc(#loc217)
    %tmp32_183 = arith.constant -32 : i32 loc(#loc218)
    %tmp32_184 = arith.constant -32 : i32 loc(#loc218)
    %tmp32_185 = arith.constant dense<-32> : tensor<512xi32> loc(#loc218)
    %tmp32_186 = arith.addi %tmp32_185, %x0_8 : tensor<512xi32> loc(#loc218)
    %tmp32_187 = arith.addi %tmp32_182, %tmp32_186 : tensor<512xi32> loc(#loc219)
    %tmp32_188 = tt.splat %in_ptr0 : !tt.ptr<bf16> -> tensor<512x!tt.ptr<bf16>> loc(#loc220)
    %tmp32_189 = tt.addptr %tmp32_188, %tmp32_187 : tensor<512x!tt.ptr<bf16>>, tensor<512xi32> loc(#loc220)
    %tmp32_190 = arith.andi %tmp20_110, %xmask_5 : tensor<512xi1> loc(#loc221)
    %tmp32_191 = arith.constant 0.000000e+00 : f32 loc(#loc222)
    %tmp32_192 = arith.constant dense<0.000000e+00> : tensor<512xf32> loc(#loc222)
    %tmp32_193 = arith.truncf %tmp32_192 : tensor<512xf32> to tensor<512xbf16> loc(#loc222)
    %tmp32_194 = tt.load %tmp32_189, %tmp32_190, %tmp32_193 evictionPolicy = evict_last : tensor<512x!tt.ptr<bf16>> loc(#loc222)
    %tmp32_195 = arith.extf %tmp32_194 : tensor<512xbf16> to tensor<512xf32> loc(#loc223)
    %tmp33 = arith.constant 64 : i32 loc(#loc224)
    %tmp33_196 = arith.constant 64 : i64 loc(#loc224)
    %tmp33_197 = arith.constant dense<64> : tensor<512xi64> loc(#loc224)
    %tmp33_198 = arith.muli %tmp33_197, %tmp28 : tensor<512xi64> loc(#loc224)
    %tmp33_199 = arith.constant 32 : i32 loc(#loc225)
    %tmp33_200 = arith.constant 32 : i64 loc(#loc225)
    %tmp33_201 = arith.constant dense<32> : tensor<512xi64> loc(#loc225)
    %tmp33_202 = arith.addi %tmp33_201, %tmp33_198 : tensor<512xi64> loc(#loc225)
    %tmp33_203 = arith.constant -32 : i32 loc(#loc226)
    %tmp33_204 = arith.constant -32 : i32 loc(#loc226)
    %tmp33_205 = arith.constant dense<-32> : tensor<512xi32> loc(#loc226)
    %tmp33_206 = arith.addi %tmp33_205, %x0_8 : tensor<512xi32> loc(#loc226)
    %tmp33_207 = arith.extsi %tmp33_206 : tensor<512xi32> to tensor<512xi64> loc(#loc227)
    %tmp33_208 = arith.addi %tmp33_202, %tmp33_207 : tensor<512xi64> loc(#loc227)
    %tmp33_209 = tt.splat %in_ptr2 : !tt.ptr<bf16> -> tensor<512x!tt.ptr<bf16>> loc(#loc228)
    %tmp33_210 = tt.addptr %tmp33_209, %tmp33_208 : tensor<512x!tt.ptr<bf16>>, tensor<512xi64> loc(#loc228)
    %tmp33_211 = arith.andi %tmp20_110, %xmask_5 : tensor<512xi1> loc(#loc229)
    %tmp33_212 = arith.constant 0.000000e+00 : f32 loc(#loc230)
    %tmp33_213 = arith.constant dense<0.000000e+00> : tensor<512xf32> loc(#loc230)
    %tmp33_214 = arith.truncf %tmp33_213 : tensor<512xf32> to tensor<512xbf16> loc(#loc230)
    %tmp33_215 = tt.load %tmp33_210, %tmp33_211, %tmp33_214 evictionPolicy = evict_last : tensor<512x!tt.ptr<bf16>> loc(#loc230)
    %tmp33_216 = arith.extf %tmp33_215 : tensor<512xbf16> to tensor<512xf32> loc(#loc231)
    %tmp34 = arith.mulf %tmp32_195, %tmp33_216 : tensor<512xf32> loc(#loc232)
    %tmp35 = arith.addf %tmp31, %tmp34 : tensor<512xf32> loc(#loc233)
    %tmp36 = arith.constant 0.000000e+00 : f32 loc(#loc234)
    %tmp36_217 = arith.constant dense<0.000000e+00> : tensor<512xf32> loc(#loc234)
    %tmp37 = arith.select %tmp20_110, %tmp35, %tmp36_217 : tensor<512xi1>, tensor<512xf32> loc(#loc235)
    %tmp38 = arith.select %tmp4_24, %tmp19, %tmp37 : tensor<512xi1>, tensor<512xf32> loc(#loc236)
    %20 = tt.splat %out_ptr0 : !tt.ptr<bf16> -> tensor<512x!tt.ptr<bf16>> loc(#loc122)
    %21 = tt.addptr %20, %xindex_4 : tensor<512x!tt.ptr<bf16>>, tensor<512xi32> loc(#loc122)
    %22 = arith.truncf %tmp38 : tensor<512xf32> to tensor<512xbf16> loc(#loc123)
    tt.store %21, %22, %xmask_5 : tensor<512x!tt.ptr<bf16>> loc(#loc123)
    tt.return loc(#loc124)
  } loc(#loc)
} loc(#loc)
#loc1 = loc("/tmp/torchinductor_root/me/cmeqev7f25lkrwfpintnj2bebap55zrdne2rd2a7qobtas4zrkue.py":23:28)
#loc2 = loc("/tmp/torchinductor_root/me/cmeqev7f25lkrwfpintnj2bebap55zrdne2rd2a7qobtas4zrkue.py":23:33)
#loc3 = loc("/tmp/torchinductor_root/me/cmeqev7f25lkrwfpintnj2bebap55zrdne2rd2a7qobtas4zrkue.py":24:36)
#loc4 = loc("/tmp/torchinductor_root/me/cmeqev7f25lkrwfpintnj2bebap55zrdne2rd2a7qobtas4zrkue.py":24:23)
#loc5 = loc("/tmp/torchinductor_root/me/cmeqev7f25lkrwfpintnj2bebap55zrdne2rd2a7qobtas4zrkue.py":25:21)
#loc6 = loc("/tmp/torchinductor_root/me/cmeqev7f25lkrwfpintnj2bebap55zrdne2rd2a7qobtas4zrkue.py":26:19)
#loc7 = loc("/tmp/torchinductor_root/me/cmeqev7f25lkrwfpintnj2bebap55zrdne2rd2a7qobtas4zrkue.py":27:21)
#loc8 = loc("/tmp/torchinductor_root/me/cmeqev7f25lkrwfpintnj2bebap55zrdne2rd2a7qobtas4zrkue.py":27:27)
#loc9 = loc("/tmp/torchinductor_root/me/cmeqev7f25lkrwfpintnj2bebap55zrdne2rd2a7qobtas4zrkue.py":28:19)
#loc10 = loc("/tmp/torchinductor_root/me/cmeqev7f25lkrwfpintnj2bebap55zrdne2rd2a7qobtas4zrkue.py":31:27)
#loc11 = loc("/tmp/torchinductor_root/me/cmeqev7f25lkrwfpintnj2bebap55zrdne2rd2a7qobtas4zrkue.py":32:19)
#loc12 = loc("/tmp/torchinductor_root/me/cmeqev7f25lkrwfpintnj2bebap55zrdne2rd2a7qobtas4zrkue.py":33:28)
#loc13 = loc("/tmp/torchinductor_root/me/cmeqev7f25lkrwfpintnj2bebap55zrdne2rd2a7qobtas4zrkue.py":34:18)
#loc14 = loc("/tmp/torchinductor_root/me/cmeqev7f25lkrwfpintnj2bebap55zrdne2rd2a7qobtas4zrkue.py":35:39)
#loc15 = loc("/tmp/torchinductor_root/me/cmeqev7f25lkrwfpintnj2bebap55zrdne2rd2a7qobtas4zrkue.py":35:36)
#loc16 = loc("/tmp/torchinductor_root/me/cmeqev7f25lkrwfpintnj2bebap55zrdne2rd2a7qobtas4zrkue.py":35:49)
#loc17 = loc("/tmp/torchinductor_root/me/cmeqev7f25lkrwfpintnj2bebap55zrdne2rd2a7qobtas4zrkue.py":35:44)
#loc18 = loc("/tmp/torchinductor_root/me/cmeqev7f25lkrwfpintnj2bebap55zrdne2rd2a7qobtas4zrkue.py":35:55)
#loc19 = loc("/tmp/torchinductor_root/me/cmeqev7f25lkrwfpintnj2bebap55zrdne2rd2a7qobtas4zrkue.py":35:30)
#loc20 = loc("/tmp/torchinductor_root/me/cmeqev7f25lkrwfpintnj2bebap55zrdne2rd2a7qobtas4zrkue.py":35:68)
#loc21 = loc("/tmp/torchinductor_root/me/cmeqev7f25lkrwfpintnj2bebap55zrdne2rd2a7qobtas4zrkue.py":35:61)
#loc22 = loc("/tmp/torchinductor_root/me/cmeqev7f25lkrwfpintnj2bebap55zrdne2rd2a7qobtas4zrkue.py":35:119)
#loc23 = loc("/tmp/torchinductor_root/me/cmeqev7f25lkrwfpintnj2bebap55zrdne2rd2a7qobtas4zrkue.py":36:30)
#loc24 = loc("/tmp/torchinductor_root/me/cmeqev7f25lkrwfpintnj2bebap55zrdne2rd2a7qobtas4zrkue.py":36:42)
#loc25 = loc("/tmp/torchinductor_root/me/cmeqev7f25lkrwfpintnj2bebap55zrdne2rd2a7qobtas4zrkue.py":36:35)
#loc26 = loc("/tmp/torchinductor_root/me/cmeqev7f25lkrwfpintnj2bebap55zrdne2rd2a7qobtas4zrkue.py":37:36)
#loc27 = loc("/tmp/torchinductor_root/me/cmeqev7f25lkrwfpintnj2bebap55zrdne2rd2a7qobtas4zrkue.py":38:18)
#loc28 = loc("/tmp/torchinductor_root/me/cmeqev7f25lkrwfpintnj2bebap55zrdne2rd2a7qobtas4zrkue.py":39:18)
#loc29 = loc("/tmp/torchinductor_root/me/cmeqev7f25lkrwfpintnj2bebap55zrdne2rd2a7qobtas4zrkue.py":40:33)
#loc30 = loc("/tmp/torchinductor_root/me/cmeqev7f25lkrwfpintnj2bebap55zrdne2rd2a7qobtas4zrkue.py":41:28)
#loc31 = loc("/tmp/torchinductor_root/me/cmeqev7f25lkrwfpintnj2bebap55zrdne2rd2a7qobtas4zrkue.py":41:100)
#loc32 = loc("/tmp/torchinductor_root/me/cmeqev7f25lkrwfpintnj2bebap55zrdne2rd2a7qobtas4zrkue.py":41:65)
#loc33 = loc("/tmp/torchinductor_root/me/cmeqev7f25lkrwfpintnj2bebap55zrdne2rd2a7qobtas4zrkue.py":41:119)
#loc34 = loc("/tmp/torchinductor_root/me/cmeqev7f25lkrwfpintnj2bebap55zrdne2rd2a7qobtas4zrkue.py":41:112)
#loc35 = loc("/tmp/torchinductor_root/me/cmeqev7f25lkrwfpintnj2bebap55zrdne2rd2a7qobtas4zrkue.py":41:110)
#loc36 = loc("/tmp/torchinductor_root/me/cmeqev7f25lkrwfpintnj2bebap55zrdne2rd2a7qobtas4zrkue.py":41:127)
#loc37 = loc("/tmp/torchinductor_root/me/cmeqev7f25lkrwfpintnj2bebap55zrdne2rd2a7qobtas4zrkue.py":42:34)
#loc38 = loc("/tmp/torchinductor_root/me/cmeqev7f25lkrwfpintnj2bebap55zrdne2rd2a7qobtas4zrkue.py":42:43)
#loc39 = loc("/tmp/torchinductor_root/me/cmeqev7f25lkrwfpintnj2bebap55zrdne2rd2a7qobtas4zrkue.py":42:31)
#loc40 = loc("/tmp/torchinductor_root/me/cmeqev7f25lkrwfpintnj2bebap55zrdne2rd2a7qobtas4zrkue.py":42:56)
#loc41 = loc("/tmp/torchinductor_root/me/cmeqev7f25lkrwfpintnj2bebap55zrdne2rd2a7qobtas4zrkue.py":42:49)
#loc42 = loc("/tmp/torchinductor_root/me/cmeqev7f25lkrwfpintnj2bebap55zrdne2rd2a7qobtas4zrkue.py":42:107)
#loc43 = loc("/tmp/torchinductor_root/me/cmeqev7f25lkrwfpintnj2bebap55zrdne2rd2a7qobtas4zrkue.py":43:19)
#loc44 = loc("/tmp/torchinductor_root/me/cmeqev7f25lkrwfpintnj2bebap55zrdne2rd2a7qobtas4zrkue.py":44:40)
#loc45 = loc("/tmp/torchinductor_root/me/cmeqev7f25lkrwfpintnj2bebap55zrdne2rd2a7qobtas4zrkue.py":44:37)
#loc46 = loc("/tmp/torchinductor_root/me/cmeqev7f25lkrwfpintnj2bebap55zrdne2rd2a7qobtas4zrkue.py":44:50)
#loc47 = loc("/tmp/torchinductor_root/me/cmeqev7f25lkrwfpintnj2bebap55zrdne2rd2a7qobtas4zrkue.py":44:45)
#loc48 = loc("/tmp/torchinductor_root/me/cmeqev7f25lkrwfpintnj2bebap55zrdne2rd2a7qobtas4zrkue.py":44:56)
#loc49 = loc("/tmp/torchinductor_root/me/cmeqev7f25lkrwfpintnj2bebap55zrdne2rd2a7qobtas4zrkue.py":44:31)
#loc50 = loc("/tmp/torchinductor_root/me/cmeqev7f25lkrwfpintnj2bebap55zrdne2rd2a7qobtas4zrkue.py":44:69)
#loc51 = loc("/tmp/torchinductor_root/me/cmeqev7f25lkrwfpintnj2bebap55zrdne2rd2a7qobtas4zrkue.py":44:62)
#loc52 = loc("/tmp/torchinductor_root/me/cmeqev7f25lkrwfpintnj2bebap55zrdne2rd2a7qobtas4zrkue.py":44:120)
#loc53 = loc("/tmp/torchinductor_root/me/cmeqev7f25lkrwfpintnj2bebap55zrdne2rd2a7qobtas4zrkue.py":45:39)
#loc54 = loc("/tmp/torchinductor_root/me/cmeqev7f25lkrwfpintnj2bebap55zrdne2rd2a7qobtas4zrkue.py":45:36)
#loc55 = loc("/tmp/torchinductor_root/me/cmeqev7f25lkrwfpintnj2bebap55zrdne2rd2a7qobtas4zrkue.py":45:48)
#loc56 = loc("/tmp/torchinductor_root/me/cmeqev7f25lkrwfpintnj2bebap55zrdne2rd2a7qobtas4zrkue.py":45:31)
#loc57 = loc("/tmp/torchinductor_root/me/cmeqev7f25lkrwfpintnj2bebap55zrdne2rd2a7qobtas4zrkue.py":45:61)
#loc58 = loc("/tmp/torchinductor_root/me/cmeqev7f25lkrwfpintnj2bebap55zrdne2rd2a7qobtas4zrkue.py":45:54)
#loc59 = loc("/tmp/torchinductor_root/me/cmeqev7f25lkrwfpintnj2bebap55zrdne2rd2a7qobtas4zrkue.py":45:112)
#loc60 = loc("/tmp/torchinductor_root/me/cmeqev7f25lkrwfpintnj2bebap55zrdne2rd2a7qobtas4zrkue.py":46:20)
#loc61 = loc("/tmp/torchinductor_root/me/cmeqev7f25lkrwfpintnj2bebap55zrdne2rd2a7qobtas4zrkue.py":47:20)
#loc62 = loc("/tmp/torchinductor_root/me/cmeqev7f25lkrwfpintnj2bebap55zrdne2rd2a7qobtas4zrkue.py":48:38)
#loc63 = loc("/tmp/torchinductor_root/me/cmeqev7f25lkrwfpintnj2bebap55zrdne2rd2a7qobtas4zrkue.py":49:34)
#loc64 = loc("/tmp/torchinductor_root/me/cmeqev7f25lkrwfpintnj2bebap55zrdne2rd2a7qobtas4zrkue.py":50:20)
#loc65 = loc("/tmp/torchinductor_root/me/cmeqev7f25lkrwfpintnj2bebap55zrdne2rd2a7qobtas4zrkue.py":51:29)
#loc66 = loc("/tmp/torchinductor_root/me/cmeqev7f25lkrwfpintnj2bebap55zrdne2rd2a7qobtas4zrkue.py":52:19)
#loc67 = loc("/tmp/torchinductor_root/me/cmeqev7f25lkrwfpintnj2bebap55zrdne2rd2a7qobtas4zrkue.py":53:40)
#loc68 = loc("/tmp/torchinductor_root/me/cmeqev7f25lkrwfpintnj2bebap55zrdne2rd2a7qobtas4zrkue.py":53:37)
#loc69 = loc("/tmp/torchinductor_root/me/cmeqev7f25lkrwfpintnj2bebap55zrdne2rd2a7qobtas4zrkue.py":53:50)
#loc70 = loc("/tmp/torchinductor_root/me/cmeqev7f25lkrwfpintnj2bebap55zrdne2rd2a7qobtas4zrkue.py":53:45)
#loc71 = loc("/tmp/torchinductor_root/me/cmeqev7f25lkrwfpintnj2bebap55zrdne2rd2a7qobtas4zrkue.py":53:64)
#loc72 = loc("/tmp/torchinductor_root/me/cmeqev7f25lkrwfpintnj2bebap55zrdne2rd2a7qobtas4zrkue.py":53:56)
#loc73 = loc("/tmp/torchinductor_root/me/cmeqev7f25lkrwfpintnj2bebap55zrdne2rd2a7qobtas4zrkue.py":53:31)
#loc74 = loc("/tmp/torchinductor_root/me/cmeqev7f25lkrwfpintnj2bebap55zrdne2rd2a7qobtas4zrkue.py":53:78)
#loc75 = loc("/tmp/torchinductor_root/me/cmeqev7f25lkrwfpintnj2bebap55zrdne2rd2a7qobtas4zrkue.py":53:70)
#loc76 = loc("/tmp/torchinductor_root/me/cmeqev7f25lkrwfpintnj2bebap55zrdne2rd2a7qobtas4zrkue.py":53:129)
#loc77 = loc("/tmp/torchinductor_root/me/cmeqev7f25lkrwfpintnj2bebap55zrdne2rd2a7qobtas4zrkue.py":54:31)
#loc78 = loc("/tmp/torchinductor_root/me/cmeqev7f25lkrwfpintnj2bebap55zrdne2rd2a7qobtas4zrkue.py":54:44)
#loc79 = loc("/tmp/torchinductor_root/me/cmeqev7f25lkrwfpintnj2bebap55zrdne2rd2a7qobtas4zrkue.py":54:36)
#loc80 = loc("/tmp/torchinductor_root/me/cmeqev7f25lkrwfpintnj2bebap55zrdne2rd2a7qobtas4zrkue.py":55:37)
#loc81 = loc("/tmp/torchinductor_root/me/cmeqev7f25lkrwfpintnj2bebap55zrdne2rd2a7qobtas4zrkue.py":56:20)
#loc82 = loc("/tmp/torchinductor_root/me/cmeqev7f25lkrwfpintnj2bebap55zrdne2rd2a7qobtas4zrkue.py":57:20)
#loc83 = loc("/tmp/torchinductor_root/me/cmeqev7f25lkrwfpintnj2bebap55zrdne2rd2a7qobtas4zrkue.py":58:35)
#loc84 = loc("/tmp/torchinductor_root/me/cmeqev7f25lkrwfpintnj2bebap55zrdne2rd2a7qobtas4zrkue.py":59:28)
#loc85 = loc("/tmp/torchinductor_root/me/cmeqev7f25lkrwfpintnj2bebap55zrdne2rd2a7qobtas4zrkue.py":59:100)
#loc86 = loc("/tmp/torchinductor_root/me/cmeqev7f25lkrwfpintnj2bebap55zrdne2rd2a7qobtas4zrkue.py":59:65)
#loc87 = loc("/tmp/torchinductor_root/me/cmeqev7f25lkrwfpintnj2bebap55zrdne2rd2a7qobtas4zrkue.py":59:120)
#loc88 = loc("/tmp/torchinductor_root/me/cmeqev7f25lkrwfpintnj2bebap55zrdne2rd2a7qobtas4zrkue.py":59:112)
#loc89 = loc("/tmp/torchinductor_root/me/cmeqev7f25lkrwfpintnj2bebap55zrdne2rd2a7qobtas4zrkue.py":59:110)
#loc90 = loc("/tmp/torchinductor_root/me/cmeqev7f25lkrwfpintnj2bebap55zrdne2rd2a7qobtas4zrkue.py":59:128)
#loc91 = loc("/tmp/torchinductor_root/me/cmeqev7f25lkrwfpintnj2bebap55zrdne2rd2a7qobtas4zrkue.py":60:34)
#loc92 = loc("/tmp/torchinductor_root/me/cmeqev7f25lkrwfpintnj2bebap55zrdne2rd2a7qobtas4zrkue.py":60:51)
#loc93 = loc("/tmp/torchinductor_root/me/cmeqev7f25lkrwfpintnj2bebap55zrdne2rd2a7qobtas4zrkue.py":60:43)
#loc94 = loc("/tmp/torchinductor_root/me/cmeqev7f25lkrwfpintnj2bebap55zrdne2rd2a7qobtas4zrkue.py":60:31)
#loc95 = loc("/tmp/torchinductor_root/me/cmeqev7f25lkrwfpintnj2bebap55zrdne2rd2a7qobtas4zrkue.py":60:65)
#loc96 = loc("/tmp/torchinductor_root/me/cmeqev7f25lkrwfpintnj2bebap55zrdne2rd2a7qobtas4zrkue.py":60:57)
#loc97 = loc("/tmp/torchinductor_root/me/cmeqev7f25lkrwfpintnj2bebap55zrdne2rd2a7qobtas4zrkue.py":60:116)
#loc98 = loc("/tmp/torchinductor_root/me/cmeqev7f25lkrwfpintnj2bebap55zrdne2rd2a7qobtas4zrkue.py":61:20)
#loc99 = loc("/tmp/torchinductor_root/me/cmeqev7f25lkrwfpintnj2bebap55zrdne2rd2a7qobtas4zrkue.py":62:40)
#loc100 = loc("/tmp/torchinductor_root/me/cmeqev7f25lkrwfpintnj2bebap55zrdne2rd2a7qobtas4zrkue.py":62:37)
#loc101 = loc("/tmp/torchinductor_root/me/cmeqev7f25lkrwfpintnj2bebap55zrdne2rd2a7qobtas4zrkue.py":62:50)
#loc102 = loc("/tmp/torchinductor_root/me/cmeqev7f25lkrwfpintnj2bebap55zrdne2rd2a7qobtas4zrkue.py":62:45)
#loc103 = loc("/tmp/torchinductor_root/me/cmeqev7f25lkrwfpintnj2bebap55zrdne2rd2a7qobtas4zrkue.py":62:64)
#loc104 = loc("/tmp/torchinductor_root/me/cmeqev7f25lkrwfpintnj2bebap55zrdne2rd2a7qobtas4zrkue.py":62:56)
#loc105 = loc("/tmp/torchinductor_root/me/cmeqev7f25lkrwfpintnj2bebap55zrdne2rd2a7qobtas4zrkue.py":62:31)
#loc106 = loc("/tmp/torchinductor_root/me/cmeqev7f25lkrwfpintnj2bebap55zrdne2rd2a7qobtas4zrkue.py":62:78)
#loc107 = loc("/tmp/torchinductor_root/me/cmeqev7f25lkrwfpintnj2bebap55zrdne2rd2a7qobtas4zrkue.py":62:70)
#loc108 = loc("/tmp/torchinductor_root/me/cmeqev7f25lkrwfpintnj2bebap55zrdne2rd2a7qobtas4zrkue.py":62:129)
#loc109 = loc("/tmp/torchinductor_root/me/cmeqev7f25lkrwfpintnj2bebap55zrdne2rd2a7qobtas4zrkue.py":63:39)
#loc110 = loc("/tmp/torchinductor_root/me/cmeqev7f25lkrwfpintnj2bebap55zrdne2rd2a7qobtas4zrkue.py":63:36)
#loc111 = loc("/tmp/torchinductor_root/me/cmeqev7f25lkrwfpintnj2bebap55zrdne2rd2a7qobtas4zrkue.py":63:56)
#loc112 = loc("/tmp/torchinductor_root/me/cmeqev7f25lkrwfpintnj2bebap55zrdne2rd2a7qobtas4zrkue.py":63:48)
#loc113 = loc("/tmp/torchinductor_root/me/cmeqev7f25lkrwfpintnj2bebap55zrdne2rd2a7qobtas4zrkue.py":63:31)
#loc114 = loc("/tmp/torchinductor_root/me/cmeqev7f25lkrwfpintnj2bebap55zrdne2rd2a7qobtas4zrkue.py":63:70)
#loc115 = loc("/tmp/torchinductor_root/me/cmeqev7f25lkrwfpintnj2bebap55zrdne2rd2a7qobtas4zrkue.py":63:62)
#loc116 = loc("/tmp/torchinductor_root/me/cmeqev7f25lkrwfpintnj2bebap55zrdne2rd2a7qobtas4zrkue.py":63:121)
#loc117 = loc("/tmp/torchinductor_root/me/cmeqev7f25lkrwfpintnj2bebap55zrdne2rd2a7qobtas4zrkue.py":64:20)
#loc118 = loc("/tmp/torchinductor_root/me/cmeqev7f25lkrwfpintnj2bebap55zrdne2rd2a7qobtas4zrkue.py":65:20)
#loc119 = loc("/tmp/torchinductor_root/me/cmeqev7f25lkrwfpintnj2bebap55zrdne2rd2a7qobtas4zrkue.py":66:38)
#loc120 = loc("/tmp/torchinductor_root/me/cmeqev7f25lkrwfpintnj2bebap55zrdne2rd2a7qobtas4zrkue.py":67:35)
#loc121 = loc("/tmp/torchinductor_root/me/cmeqev7f25lkrwfpintnj2bebap55zrdne2rd2a7qobtas4zrkue.py":68:34)
#loc122 = loc("/tmp/torchinductor_root/me/cmeqev7f25lkrwfpintnj2bebap55zrdne2rd2a7qobtas4zrkue.py":69:25)
#loc123 = loc("/tmp/torchinductor_root/me/cmeqev7f25lkrwfpintnj2bebap55zrdne2rd2a7qobtas4zrkue.py":69:37)
#loc124 = loc("/tmp/torchinductor_root/me/cmeqev7f25lkrwfpintnj2bebap55zrdne2rd2a7qobtas4zrkue.py":69:4)
#loc130 = loc("xoffset"(#loc1))
#loc131 = loc("xoffset"(#loc2))
#loc132 = loc("xindex"(#loc3))
#loc133 = loc("xindex"(#loc4))
#loc134 = loc("xmask"(#loc5))
#loc135 = loc("x0"(#loc6))
#loc136 = loc("x1"(#loc7))
#loc137 = loc("x1"(#loc8))
#loc138 = loc("x2"(#loc9))
#loc139 = loc("tmp1"(#loc10))
#loc140 = loc("tmp2"(#loc11))
#loc141 = loc("tmp3"(#loc12))
#loc142 = loc("tmp4"(#loc13))
#loc143 = loc("tmp5"(#loc14))
#loc144 = loc("tmp5"(#loc15))
#loc145 = loc("tmp5"(#loc16))
#loc146 = loc("tmp5"(#loc17))
#loc147 = loc("tmp5"(#loc18))
#loc148 = loc("tmp5"(#loc19))
#loc149 = loc("tmp5"(#loc20))
#loc150 = loc("tmp5"(#loc21))
#loc151 = loc("tmp5"(#loc22))
#loc152 = loc("tmp6"(#loc23))
#loc153 = loc("tmp6"(#loc24))
#loc154 = loc("tmp6"(#loc25))
#loc155 = loc("tmp7"(#loc26))
#loc156 = loc("tmp8"(#loc27))
#loc157 = loc("tmp9"(#loc28))
#loc158 = loc("tmp10"(#loc29))
#loc159 = loc("tmp12"(#loc37))
#loc160 = loc("tmp12"(#loc38))
#loc161 = loc("tmp12"(#loc39))
#loc162 = loc("tmp12"(#loc40))
#loc163 = loc("tmp12"(#loc41))
#loc164 = loc("tmp12"(#loc42))
#loc165 = loc("tmp13"(#loc43))
#loc166 = loc("tmp14"(#loc44))
#loc167 = loc("tmp14"(#loc45))
#loc168 = loc("tmp14"(#loc46))
#loc169 = loc("tmp14"(#loc47))
#loc170 = loc("tmp14"(#loc48))
#loc171 = loc("tmp14"(#loc49))
#loc172 = loc("tmp14"(#loc50))
#loc173 = loc("tmp14"(#loc51))
#loc174 = loc("tmp14"(#loc52))
#loc175 = loc("tmp15"(#loc53))
#loc176 = loc("tmp15"(#loc54))
#loc177 = loc("tmp15"(#loc55))
#loc178 = loc("tmp15"(#loc56))
#loc179 = loc("tmp15"(#loc57))
#loc180 = loc("tmp15"(#loc58))
#loc181 = loc("tmp15"(#loc59))
#loc182 = loc("tmp16"(#loc60))
#loc183 = loc("tmp17"(#loc61))
#loc184 = loc("tmp18"(#loc62))
#loc185 = loc("tmp19"(#loc63))
#loc186 = loc("tmp20"(#loc64))
#loc187 = loc("tmp21"(#loc65))
#loc188 = loc("tmp22"(#loc66))
#loc189 = loc("tmp23"(#loc67))
#loc190 = loc("tmp23"(#loc68))
#loc191 = loc("tmp23"(#loc69))
#loc192 = loc("tmp23"(#loc70))
#loc193 = loc("tmp23"(#loc71))
#loc194 = loc("tmp23"(#loc72))
#loc195 = loc("tmp23"(#loc73))
#loc196 = loc("tmp23"(#loc74))
#loc197 = loc("tmp23"(#loc75))
#loc198 = loc("tmp23"(#loc76))
#loc199 = loc("tmp24"(#loc77))
#loc200 = loc("tmp24"(#loc78))
#loc201 = loc("tmp24"(#loc79))
#loc202 = loc("tmp25"(#loc80))
#loc203 = loc("tmp26"(#loc81))
#loc204 = loc("tmp27"(#loc82))
#loc205 = loc("tmp28"(#loc83))
#loc206 = loc("tmp30"(#loc91))
#loc207 = loc("tmp30"(#loc92))
#loc208 = loc("tmp30"(#loc93))
#loc209 = loc("tmp30"(#loc94))
#loc210 = loc("tmp30"(#loc95))
#loc211 = loc("tmp30"(#loc96))
#loc212 = loc("tmp30"(#loc97))
#loc213 = loc("tmp31"(#loc98))
#loc214 = loc("tmp32"(#loc99))
#loc215 = loc("tmp32"(#loc100))
#loc216 = loc("tmp32"(#loc101))
#loc217 = loc("tmp32"(#loc102))
#loc218 = loc("tmp32"(#loc103))
#loc219 = loc("tmp32"(#loc104))
#loc220 = loc("tmp32"(#loc105))
#loc221 = loc("tmp32"(#loc106))
#loc222 = loc("tmp32"(#loc107))
#loc223 = loc("tmp32"(#loc108))
#loc224 = loc("tmp33"(#loc109))
#loc225 = loc("tmp33"(#loc110))
#loc226 = loc("tmp33"(#loc111))
#loc227 = loc("tmp33"(#loc112))
#loc228 = loc("tmp33"(#loc113))
#loc229 = loc("tmp33"(#loc114))
#loc230 = loc("tmp33"(#loc115))
#loc231 = loc("tmp33"(#loc116))
#loc232 = loc("tmp34"(#loc117))
#loc233 = loc("tmp35"(#loc118))
#loc234 = loc("tmp36"(#loc119))
#loc235 = loc("tmp37"(#loc120))
#loc236 = loc("tmp38"(#loc121))
