#loc = loc("/root/autodl-tmp/HuangJieCode/Big-Yellow-J.github.io/code/Python/RL-TRL/~/autodl-tmp/tmp-sore/torchinductor_root/4l/c4lf6fxtzc5paezogv26hbyozhr7sdcgi4wco7sn5zoie6aioeuo.py":18:0)
#loc53 = loc("in_ptr0"(#loc))
#loc54 = loc("out_ptr0"(#loc))
#loc55 = loc("xnumel"(#loc))
module {
  tt.func public @triton_poi_fused_sum_view_7(%in_ptr0: !tt.ptr<bf16> {tt.divisibility = 16 : i32} loc("in_ptr0"(#loc)), %out_ptr0: !tt.ptr<bf16> {tt.divisibility = 16 : i32} loc("out_ptr0"(#loc)), %xnumel: i32 {tt.divisibility = 16 : i32} loc("xnumel"(#loc))) attributes {noinline = false} {
    %tmp11 = arith.constant dense<384> : tensor<1024xi32> loc(#loc56)
    %tmp9 = arith.constant dense<320> : tensor<1024xi32> loc(#loc57)
    %tmp7 = arith.constant dense<256> : tensor<1024xi32> loc(#loc58)
    %tmp5 = arith.constant dense<192> : tensor<1024xi32> loc(#loc59)
    %tmp3 = arith.constant dense<128> : tensor<1024xi32> loc(#loc60)
    %cst = arith.constant dense<448> : tensor<1024xi32> loc(#loc6)
    %cst_0 = arith.constant dense<64> : tensor<1024xi32> loc(#loc6)
    %xmask = arith.constant dense<155904> : tensor<1024xi32> loc(#loc61)
    %c1024_i32 = arith.constant 1024 : i32 loc(#loc6)
    %xoffset = tt.get_program_id x : i32 loc(#loc62)
    %xoffset_1 = arith.muli %xoffset, %c1024_i32 : i32 loc(#loc63)
    %xindex = tt.make_range {end = 1024 : i32, start = 0 : i32} : tensor<1024xi32> loc(#loc64)
    %xindex_2 = tt.splat %xoffset_1 : i32 -> tensor<1024xi32> loc(#loc65)
    %xindex_3 = arith.addi %xindex_2, %xindex : tensor<1024xi32> loc(#loc65)
    %xmask_4 = arith.cmpi slt, %xindex_3, %xmask : tensor<1024xi32> loc(#loc61)
    %x0 = arith.remsi %xindex_3, %cst_0 : tensor<1024xi32> loc(#loc66)
    %x1 = arith.divsi %xindex_3, %cst_0 : tensor<1024xi32> loc(#loc67)
    %tmp0 = arith.muli %x1, %cst : tensor<1024xi32> loc(#loc68)
    %tmp0_5 = arith.addi %x0, %tmp0 : tensor<1024xi32> loc(#loc69)
    %tmp0_6 = tt.splat %in_ptr0 : !tt.ptr<bf16> -> tensor<1024x!tt.ptr<bf16>> loc(#loc70)
    %tmp0_7 = tt.addptr %tmp0_6, %tmp0_5 : tensor<1024x!tt.ptr<bf16>>, tensor<1024xi32> loc(#loc70)
    %tmp0_8 = tt.load %tmp0_7, %xmask_4 : tensor<1024x!tt.ptr<bf16>> loc(#loc71)
    %tmp0_9 = arith.extf %tmp0_8 : tensor<1024xbf16> to tensor<1024xf32> loc(#loc72)
    %tmp1 = arith.addi %x0, %cst_0 : tensor<1024xi32> loc(#loc73)
    %tmp1_10 = arith.addi %tmp1, %tmp0 : tensor<1024xi32> loc(#loc74)
    %tmp1_11 = tt.addptr %tmp0_6, %tmp1_10 : tensor<1024x!tt.ptr<bf16>>, tensor<1024xi32> loc(#loc75)
    %tmp1_12 = tt.load %tmp1_11, %xmask_4 : tensor<1024x!tt.ptr<bf16>> loc(#loc76)
    %tmp1_13 = arith.extf %tmp1_12 : tensor<1024xbf16> to tensor<1024xf32> loc(#loc77)
    %tmp3_14 = arith.addi %x0, %tmp3 : tensor<1024xi32> loc(#loc60)
    %tmp3_15 = arith.addi %tmp3_14, %tmp0 : tensor<1024xi32> loc(#loc78)
    %tmp3_16 = tt.addptr %tmp0_6, %tmp3_15 : tensor<1024x!tt.ptr<bf16>>, tensor<1024xi32> loc(#loc79)
    %tmp3_17 = tt.load %tmp3_16, %xmask_4 : tensor<1024x!tt.ptr<bf16>> loc(#loc80)
    %tmp3_18 = arith.extf %tmp3_17 : tensor<1024xbf16> to tensor<1024xf32> loc(#loc81)
    %tmp5_19 = arith.addi %x0, %tmp5 : tensor<1024xi32> loc(#loc59)
    %tmp5_20 = arith.addi %tmp5_19, %tmp0 : tensor<1024xi32> loc(#loc82)
    %tmp5_21 = tt.addptr %tmp0_6, %tmp5_20 : tensor<1024x!tt.ptr<bf16>>, tensor<1024xi32> loc(#loc83)
    %tmp5_22 = tt.load %tmp5_21, %xmask_4 : tensor<1024x!tt.ptr<bf16>> loc(#loc84)
    %tmp5_23 = arith.extf %tmp5_22 : tensor<1024xbf16> to tensor<1024xf32> loc(#loc85)
    %tmp7_24 = arith.addi %x0, %tmp7 : tensor<1024xi32> loc(#loc58)
    %tmp7_25 = arith.addi %tmp7_24, %tmp0 : tensor<1024xi32> loc(#loc86)
    %tmp7_26 = tt.addptr %tmp0_6, %tmp7_25 : tensor<1024x!tt.ptr<bf16>>, tensor<1024xi32> loc(#loc87)
    %tmp7_27 = tt.load %tmp7_26, %xmask_4 : tensor<1024x!tt.ptr<bf16>> loc(#loc88)
    %tmp7_28 = arith.extf %tmp7_27 : tensor<1024xbf16> to tensor<1024xf32> loc(#loc89)
    %tmp9_29 = arith.addi %x0, %tmp9 : tensor<1024xi32> loc(#loc57)
    %tmp9_30 = arith.addi %tmp9_29, %tmp0 : tensor<1024xi32> loc(#loc90)
    %tmp9_31 = tt.addptr %tmp0_6, %tmp9_30 : tensor<1024x!tt.ptr<bf16>>, tensor<1024xi32> loc(#loc91)
    %tmp9_32 = tt.load %tmp9_31, %xmask_4 : tensor<1024x!tt.ptr<bf16>> loc(#loc92)
    %tmp9_33 = arith.extf %tmp9_32 : tensor<1024xbf16> to tensor<1024xf32> loc(#loc93)
    %tmp11_34 = arith.addi %x0, %tmp11 : tensor<1024xi32> loc(#loc56)
    %tmp11_35 = arith.addi %tmp11_34, %tmp0 : tensor<1024xi32> loc(#loc94)
    %tmp11_36 = tt.addptr %tmp0_6, %tmp11_35 : tensor<1024x!tt.ptr<bf16>>, tensor<1024xi32> loc(#loc95)
    %tmp11_37 = tt.load %tmp11_36, %xmask_4 : tensor<1024x!tt.ptr<bf16>> loc(#loc96)
    %tmp11_38 = arith.extf %tmp11_37 : tensor<1024xbf16> to tensor<1024xf32> loc(#loc97)
    %tmp2 = arith.addf %tmp0_9, %tmp1_13 : tensor<1024xf32> loc(#loc98)
    %tmp4 = arith.addf %tmp2, %tmp3_18 : tensor<1024xf32> loc(#loc99)
    %tmp6 = arith.addf %tmp4, %tmp5_23 : tensor<1024xf32> loc(#loc100)
    %tmp8 = arith.addf %tmp6, %tmp7_28 : tensor<1024xf32> loc(#loc101)
    %tmp10 = arith.addf %tmp8, %tmp9_33 : tensor<1024xf32> loc(#loc102)
    %tmp12 = arith.addf %tmp10, %tmp11_38 : tensor<1024xf32> loc(#loc103)
    %0 = tt.splat %out_ptr0 : !tt.ptr<bf16> -> tensor<1024x!tt.ptr<bf16>> loc(#loc50)
    %1 = tt.addptr %0, %xindex_3 : tensor<1024x!tt.ptr<bf16>>, tensor<1024xi32> loc(#loc50)
    %2 = arith.truncf %tmp12 : tensor<1024xf32> to tensor<1024xbf16> loc(#loc51)
    tt.store %1, %2, %xmask_4 : tensor<1024x!tt.ptr<bf16>> loc(#loc51)
    tt.return loc(#loc52)
  } loc(#loc)
} loc(#loc)
#loc1 = loc("/root/autodl-tmp/HuangJieCode/Big-Yellow-J.github.io/code/Python/RL-TRL/~/autodl-tmp/tmp-sore/torchinductor_root/4l/c4lf6fxtzc5paezogv26hbyozhr7sdcgi4wco7sn5zoie6aioeuo.py":32:37)
#loc2 = loc("/root/autodl-tmp/HuangJieCode/Big-Yellow-J.github.io/code/Python/RL-TRL/~/autodl-tmp/tmp-sore/torchinductor_root/4l/c4lf6fxtzc5paezogv26hbyozhr7sdcgi4wco7sn5zoie6aioeuo.py":31:36)
#loc3 = loc("/root/autodl-tmp/HuangJieCode/Big-Yellow-J.github.io/code/Python/RL-TRL/~/autodl-tmp/tmp-sore/torchinductor_root/4l/c4lf6fxtzc5paezogv26hbyozhr7sdcgi4wco7sn5zoie6aioeuo.py":30:36)
#loc4 = loc("/root/autodl-tmp/HuangJieCode/Big-Yellow-J.github.io/code/Python/RL-TRL/~/autodl-tmp/tmp-sore/torchinductor_root/4l/c4lf6fxtzc5paezogv26hbyozhr7sdcgi4wco7sn5zoie6aioeuo.py":29:36)
#loc5 = loc("/root/autodl-tmp/HuangJieCode/Big-Yellow-J.github.io/code/Python/RL-TRL/~/autodl-tmp/tmp-sore/torchinductor_root/4l/c4lf6fxtzc5paezogv26hbyozhr7sdcgi4wco7sn5zoie6aioeuo.py":28:36)
#loc6 = loc(unknown)
#loc7 = loc("/root/autodl-tmp/HuangJieCode/Big-Yellow-J.github.io/code/Python/RL-TRL/~/autodl-tmp/tmp-sore/torchinductor_root/4l/c4lf6fxtzc5paezogv26hbyozhr7sdcgi4wco7sn5zoie6aioeuo.py":22:21)
#loc8 = loc("/root/autodl-tmp/HuangJieCode/Big-Yellow-J.github.io/code/Python/RL-TRL/~/autodl-tmp/tmp-sore/torchinductor_root/4l/c4lf6fxtzc5paezogv26hbyozhr7sdcgi4wco7sn5zoie6aioeuo.py":20:28)
#loc9 = loc("/root/autodl-tmp/HuangJieCode/Big-Yellow-J.github.io/code/Python/RL-TRL/~/autodl-tmp/tmp-sore/torchinductor_root/4l/c4lf6fxtzc5paezogv26hbyozhr7sdcgi4wco7sn5zoie6aioeuo.py":20:33)
#loc10 = loc("/root/autodl-tmp/HuangJieCode/Big-Yellow-J.github.io/code/Python/RL-TRL/~/autodl-tmp/tmp-sore/torchinductor_root/4l/c4lf6fxtzc5paezogv26hbyozhr7sdcgi4wco7sn5zoie6aioeuo.py":21:36)
#loc11 = loc("/root/autodl-tmp/HuangJieCode/Big-Yellow-J.github.io/code/Python/RL-TRL/~/autodl-tmp/tmp-sore/torchinductor_root/4l/c4lf6fxtzc5paezogv26hbyozhr7sdcgi4wco7sn5zoie6aioeuo.py":21:23)
#loc12 = loc("/root/autodl-tmp/HuangJieCode/Big-Yellow-J.github.io/code/Python/RL-TRL/~/autodl-tmp/tmp-sore/torchinductor_root/4l/c4lf6fxtzc5paezogv26hbyozhr7sdcgi4wco7sn5zoie6aioeuo.py":23:19)
#loc13 = loc("/root/autodl-tmp/HuangJieCode/Big-Yellow-J.github.io/code/Python/RL-TRL/~/autodl-tmp/tmp-sore/torchinductor_root/4l/c4lf6fxtzc5paezogv26hbyozhr7sdcgi4wco7sn5zoie6aioeuo.py":24:19)
#loc14 = loc("/root/autodl-tmp/HuangJieCode/Big-Yellow-J.github.io/code/Python/RL-TRL/~/autodl-tmp/tmp-sore/torchinductor_root/4l/c4lf6fxtzc5paezogv26hbyozhr7sdcgi4wco7sn5zoie6aioeuo.py":26:39)
#loc15 = loc("/root/autodl-tmp/HuangJieCode/Big-Yellow-J.github.io/code/Python/RL-TRL/~/autodl-tmp/tmp-sore/torchinductor_root/4l/c4lf6fxtzc5paezogv26hbyozhr7sdcgi4wco7sn5zoie6aioeuo.py":26:35)
#loc16 = loc("/root/autodl-tmp/HuangJieCode/Big-Yellow-J.github.io/code/Python/RL-TRL/~/autodl-tmp/tmp-sore/torchinductor_root/4l/c4lf6fxtzc5paezogv26hbyozhr7sdcgi4wco7sn5zoie6aioeuo.py":26:30)
#loc17 = loc("/root/autodl-tmp/HuangJieCode/Big-Yellow-J.github.io/code/Python/RL-TRL/~/autodl-tmp/tmp-sore/torchinductor_root/4l/c4lf6fxtzc5paezogv26hbyozhr7sdcgi4wco7sn5zoie6aioeuo.py":26:44)
#loc18 = loc("/root/autodl-tmp/HuangJieCode/Big-Yellow-J.github.io/code/Python/RL-TRL/~/autodl-tmp/tmp-sore/torchinductor_root/4l/c4lf6fxtzc5paezogv26hbyozhr7sdcgi4wco7sn5zoie6aioeuo.py":26:54)
#loc19 = loc("/root/autodl-tmp/HuangJieCode/Big-Yellow-J.github.io/code/Python/RL-TRL/~/autodl-tmp/tmp-sore/torchinductor_root/4l/c4lf6fxtzc5paezogv26hbyozhr7sdcgi4wco7sn5zoie6aioeuo.py":27:35)
#loc20 = loc("/root/autodl-tmp/HuangJieCode/Big-Yellow-J.github.io/code/Python/RL-TRL/~/autodl-tmp/tmp-sore/torchinductor_root/4l/c4lf6fxtzc5paezogv26hbyozhr7sdcgi4wco7sn5zoie6aioeuo.py":27:40)
#loc21 = loc("/root/autodl-tmp/HuangJieCode/Big-Yellow-J.github.io/code/Python/RL-TRL/~/autodl-tmp/tmp-sore/torchinductor_root/4l/c4lf6fxtzc5paezogv26hbyozhr7sdcgi4wco7sn5zoie6aioeuo.py":27:30)
#loc22 = loc("/root/autodl-tmp/HuangJieCode/Big-Yellow-J.github.io/code/Python/RL-TRL/~/autodl-tmp/tmp-sore/torchinductor_root/4l/c4lf6fxtzc5paezogv26hbyozhr7sdcgi4wco7sn5zoie6aioeuo.py":27:49)
#loc23 = loc("/root/autodl-tmp/HuangJieCode/Big-Yellow-J.github.io/code/Python/RL-TRL/~/autodl-tmp/tmp-sore/torchinductor_root/4l/c4lf6fxtzc5paezogv26hbyozhr7sdcgi4wco7sn5zoie6aioeuo.py":27:59)
#loc24 = loc("/root/autodl-tmp/HuangJieCode/Big-Yellow-J.github.io/code/Python/RL-TRL/~/autodl-tmp/tmp-sore/torchinductor_root/4l/c4lf6fxtzc5paezogv26hbyozhr7sdcgi4wco7sn5zoie6aioeuo.py":28:41)
#loc25 = loc("/root/autodl-tmp/HuangJieCode/Big-Yellow-J.github.io/code/Python/RL-TRL/~/autodl-tmp/tmp-sore/torchinductor_root/4l/c4lf6fxtzc5paezogv26hbyozhr7sdcgi4wco7sn5zoie6aioeuo.py":28:30)
#loc26 = loc("/root/autodl-tmp/HuangJieCode/Big-Yellow-J.github.io/code/Python/RL-TRL/~/autodl-tmp/tmp-sore/torchinductor_root/4l/c4lf6fxtzc5paezogv26hbyozhr7sdcgi4wco7sn5zoie6aioeuo.py":28:50)
#loc27 = loc("/root/autodl-tmp/HuangJieCode/Big-Yellow-J.github.io/code/Python/RL-TRL/~/autodl-tmp/tmp-sore/torchinductor_root/4l/c4lf6fxtzc5paezogv26hbyozhr7sdcgi4wco7sn5zoie6aioeuo.py":28:60)
#loc28 = loc("/root/autodl-tmp/HuangJieCode/Big-Yellow-J.github.io/code/Python/RL-TRL/~/autodl-tmp/tmp-sore/torchinductor_root/4l/c4lf6fxtzc5paezogv26hbyozhr7sdcgi4wco7sn5zoie6aioeuo.py":29:41)
#loc29 = loc("/root/autodl-tmp/HuangJieCode/Big-Yellow-J.github.io/code/Python/RL-TRL/~/autodl-tmp/tmp-sore/torchinductor_root/4l/c4lf6fxtzc5paezogv26hbyozhr7sdcgi4wco7sn5zoie6aioeuo.py":29:30)
#loc30 = loc("/root/autodl-tmp/HuangJieCode/Big-Yellow-J.github.io/code/Python/RL-TRL/~/autodl-tmp/tmp-sore/torchinductor_root/4l/c4lf6fxtzc5paezogv26hbyozhr7sdcgi4wco7sn5zoie6aioeuo.py":29:50)
#loc31 = loc("/root/autodl-tmp/HuangJieCode/Big-Yellow-J.github.io/code/Python/RL-TRL/~/autodl-tmp/tmp-sore/torchinductor_root/4l/c4lf6fxtzc5paezogv26hbyozhr7sdcgi4wco7sn5zoie6aioeuo.py":29:60)
#loc32 = loc("/root/autodl-tmp/HuangJieCode/Big-Yellow-J.github.io/code/Python/RL-TRL/~/autodl-tmp/tmp-sore/torchinductor_root/4l/c4lf6fxtzc5paezogv26hbyozhr7sdcgi4wco7sn5zoie6aioeuo.py":30:41)
#loc33 = loc("/root/autodl-tmp/HuangJieCode/Big-Yellow-J.github.io/code/Python/RL-TRL/~/autodl-tmp/tmp-sore/torchinductor_root/4l/c4lf6fxtzc5paezogv26hbyozhr7sdcgi4wco7sn5zoie6aioeuo.py":30:30)
#loc34 = loc("/root/autodl-tmp/HuangJieCode/Big-Yellow-J.github.io/code/Python/RL-TRL/~/autodl-tmp/tmp-sore/torchinductor_root/4l/c4lf6fxtzc5paezogv26hbyozhr7sdcgi4wco7sn5zoie6aioeuo.py":30:50)
#loc35 = loc("/root/autodl-tmp/HuangJieCode/Big-Yellow-J.github.io/code/Python/RL-TRL/~/autodl-tmp/tmp-sore/torchinductor_root/4l/c4lf6fxtzc5paezogv26hbyozhr7sdcgi4wco7sn5zoie6aioeuo.py":30:60)
#loc36 = loc("/root/autodl-tmp/HuangJieCode/Big-Yellow-J.github.io/code/Python/RL-TRL/~/autodl-tmp/tmp-sore/torchinductor_root/4l/c4lf6fxtzc5paezogv26hbyozhr7sdcgi4wco7sn5zoie6aioeuo.py":31:41)
#loc37 = loc("/root/autodl-tmp/HuangJieCode/Big-Yellow-J.github.io/code/Python/RL-TRL/~/autodl-tmp/tmp-sore/torchinductor_root/4l/c4lf6fxtzc5paezogv26hbyozhr7sdcgi4wco7sn5zoie6aioeuo.py":31:30)
#loc38 = loc("/root/autodl-tmp/HuangJieCode/Big-Yellow-J.github.io/code/Python/RL-TRL/~/autodl-tmp/tmp-sore/torchinductor_root/4l/c4lf6fxtzc5paezogv26hbyozhr7sdcgi4wco7sn5zoie6aioeuo.py":31:50)
#loc39 = loc("/root/autodl-tmp/HuangJieCode/Big-Yellow-J.github.io/code/Python/RL-TRL/~/autodl-tmp/tmp-sore/torchinductor_root/4l/c4lf6fxtzc5paezogv26hbyozhr7sdcgi4wco7sn5zoie6aioeuo.py":31:60)
#loc40 = loc("/root/autodl-tmp/HuangJieCode/Big-Yellow-J.github.io/code/Python/RL-TRL/~/autodl-tmp/tmp-sore/torchinductor_root/4l/c4lf6fxtzc5paezogv26hbyozhr7sdcgi4wco7sn5zoie6aioeuo.py":32:42)
#loc41 = loc("/root/autodl-tmp/HuangJieCode/Big-Yellow-J.github.io/code/Python/RL-TRL/~/autodl-tmp/tmp-sore/torchinductor_root/4l/c4lf6fxtzc5paezogv26hbyozhr7sdcgi4wco7sn5zoie6aioeuo.py":32:31)
#loc42 = loc("/root/autodl-tmp/HuangJieCode/Big-Yellow-J.github.io/code/Python/RL-TRL/~/autodl-tmp/tmp-sore/torchinductor_root/4l/c4lf6fxtzc5paezogv26hbyozhr7sdcgi4wco7sn5zoie6aioeuo.py":32:51)
#loc43 = loc("/root/autodl-tmp/HuangJieCode/Big-Yellow-J.github.io/code/Python/RL-TRL/~/autodl-tmp/tmp-sore/torchinductor_root/4l/c4lf6fxtzc5paezogv26hbyozhr7sdcgi4wco7sn5zoie6aioeuo.py":32:61)
#loc44 = loc("/root/autodl-tmp/HuangJieCode/Big-Yellow-J.github.io/code/Python/RL-TRL/~/autodl-tmp/tmp-sore/torchinductor_root/4l/c4lf6fxtzc5paezogv26hbyozhr7sdcgi4wco7sn5zoie6aioeuo.py":33:18)
#loc45 = loc("/root/autodl-tmp/HuangJieCode/Big-Yellow-J.github.io/code/Python/RL-TRL/~/autodl-tmp/tmp-sore/torchinductor_root/4l/c4lf6fxtzc5paezogv26hbyozhr7sdcgi4wco7sn5zoie6aioeuo.py":34:18)
#loc46 = loc("/root/autodl-tmp/HuangJieCode/Big-Yellow-J.github.io/code/Python/RL-TRL/~/autodl-tmp/tmp-sore/torchinductor_root/4l/c4lf6fxtzc5paezogv26hbyozhr7sdcgi4wco7sn5zoie6aioeuo.py":35:18)
#loc47 = loc("/root/autodl-tmp/HuangJieCode/Big-Yellow-J.github.io/code/Python/RL-TRL/~/autodl-tmp/tmp-sore/torchinductor_root/4l/c4lf6fxtzc5paezogv26hbyozhr7sdcgi4wco7sn5zoie6aioeuo.py":36:18)
#loc48 = loc("/root/autodl-tmp/HuangJieCode/Big-Yellow-J.github.io/code/Python/RL-TRL/~/autodl-tmp/tmp-sore/torchinductor_root/4l/c4lf6fxtzc5paezogv26hbyozhr7sdcgi4wco7sn5zoie6aioeuo.py":37:19)
#loc49 = loc("/root/autodl-tmp/HuangJieCode/Big-Yellow-J.github.io/code/Python/RL-TRL/~/autodl-tmp/tmp-sore/torchinductor_root/4l/c4lf6fxtzc5paezogv26hbyozhr7sdcgi4wco7sn5zoie6aioeuo.py":38:20)
#loc50 = loc("/root/autodl-tmp/HuangJieCode/Big-Yellow-J.github.io/code/Python/RL-TRL/~/autodl-tmp/tmp-sore/torchinductor_root/4l/c4lf6fxtzc5paezogv26hbyozhr7sdcgi4wco7sn5zoie6aioeuo.py":39:25)
#loc51 = loc("/root/autodl-tmp/HuangJieCode/Big-Yellow-J.github.io/code/Python/RL-TRL/~/autodl-tmp/tmp-sore/torchinductor_root/4l/c4lf6fxtzc5paezogv26hbyozhr7sdcgi4wco7sn5zoie6aioeuo.py":39:37)
#loc52 = loc("/root/autodl-tmp/HuangJieCode/Big-Yellow-J.github.io/code/Python/RL-TRL/~/autodl-tmp/tmp-sore/torchinductor_root/4l/c4lf6fxtzc5paezogv26hbyozhr7sdcgi4wco7sn5zoie6aioeuo.py":39:4)
#loc56 = loc("tmp11"(#loc1))
#loc57 = loc("tmp9"(#loc2))
#loc58 = loc("tmp7"(#loc3))
#loc59 = loc("tmp5"(#loc4))
#loc60 = loc("tmp3"(#loc5))
#loc61 = loc("xmask"(#loc7))
#loc62 = loc("xoffset"(#loc8))
#loc63 = loc("xoffset"(#loc9))
#loc64 = loc("xindex"(#loc10))
#loc65 = loc("xindex"(#loc11))
#loc66 = loc("x0"(#loc12))
#loc67 = loc("x1"(#loc13))
#loc68 = loc("tmp0"(#loc14))
#loc69 = loc("tmp0"(#loc15))
#loc70 = loc("tmp0"(#loc16))
#loc71 = loc("tmp0"(#loc17))
#loc72 = loc("tmp0"(#loc18))
#loc73 = loc("tmp1"(#loc19))
#loc74 = loc("tmp1"(#loc20))
#loc75 = loc("tmp1"(#loc21))
#loc76 = loc("tmp1"(#loc22))
#loc77 = loc("tmp1"(#loc23))
#loc78 = loc("tmp3"(#loc24))
#loc79 = loc("tmp3"(#loc25))
#loc80 = loc("tmp3"(#loc26))
#loc81 = loc("tmp3"(#loc27))
#loc82 = loc("tmp5"(#loc28))
#loc83 = loc("tmp5"(#loc29))
#loc84 = loc("tmp5"(#loc30))
#loc85 = loc("tmp5"(#loc31))
#loc86 = loc("tmp7"(#loc32))
#loc87 = loc("tmp7"(#loc33))
#loc88 = loc("tmp7"(#loc34))
#loc89 = loc("tmp7"(#loc35))
#loc90 = loc("tmp9"(#loc36))
#loc91 = loc("tmp9"(#loc37))
#loc92 = loc("tmp9"(#loc38))
#loc93 = loc("tmp9"(#loc39))
#loc94 = loc("tmp11"(#loc40))
#loc95 = loc("tmp11"(#loc41))
#loc96 = loc("tmp11"(#loc42))
#loc97 = loc("tmp11"(#loc43))
#loc98 = loc("tmp2"(#loc44))
#loc99 = loc("tmp4"(#loc45))
#loc100 = loc("tmp6"(#loc46))
#loc101 = loc("tmp8"(#loc47))
#loc102 = loc("tmp10"(#loc48))
#loc103 = loc("tmp12"(#loc49))
