#loc = loc("/root/autodl-tmp/HuangJieCode/Big-Yellow-J.github.io/code/Python/RL-TRL/~/autodl-tmp/tmp-sore/torchinductor_root/4l/c4lf6fxtzc5paezogv26hbyozhr7sdcgi4wco7sn5zoie6aioeuo.py":18:0)
#loc59 = loc("in_ptr0"(#loc))
#loc60 = loc("out_ptr0"(#loc))
#loc61 = loc("xnumel"(#loc))
module {
  tt.func public @triton_poi_fused_sum_view_7(%in_ptr0: !tt.ptr<bf16> {tt.divisibility = 16 : i32} loc("in_ptr0"(#loc)), %out_ptr0: !tt.ptr<bf16> {tt.divisibility = 16 : i32} loc("out_ptr0"(#loc)), %xnumel: i32 {tt.divisibility = 16 : i32} loc("xnumel"(#loc))) attributes {noinline = false} {
    %xnumel_0 = arith.constant 155904 : i32 loc(#loc62)
    %xoffset = tt.get_program_id x : i32 loc(#loc63)
    %xoffset_1 = arith.constant 1024 : i32 loc(#loc64)
    %xoffset_2 = arith.constant 1024 : i32 loc(#loc64)
    %xoffset_3 = arith.muli %xoffset, %xoffset_2 : i32 loc(#loc64)
    %xindex = tt.make_range {end = 1024 : i32, start = 0 : i32} : tensor<1024xi32> loc(#loc65)
    %xindex_4 = tt.splat %xoffset_3 : i32 -> tensor<1024xi32> loc(#loc66)
    %xindex_5 = arith.addi %xindex_4, %xindex : tensor<1024xi32> loc(#loc66)
    %xmask = arith.constant dense<155904> : tensor<1024xi32> loc(#loc67)
    %xmask_6 = arith.cmpi slt, %xindex_5, %xmask : tensor<1024xi32> loc(#loc67)
    %x0 = arith.constant 64 : i32 loc(#loc68)
    %x0_7 = arith.constant 64 : i32 loc(#loc68)
    %x0_8 = arith.constant dense<64> : tensor<1024xi32> loc(#loc68)
    %x0_9 = arith.remsi %xindex_5, %x0_8 : tensor<1024xi32> loc(#loc68)
    %x1 = arith.constant 64 : i32 loc(#loc69)
    %x1_10 = arith.constant 64 : i32 loc(#loc69)
    %x1_11 = arith.constant dense<64> : tensor<1024xi32> loc(#loc69)
    %x1_12 = arith.divsi %xindex_5, %x1_11 : tensor<1024xi32> loc(#loc69)
    %tmp0 = arith.constant 448 : i32 loc(#loc70)
    %tmp0_13 = arith.constant 448 : i32 loc(#loc70)
    %tmp0_14 = arith.constant dense<448> : tensor<1024xi32> loc(#loc70)
    %tmp0_15 = arith.muli %tmp0_14, %x1_12 : tensor<1024xi32> loc(#loc70)
    %tmp0_16 = arith.addi %x0_9, %tmp0_15 : tensor<1024xi32> loc(#loc71)
    %tmp0_17 = tt.splat %in_ptr0 : !tt.ptr<bf16> -> tensor<1024x!tt.ptr<bf16>> loc(#loc72)
    %tmp0_18 = tt.addptr %tmp0_17, %tmp0_16 : tensor<1024x!tt.ptr<bf16>>, tensor<1024xi32> loc(#loc72)
    %tmp0_19 = tt.load %tmp0_18, %xmask_6 : tensor<1024x!tt.ptr<bf16>> loc(#loc73)
    %tmp0_20 = arith.extf %tmp0_19 : tensor<1024xbf16> to tensor<1024xf32> loc(#loc74)
    %tmp1 = arith.constant 64 : i32 loc(#loc75)
    %tmp1_21 = arith.constant 64 : i32 loc(#loc75)
    %tmp1_22 = arith.constant dense<64> : tensor<1024xi32> loc(#loc75)
    %tmp1_23 = arith.addi %tmp1_22, %x0_9 : tensor<1024xi32> loc(#loc75)
    %tmp1_24 = arith.constant 448 : i32 loc(#loc76)
    %tmp1_25 = arith.constant 448 : i32 loc(#loc76)
    %tmp1_26 = arith.constant dense<448> : tensor<1024xi32> loc(#loc76)
    %tmp1_27 = arith.muli %tmp1_26, %x1_12 : tensor<1024xi32> loc(#loc76)
    %tmp1_28 = arith.addi %tmp1_23, %tmp1_27 : tensor<1024xi32> loc(#loc77)
    %tmp1_29 = tt.splat %in_ptr0 : !tt.ptr<bf16> -> tensor<1024x!tt.ptr<bf16>> loc(#loc78)
    %tmp1_30 = tt.addptr %tmp1_29, %tmp1_28 : tensor<1024x!tt.ptr<bf16>>, tensor<1024xi32> loc(#loc78)
    %tmp1_31 = tt.load %tmp1_30, %xmask_6 : tensor<1024x!tt.ptr<bf16>> loc(#loc79)
    %tmp1_32 = arith.extf %tmp1_31 : tensor<1024xbf16> to tensor<1024xf32> loc(#loc80)
    %tmp3 = arith.constant 128 : i32 loc(#loc81)
    %tmp3_33 = arith.constant 128 : i32 loc(#loc81)
    %tmp3_34 = arith.constant dense<128> : tensor<1024xi32> loc(#loc81)
    %tmp3_35 = arith.addi %tmp3_34, %x0_9 : tensor<1024xi32> loc(#loc81)
    %tmp3_36 = arith.constant 448 : i32 loc(#loc82)
    %tmp3_37 = arith.constant 448 : i32 loc(#loc82)
    %tmp3_38 = arith.constant dense<448> : tensor<1024xi32> loc(#loc82)
    %tmp3_39 = arith.muli %tmp3_38, %x1_12 : tensor<1024xi32> loc(#loc82)
    %tmp3_40 = arith.addi %tmp3_35, %tmp3_39 : tensor<1024xi32> loc(#loc83)
    %tmp3_41 = tt.splat %in_ptr0 : !tt.ptr<bf16> -> tensor<1024x!tt.ptr<bf16>> loc(#loc84)
    %tmp3_42 = tt.addptr %tmp3_41, %tmp3_40 : tensor<1024x!tt.ptr<bf16>>, tensor<1024xi32> loc(#loc84)
    %tmp3_43 = tt.load %tmp3_42, %xmask_6 : tensor<1024x!tt.ptr<bf16>> loc(#loc85)
    %tmp3_44 = arith.extf %tmp3_43 : tensor<1024xbf16> to tensor<1024xf32> loc(#loc86)
    %tmp5 = arith.constant 192 : i32 loc(#loc87)
    %tmp5_45 = arith.constant 192 : i32 loc(#loc87)
    %tmp5_46 = arith.constant dense<192> : tensor<1024xi32> loc(#loc87)
    %tmp5_47 = arith.addi %tmp5_46, %x0_9 : tensor<1024xi32> loc(#loc87)
    %tmp5_48 = arith.constant 448 : i32 loc(#loc88)
    %tmp5_49 = arith.constant 448 : i32 loc(#loc88)
    %tmp5_50 = arith.constant dense<448> : tensor<1024xi32> loc(#loc88)
    %tmp5_51 = arith.muli %tmp5_50, %x1_12 : tensor<1024xi32> loc(#loc88)
    %tmp5_52 = arith.addi %tmp5_47, %tmp5_51 : tensor<1024xi32> loc(#loc89)
    %tmp5_53 = tt.splat %in_ptr0 : !tt.ptr<bf16> -> tensor<1024x!tt.ptr<bf16>> loc(#loc90)
    %tmp5_54 = tt.addptr %tmp5_53, %tmp5_52 : tensor<1024x!tt.ptr<bf16>>, tensor<1024xi32> loc(#loc90)
    %tmp5_55 = tt.load %tmp5_54, %xmask_6 : tensor<1024x!tt.ptr<bf16>> loc(#loc91)
    %tmp5_56 = arith.extf %tmp5_55 : tensor<1024xbf16> to tensor<1024xf32> loc(#loc92)
    %tmp7 = arith.constant 256 : i32 loc(#loc93)
    %tmp7_57 = arith.constant 256 : i32 loc(#loc93)
    %tmp7_58 = arith.constant dense<256> : tensor<1024xi32> loc(#loc93)
    %tmp7_59 = arith.addi %tmp7_58, %x0_9 : tensor<1024xi32> loc(#loc93)
    %tmp7_60 = arith.constant 448 : i32 loc(#loc94)
    %tmp7_61 = arith.constant 448 : i32 loc(#loc94)
    %tmp7_62 = arith.constant dense<448> : tensor<1024xi32> loc(#loc94)
    %tmp7_63 = arith.muli %tmp7_62, %x1_12 : tensor<1024xi32> loc(#loc94)
    %tmp7_64 = arith.addi %tmp7_59, %tmp7_63 : tensor<1024xi32> loc(#loc95)
    %tmp7_65 = tt.splat %in_ptr0 : !tt.ptr<bf16> -> tensor<1024x!tt.ptr<bf16>> loc(#loc96)
    %tmp7_66 = tt.addptr %tmp7_65, %tmp7_64 : tensor<1024x!tt.ptr<bf16>>, tensor<1024xi32> loc(#loc96)
    %tmp7_67 = tt.load %tmp7_66, %xmask_6 : tensor<1024x!tt.ptr<bf16>> loc(#loc97)
    %tmp7_68 = arith.extf %tmp7_67 : tensor<1024xbf16> to tensor<1024xf32> loc(#loc98)
    %tmp9 = arith.constant 320 : i32 loc(#loc99)
    %tmp9_69 = arith.constant 320 : i32 loc(#loc99)
    %tmp9_70 = arith.constant dense<320> : tensor<1024xi32> loc(#loc99)
    %tmp9_71 = arith.addi %tmp9_70, %x0_9 : tensor<1024xi32> loc(#loc99)
    %tmp9_72 = arith.constant 448 : i32 loc(#loc100)
    %tmp9_73 = arith.constant 448 : i32 loc(#loc100)
    %tmp9_74 = arith.constant dense<448> : tensor<1024xi32> loc(#loc100)
    %tmp9_75 = arith.muli %tmp9_74, %x1_12 : tensor<1024xi32> loc(#loc100)
    %tmp9_76 = arith.addi %tmp9_71, %tmp9_75 : tensor<1024xi32> loc(#loc101)
    %tmp9_77 = tt.splat %in_ptr0 : !tt.ptr<bf16> -> tensor<1024x!tt.ptr<bf16>> loc(#loc102)
    %tmp9_78 = tt.addptr %tmp9_77, %tmp9_76 : tensor<1024x!tt.ptr<bf16>>, tensor<1024xi32> loc(#loc102)
    %tmp9_79 = tt.load %tmp9_78, %xmask_6 : tensor<1024x!tt.ptr<bf16>> loc(#loc103)
    %tmp9_80 = arith.extf %tmp9_79 : tensor<1024xbf16> to tensor<1024xf32> loc(#loc104)
    %tmp11 = arith.constant 384 : i32 loc(#loc105)
    %tmp11_81 = arith.constant 384 : i32 loc(#loc105)
    %tmp11_82 = arith.constant dense<384> : tensor<1024xi32> loc(#loc105)
    %tmp11_83 = arith.addi %tmp11_82, %x0_9 : tensor<1024xi32> loc(#loc105)
    %tmp11_84 = arith.constant 448 : i32 loc(#loc106)
    %tmp11_85 = arith.constant 448 : i32 loc(#loc106)
    %tmp11_86 = arith.constant dense<448> : tensor<1024xi32> loc(#loc106)
    %tmp11_87 = arith.muli %tmp11_86, %x1_12 : tensor<1024xi32> loc(#loc106)
    %tmp11_88 = arith.addi %tmp11_83, %tmp11_87 : tensor<1024xi32> loc(#loc107)
    %tmp11_89 = tt.splat %in_ptr0 : !tt.ptr<bf16> -> tensor<1024x!tt.ptr<bf16>> loc(#loc108)
    %tmp11_90 = tt.addptr %tmp11_89, %tmp11_88 : tensor<1024x!tt.ptr<bf16>>, tensor<1024xi32> loc(#loc108)
    %tmp11_91 = tt.load %tmp11_90, %xmask_6 : tensor<1024x!tt.ptr<bf16>> loc(#loc109)
    %tmp11_92 = arith.extf %tmp11_91 : tensor<1024xbf16> to tensor<1024xf32> loc(#loc110)
    %tmp2 = arith.addf %tmp0_20, %tmp1_32 : tensor<1024xf32> loc(#loc111)
    %tmp4 = arith.addf %tmp2, %tmp3_44 : tensor<1024xf32> loc(#loc112)
    %tmp6 = arith.addf %tmp4, %tmp5_56 : tensor<1024xf32> loc(#loc113)
    %tmp8 = arith.addf %tmp6, %tmp7_68 : tensor<1024xf32> loc(#loc114)
    %tmp10 = arith.addf %tmp8, %tmp9_80 : tensor<1024xf32> loc(#loc115)
    %tmp12 = arith.addf %tmp10, %tmp11_92 : tensor<1024xf32> loc(#loc116)
    %0 = tt.splat %out_ptr0 : !tt.ptr<bf16> -> tensor<1024x!tt.ptr<bf16>> loc(#loc56)
    %1 = tt.addptr %0, %xindex_5 : tensor<1024x!tt.ptr<bf16>>, tensor<1024xi32> loc(#loc56)
    %2 = arith.truncf %tmp12 : tensor<1024xf32> to tensor<1024xbf16> loc(#loc57)
    tt.store %1, %2, %xmask_6 : tensor<1024x!tt.ptr<bf16>> loc(#loc57)
    tt.return loc(#loc58)
  } loc(#loc)
} loc(#loc)
#loc1 = loc("/root/autodl-tmp/HuangJieCode/Big-Yellow-J.github.io/code/Python/RL-TRL/~/autodl-tmp/tmp-sore/torchinductor_root/4l/c4lf6fxtzc5paezogv26hbyozhr7sdcgi4wco7sn5zoie6aioeuo.py":19:13)
#loc2 = loc("/root/autodl-tmp/HuangJieCode/Big-Yellow-J.github.io/code/Python/RL-TRL/~/autodl-tmp/tmp-sore/torchinductor_root/4l/c4lf6fxtzc5paezogv26hbyozhr7sdcgi4wco7sn5zoie6aioeuo.py":20:28)
#loc3 = loc("/root/autodl-tmp/HuangJieCode/Big-Yellow-J.github.io/code/Python/RL-TRL/~/autodl-tmp/tmp-sore/torchinductor_root/4l/c4lf6fxtzc5paezogv26hbyozhr7sdcgi4wco7sn5zoie6aioeuo.py":20:33)
#loc4 = loc("/root/autodl-tmp/HuangJieCode/Big-Yellow-J.github.io/code/Python/RL-TRL/~/autodl-tmp/tmp-sore/torchinductor_root/4l/c4lf6fxtzc5paezogv26hbyozhr7sdcgi4wco7sn5zoie6aioeuo.py":21:36)
#loc5 = loc("/root/autodl-tmp/HuangJieCode/Big-Yellow-J.github.io/code/Python/RL-TRL/~/autodl-tmp/tmp-sore/torchinductor_root/4l/c4lf6fxtzc5paezogv26hbyozhr7sdcgi4wco7sn5zoie6aioeuo.py":21:23)
#loc6 = loc("/root/autodl-tmp/HuangJieCode/Big-Yellow-J.github.io/code/Python/RL-TRL/~/autodl-tmp/tmp-sore/torchinductor_root/4l/c4lf6fxtzc5paezogv26hbyozhr7sdcgi4wco7sn5zoie6aioeuo.py":22:21)
#loc7 = loc("/root/autodl-tmp/HuangJieCode/Big-Yellow-J.github.io/code/Python/RL-TRL/~/autodl-tmp/tmp-sore/torchinductor_root/4l/c4lf6fxtzc5paezogv26hbyozhr7sdcgi4wco7sn5zoie6aioeuo.py":23:19)
#loc8 = loc("/root/autodl-tmp/HuangJieCode/Big-Yellow-J.github.io/code/Python/RL-TRL/~/autodl-tmp/tmp-sore/torchinductor_root/4l/c4lf6fxtzc5paezogv26hbyozhr7sdcgi4wco7sn5zoie6aioeuo.py":24:19)
#loc9 = loc("/root/autodl-tmp/HuangJieCode/Big-Yellow-J.github.io/code/Python/RL-TRL/~/autodl-tmp/tmp-sore/torchinductor_root/4l/c4lf6fxtzc5paezogv26hbyozhr7sdcgi4wco7sn5zoie6aioeuo.py":26:39)
#loc10 = loc("/root/autodl-tmp/HuangJieCode/Big-Yellow-J.github.io/code/Python/RL-TRL/~/autodl-tmp/tmp-sore/torchinductor_root/4l/c4lf6fxtzc5paezogv26hbyozhr7sdcgi4wco7sn5zoie6aioeuo.py":26:35)
#loc11 = loc("/root/autodl-tmp/HuangJieCode/Big-Yellow-J.github.io/code/Python/RL-TRL/~/autodl-tmp/tmp-sore/torchinductor_root/4l/c4lf6fxtzc5paezogv26hbyozhr7sdcgi4wco7sn5zoie6aioeuo.py":26:30)
#loc12 = loc("/root/autodl-tmp/HuangJieCode/Big-Yellow-J.github.io/code/Python/RL-TRL/~/autodl-tmp/tmp-sore/torchinductor_root/4l/c4lf6fxtzc5paezogv26hbyozhr7sdcgi4wco7sn5zoie6aioeuo.py":26:44)
#loc13 = loc("/root/autodl-tmp/HuangJieCode/Big-Yellow-J.github.io/code/Python/RL-TRL/~/autodl-tmp/tmp-sore/torchinductor_root/4l/c4lf6fxtzc5paezogv26hbyozhr7sdcgi4wco7sn5zoie6aioeuo.py":26:54)
#loc14 = loc("/root/autodl-tmp/HuangJieCode/Big-Yellow-J.github.io/code/Python/RL-TRL/~/autodl-tmp/tmp-sore/torchinductor_root/4l/c4lf6fxtzc5paezogv26hbyozhr7sdcgi4wco7sn5zoie6aioeuo.py":27:35)
#loc15 = loc("/root/autodl-tmp/HuangJieCode/Big-Yellow-J.github.io/code/Python/RL-TRL/~/autodl-tmp/tmp-sore/torchinductor_root/4l/c4lf6fxtzc5paezogv26hbyozhr7sdcgi4wco7sn5zoie6aioeuo.py":27:44)
#loc16 = loc("/root/autodl-tmp/HuangJieCode/Big-Yellow-J.github.io/code/Python/RL-TRL/~/autodl-tmp/tmp-sore/torchinductor_root/4l/c4lf6fxtzc5paezogv26hbyozhr7sdcgi4wco7sn5zoie6aioeuo.py":27:40)
#loc17 = loc("/root/autodl-tmp/HuangJieCode/Big-Yellow-J.github.io/code/Python/RL-TRL/~/autodl-tmp/tmp-sore/torchinductor_root/4l/c4lf6fxtzc5paezogv26hbyozhr7sdcgi4wco7sn5zoie6aioeuo.py":27:30)
#loc18 = loc("/root/autodl-tmp/HuangJieCode/Big-Yellow-J.github.io/code/Python/RL-TRL/~/autodl-tmp/tmp-sore/torchinductor_root/4l/c4lf6fxtzc5paezogv26hbyozhr7sdcgi4wco7sn5zoie6aioeuo.py":27:49)
#loc19 = loc("/root/autodl-tmp/HuangJieCode/Big-Yellow-J.github.io/code/Python/RL-TRL/~/autodl-tmp/tmp-sore/torchinductor_root/4l/c4lf6fxtzc5paezogv26hbyozhr7sdcgi4wco7sn5zoie6aioeuo.py":27:59)
#loc20 = loc("/root/autodl-tmp/HuangJieCode/Big-Yellow-J.github.io/code/Python/RL-TRL/~/autodl-tmp/tmp-sore/torchinductor_root/4l/c4lf6fxtzc5paezogv26hbyozhr7sdcgi4wco7sn5zoie6aioeuo.py":28:36)
#loc21 = loc("/root/autodl-tmp/HuangJieCode/Big-Yellow-J.github.io/code/Python/RL-TRL/~/autodl-tmp/tmp-sore/torchinductor_root/4l/c4lf6fxtzc5paezogv26hbyozhr7sdcgi4wco7sn5zoie6aioeuo.py":28:45)
#loc22 = loc("/root/autodl-tmp/HuangJieCode/Big-Yellow-J.github.io/code/Python/RL-TRL/~/autodl-tmp/tmp-sore/torchinductor_root/4l/c4lf6fxtzc5paezogv26hbyozhr7sdcgi4wco7sn5zoie6aioeuo.py":28:41)
#loc23 = loc("/root/autodl-tmp/HuangJieCode/Big-Yellow-J.github.io/code/Python/RL-TRL/~/autodl-tmp/tmp-sore/torchinductor_root/4l/c4lf6fxtzc5paezogv26hbyozhr7sdcgi4wco7sn5zoie6aioeuo.py":28:30)
#loc24 = loc("/root/autodl-tmp/HuangJieCode/Big-Yellow-J.github.io/code/Python/RL-TRL/~/autodl-tmp/tmp-sore/torchinductor_root/4l/c4lf6fxtzc5paezogv26hbyozhr7sdcgi4wco7sn5zoie6aioeuo.py":28:50)
#loc25 = loc("/root/autodl-tmp/HuangJieCode/Big-Yellow-J.github.io/code/Python/RL-TRL/~/autodl-tmp/tmp-sore/torchinductor_root/4l/c4lf6fxtzc5paezogv26hbyozhr7sdcgi4wco7sn5zoie6aioeuo.py":28:60)
#loc26 = loc("/root/autodl-tmp/HuangJieCode/Big-Yellow-J.github.io/code/Python/RL-TRL/~/autodl-tmp/tmp-sore/torchinductor_root/4l/c4lf6fxtzc5paezogv26hbyozhr7sdcgi4wco7sn5zoie6aioeuo.py":29:36)
#loc27 = loc("/root/autodl-tmp/HuangJieCode/Big-Yellow-J.github.io/code/Python/RL-TRL/~/autodl-tmp/tmp-sore/torchinductor_root/4l/c4lf6fxtzc5paezogv26hbyozhr7sdcgi4wco7sn5zoie6aioeuo.py":29:45)
#loc28 = loc("/root/autodl-tmp/HuangJieCode/Big-Yellow-J.github.io/code/Python/RL-TRL/~/autodl-tmp/tmp-sore/torchinductor_root/4l/c4lf6fxtzc5paezogv26hbyozhr7sdcgi4wco7sn5zoie6aioeuo.py":29:41)
#loc29 = loc("/root/autodl-tmp/HuangJieCode/Big-Yellow-J.github.io/code/Python/RL-TRL/~/autodl-tmp/tmp-sore/torchinductor_root/4l/c4lf6fxtzc5paezogv26hbyozhr7sdcgi4wco7sn5zoie6aioeuo.py":29:30)
#loc30 = loc("/root/autodl-tmp/HuangJieCode/Big-Yellow-J.github.io/code/Python/RL-TRL/~/autodl-tmp/tmp-sore/torchinductor_root/4l/c4lf6fxtzc5paezogv26hbyozhr7sdcgi4wco7sn5zoie6aioeuo.py":29:50)
#loc31 = loc("/root/autodl-tmp/HuangJieCode/Big-Yellow-J.github.io/code/Python/RL-TRL/~/autodl-tmp/tmp-sore/torchinductor_root/4l/c4lf6fxtzc5paezogv26hbyozhr7sdcgi4wco7sn5zoie6aioeuo.py":29:60)
#loc32 = loc("/root/autodl-tmp/HuangJieCode/Big-Yellow-J.github.io/code/Python/RL-TRL/~/autodl-tmp/tmp-sore/torchinductor_root/4l/c4lf6fxtzc5paezogv26hbyozhr7sdcgi4wco7sn5zoie6aioeuo.py":30:36)
#loc33 = loc("/root/autodl-tmp/HuangJieCode/Big-Yellow-J.github.io/code/Python/RL-TRL/~/autodl-tmp/tmp-sore/torchinductor_root/4l/c4lf6fxtzc5paezogv26hbyozhr7sdcgi4wco7sn5zoie6aioeuo.py":30:45)
#loc34 = loc("/root/autodl-tmp/HuangJieCode/Big-Yellow-J.github.io/code/Python/RL-TRL/~/autodl-tmp/tmp-sore/torchinductor_root/4l/c4lf6fxtzc5paezogv26hbyozhr7sdcgi4wco7sn5zoie6aioeuo.py":30:41)
#loc35 = loc("/root/autodl-tmp/HuangJieCode/Big-Yellow-J.github.io/code/Python/RL-TRL/~/autodl-tmp/tmp-sore/torchinductor_root/4l/c4lf6fxtzc5paezogv26hbyozhr7sdcgi4wco7sn5zoie6aioeuo.py":30:30)
#loc36 = loc("/root/autodl-tmp/HuangJieCode/Big-Yellow-J.github.io/code/Python/RL-TRL/~/autodl-tmp/tmp-sore/torchinductor_root/4l/c4lf6fxtzc5paezogv26hbyozhr7sdcgi4wco7sn5zoie6aioeuo.py":30:50)
#loc37 = loc("/root/autodl-tmp/HuangJieCode/Big-Yellow-J.github.io/code/Python/RL-TRL/~/autodl-tmp/tmp-sore/torchinductor_root/4l/c4lf6fxtzc5paezogv26hbyozhr7sdcgi4wco7sn5zoie6aioeuo.py":30:60)
#loc38 = loc("/root/autodl-tmp/HuangJieCode/Big-Yellow-J.github.io/code/Python/RL-TRL/~/autodl-tmp/tmp-sore/torchinductor_root/4l/c4lf6fxtzc5paezogv26hbyozhr7sdcgi4wco7sn5zoie6aioeuo.py":31:36)
#loc39 = loc("/root/autodl-tmp/HuangJieCode/Big-Yellow-J.github.io/code/Python/RL-TRL/~/autodl-tmp/tmp-sore/torchinductor_root/4l/c4lf6fxtzc5paezogv26hbyozhr7sdcgi4wco7sn5zoie6aioeuo.py":31:45)
#loc40 = loc("/root/autodl-tmp/HuangJieCode/Big-Yellow-J.github.io/code/Python/RL-TRL/~/autodl-tmp/tmp-sore/torchinductor_root/4l/c4lf6fxtzc5paezogv26hbyozhr7sdcgi4wco7sn5zoie6aioeuo.py":31:41)
#loc41 = loc("/root/autodl-tmp/HuangJieCode/Big-Yellow-J.github.io/code/Python/RL-TRL/~/autodl-tmp/tmp-sore/torchinductor_root/4l/c4lf6fxtzc5paezogv26hbyozhr7sdcgi4wco7sn5zoie6aioeuo.py":31:30)
#loc42 = loc("/root/autodl-tmp/HuangJieCode/Big-Yellow-J.github.io/code/Python/RL-TRL/~/autodl-tmp/tmp-sore/torchinductor_root/4l/c4lf6fxtzc5paezogv26hbyozhr7sdcgi4wco7sn5zoie6aioeuo.py":31:50)
#loc43 = loc("/root/autodl-tmp/HuangJieCode/Big-Yellow-J.github.io/code/Python/RL-TRL/~/autodl-tmp/tmp-sore/torchinductor_root/4l/c4lf6fxtzc5paezogv26hbyozhr7sdcgi4wco7sn5zoie6aioeuo.py":31:60)
#loc44 = loc("/root/autodl-tmp/HuangJieCode/Big-Yellow-J.github.io/code/Python/RL-TRL/~/autodl-tmp/tmp-sore/torchinductor_root/4l/c4lf6fxtzc5paezogv26hbyozhr7sdcgi4wco7sn5zoie6aioeuo.py":32:37)
#loc45 = loc("/root/autodl-tmp/HuangJieCode/Big-Yellow-J.github.io/code/Python/RL-TRL/~/autodl-tmp/tmp-sore/torchinductor_root/4l/c4lf6fxtzc5paezogv26hbyozhr7sdcgi4wco7sn5zoie6aioeuo.py":32:46)
#loc46 = loc("/root/autodl-tmp/HuangJieCode/Big-Yellow-J.github.io/code/Python/RL-TRL/~/autodl-tmp/tmp-sore/torchinductor_root/4l/c4lf6fxtzc5paezogv26hbyozhr7sdcgi4wco7sn5zoie6aioeuo.py":32:42)
#loc47 = loc("/root/autodl-tmp/HuangJieCode/Big-Yellow-J.github.io/code/Python/RL-TRL/~/autodl-tmp/tmp-sore/torchinductor_root/4l/c4lf6fxtzc5paezogv26hbyozhr7sdcgi4wco7sn5zoie6aioeuo.py":32:31)
#loc48 = loc("/root/autodl-tmp/HuangJieCode/Big-Yellow-J.github.io/code/Python/RL-TRL/~/autodl-tmp/tmp-sore/torchinductor_root/4l/c4lf6fxtzc5paezogv26hbyozhr7sdcgi4wco7sn5zoie6aioeuo.py":32:51)
#loc49 = loc("/root/autodl-tmp/HuangJieCode/Big-Yellow-J.github.io/code/Python/RL-TRL/~/autodl-tmp/tmp-sore/torchinductor_root/4l/c4lf6fxtzc5paezogv26hbyozhr7sdcgi4wco7sn5zoie6aioeuo.py":32:61)
#loc50 = loc("/root/autodl-tmp/HuangJieCode/Big-Yellow-J.github.io/code/Python/RL-TRL/~/autodl-tmp/tmp-sore/torchinductor_root/4l/c4lf6fxtzc5paezogv26hbyozhr7sdcgi4wco7sn5zoie6aioeuo.py":33:18)
#loc51 = loc("/root/autodl-tmp/HuangJieCode/Big-Yellow-J.github.io/code/Python/RL-TRL/~/autodl-tmp/tmp-sore/torchinductor_root/4l/c4lf6fxtzc5paezogv26hbyozhr7sdcgi4wco7sn5zoie6aioeuo.py":34:18)
#loc52 = loc("/root/autodl-tmp/HuangJieCode/Big-Yellow-J.github.io/code/Python/RL-TRL/~/autodl-tmp/tmp-sore/torchinductor_root/4l/c4lf6fxtzc5paezogv26hbyozhr7sdcgi4wco7sn5zoie6aioeuo.py":35:18)
#loc53 = loc("/root/autodl-tmp/HuangJieCode/Big-Yellow-J.github.io/code/Python/RL-TRL/~/autodl-tmp/tmp-sore/torchinductor_root/4l/c4lf6fxtzc5paezogv26hbyozhr7sdcgi4wco7sn5zoie6aioeuo.py":36:18)
#loc54 = loc("/root/autodl-tmp/HuangJieCode/Big-Yellow-J.github.io/code/Python/RL-TRL/~/autodl-tmp/tmp-sore/torchinductor_root/4l/c4lf6fxtzc5paezogv26hbyozhr7sdcgi4wco7sn5zoie6aioeuo.py":37:19)
#loc55 = loc("/root/autodl-tmp/HuangJieCode/Big-Yellow-J.github.io/code/Python/RL-TRL/~/autodl-tmp/tmp-sore/torchinductor_root/4l/c4lf6fxtzc5paezogv26hbyozhr7sdcgi4wco7sn5zoie6aioeuo.py":38:20)
#loc56 = loc("/root/autodl-tmp/HuangJieCode/Big-Yellow-J.github.io/code/Python/RL-TRL/~/autodl-tmp/tmp-sore/torchinductor_root/4l/c4lf6fxtzc5paezogv26hbyozhr7sdcgi4wco7sn5zoie6aioeuo.py":39:25)
#loc57 = loc("/root/autodl-tmp/HuangJieCode/Big-Yellow-J.github.io/code/Python/RL-TRL/~/autodl-tmp/tmp-sore/torchinductor_root/4l/c4lf6fxtzc5paezogv26hbyozhr7sdcgi4wco7sn5zoie6aioeuo.py":39:37)
#loc58 = loc("/root/autodl-tmp/HuangJieCode/Big-Yellow-J.github.io/code/Python/RL-TRL/~/autodl-tmp/tmp-sore/torchinductor_root/4l/c4lf6fxtzc5paezogv26hbyozhr7sdcgi4wco7sn5zoie6aioeuo.py":39:4)
#loc62 = loc("xnumel"(#loc1))
#loc63 = loc("xoffset"(#loc2))
#loc64 = loc("xoffset"(#loc3))
#loc65 = loc("xindex"(#loc4))
#loc66 = loc("xindex"(#loc5))
#loc67 = loc("xmask"(#loc6))
#loc68 = loc("x0"(#loc7))
#loc69 = loc("x1"(#loc8))
#loc70 = loc("tmp0"(#loc9))
#loc71 = loc("tmp0"(#loc10))
#loc72 = loc("tmp0"(#loc11))
#loc73 = loc("tmp0"(#loc12))
#loc74 = loc("tmp0"(#loc13))
#loc75 = loc("tmp1"(#loc14))
#loc76 = loc("tmp1"(#loc15))
#loc77 = loc("tmp1"(#loc16))
#loc78 = loc("tmp1"(#loc17))
#loc79 = loc("tmp1"(#loc18))
#loc80 = loc("tmp1"(#loc19))
#loc81 = loc("tmp3"(#loc20))
#loc82 = loc("tmp3"(#loc21))
#loc83 = loc("tmp3"(#loc22))
#loc84 = loc("tmp3"(#loc23))
#loc85 = loc("tmp3"(#loc24))
#loc86 = loc("tmp3"(#loc25))
#loc87 = loc("tmp5"(#loc26))
#loc88 = loc("tmp5"(#loc27))
#loc89 = loc("tmp5"(#loc28))
#loc90 = loc("tmp5"(#loc29))
#loc91 = loc("tmp5"(#loc30))
#loc92 = loc("tmp5"(#loc31))
#loc93 = loc("tmp7"(#loc32))
#loc94 = loc("tmp7"(#loc33))
#loc95 = loc("tmp7"(#loc34))
#loc96 = loc("tmp7"(#loc35))
#loc97 = loc("tmp7"(#loc36))
#loc98 = loc("tmp7"(#loc37))
#loc99 = loc("tmp9"(#loc38))
#loc100 = loc("tmp9"(#loc39))
#loc101 = loc("tmp9"(#loc40))
#loc102 = loc("tmp9"(#loc41))
#loc103 = loc("tmp9"(#loc42))
#loc104 = loc("tmp9"(#loc43))
#loc105 = loc("tmp11"(#loc44))
#loc106 = loc("tmp11"(#loc45))
#loc107 = loc("tmp11"(#loc46))
#loc108 = loc("tmp11"(#loc47))
#loc109 = loc("tmp11"(#loc48))
#loc110 = loc("tmp11"(#loc49))
#loc111 = loc("tmp2"(#loc50))
#loc112 = loc("tmp4"(#loc51))
#loc113 = loc("tmp6"(#loc52))
#loc114 = loc("tmp8"(#loc53))
#loc115 = loc("tmp10"(#loc54))
#loc116 = loc("tmp12"(#loc55))
